Models/OU_network/tau_0.5theta_0.25/target_policy_network.pt (torch, 7175 bytes, 5 tensors)

layer1.weight f4 [32, 3]
0	0xbe43aa2e	-0.19107887
1	0xbf8f0f0c	-1.1176467
2	0xbe99e48c	-0.3005718
3	0xbf4e9078	-0.8068919
4	0x3f4c4df5	0.79806453
5	0x3d566032	0.052337833
6	0xbe99c1f8	-0.300308
7	0xbfbc7e9b	-1.4726137
8	0xbe9ed019	-0.3101814
9	0x3f857888	1.0427408
10	0x3f6453ab	0.8919017
11	0xbe9f7a1a	-0.31147844
12	0x3e0bffb4	0.13671762
13	0x3ec32db6	0.38120812
14	0xbefff795	-0.49993578
15	0xbd9d442a	-0.07679017
16	0x3f290114	0.6601727
17	0xbe628b85	-0.22123535
18	0xbf85c7c6	-1.0451591
19	0x3eb88ef3	0.36046562
20	0xbdac8458	-0.0842368
21	0xbf5eee3c	-0.87082267
22	0x3f75d7c8	0.9603238
23	0x3ea32e4e	0.31871265
24	0xbe8199ca	-0.25312644
25	0xbfbecc6c	-1.4906135
26	0xbeeaecb6	-0.4588372
27	0xbd8709d6	-0.06593673
28	0xbf221ba1	-0.6332341
29	0xbe49d882	-0.19711497
30	0xbf72a9a3	-0.94790095
31	0x3f655de3	0.89596385
32	0x3e58f30c	0.21186465
33	0xbe156813	-0.14590482
34	0x3f926745	1.1437765
35	0x3f173cc3	0.5907709
36	0x3f3adbd6	0.72991693
37	0x3d894d0a	0.06704147
38	0x3d8dcd00	0.06923866
39	0xbf3fd0ce	-0.74927986
40	0xbd839384	-0.06424621
41	0xbedacd78	-0.42734885
42	0xbea3d910	-0.32001543
43	0xbf8f0a26	-1.1174972
44	0x3d6d79ec	0.057977602
45	0x3fc8edf0	1.5697613
46	0xbf4c3ce6	-0.79780424
47	0x3ea5a932	0.32355648
48	0x3ebb1e0d	0.36546364
49	0xbe97d68e	-0.2965588
50	0xbec70e86	-0.38878268
51	0xbdca0f5c	-0.09866211
52	0xbf9e1faa	-1.2353413
53	0xbf0d12e8	-0.55106974
54	0x3ed05308	0.40688348
55	0x3ef4e536	0.47831124
56	0x3f709e16	0.9399122
57	0xbe0b66d2	-0.13613442
58	0xbf73dd34	-0.95259404
59	0xbed80788	-0.42193246
60	0x3edcd2bc	0.43129528
61	0x3fa2cd5c	1.2718921
62	0x3e1c6a15	0.15274842
63	0xbf87e790	-1.0617542
64	0xbfd091c8	-1.6294489
65	0x3d5e0820	0.054206967
66	0xbce618f6	-0.028088074
67	0xbf6ecf14	-0.93284726
68	0xbf0b5a29	-0.5443445
69	0x3e900953	0.28132114
70	0xbead553e	-0.33854097
71	0x3ed2e2aa	0.41188556
72	0xbe885d20	-0.2663355
73	0xbf334ada	-0.7003609
74	0xbdc1ffc0	-0.094726086
75	0x3f6b635e	0.919485
76	0x3f1a6262	0.6030637
77	0x3ea276a9	0.31731156
78	0xbd4a7413	-0.049427103
79	0x3f7ce35c	0.9878442
80	0x3d859658	0.065228164
81	0xbe822b0e	-0.25423473
82	0xbf5a471a	-0.8526474
83	0xbf285b5e	-0.65764415
84	0x3f9f038e	1.242296
85	0xbed61800	-0.41815186
86	0xbee8e456	-0.45486706
87	0x3edbaefe	0.42906946
88	0xbf942b8b	-1.1575788
89	0xbe0024e2	-0.1251407
90	0x3e64f62e	0.22359535
91	0xbfb513e8	-1.41467
92	0xbdd74d3a	-0.10512777
93	0x3e691ad3	0.22764139
94	0x3f4d9e22	0.80319417
95	0x3eb1413e	0.34620088

layer1.bias f4 [32]
0	0x3f222e89	0.63352257
1	0x3eced8fd	0.40399924
2	0xbf0f2dd4	-0.55929303
3	0x3d45e596	0.048314653
4	0xbeed75e6	-0.46379012
5	0x3f9ab108	1.2085276
6	0x3f28d5eb	0.6595141
7	0x3f09a32a	0.53764594
8	0xbf028aa0	-0.50992775
9	0x3ea68f84	0.3253137
10	0x3f6fa067	0.9360413
11	0x3cdeac0f	0.027181653
12	0xbecc9326	-0.39956015
13	0x3f4c82c0	0.7988701
14	0x3f47ccfa	0.78047144
15	0x3e5a04ef	0.21290945
16	0xbf8a27dc	-1.0793414
17	0x3f11ed20	0.5700245
18	0x3ef856c2	0.4850369
19	0xbeed182e	-0.4630751
20	0xbe46d632	-0.19417647
21	0x3f1acdc2	0.6047021
22	0x3f1ea489	0.6196981
23	0x3ead4e36	0.33848733
24	0xbe340dfa	-0.17583457
25	0x3ceb140e	0.028696086
26	0xbeaabe02	-0.3334809
27	0x3eaff512	0.3436666
28	0x3e3b6416	0.18299899
29	0x3d7456b5	0.059653003
30	0x3ddbe64a	0.107372835
31	0x3f24fdf1	0.64449984

layer2.weight f4 [32, 32]
0	0xbe328602	-0.17433932
1	0xbc89dfd0	-0.016830355
2	0xbdbe3072	-0.09286584
3	0xbdef777c	-0.11692712
4	0xbba51140	-0.0050374568
5	0xbd8d8f63	-0.069121145
6	0xbda62e24	-0.081142694
7	0x3ce6d0f0	0.028175801
8	0x3e1696e5	0.14705999
9	0x3d87fc4e	0.0663992
10	0x3df219e6	0.11821346
11	0xbd3b2f18	-0.04569921
12	0x3dafcfce	0.085845575
13	0xbd3a4748	-0.045478135
14	0x3d46bd90	0.048520625
15	0xbe2fa916	-0.17154345
16	0x3e170aa5	0.14750154
17	0xbd8a16bb	-0.06742617
18	0xbe0d2c7b	-0.13786499
19	0xbdd8cbba	-0.10585733
20	0xbc798d70	-0.015231475
21	0x3e1f3699	0.15548171
22	0xbde27cef	-0.110589854
23	0xbd2c1c44	-0.042019144
24	0xbe29d069	-0.16583408
25	0x3c8a4660	0.01687926
26	0xbdf59f80	-0.11993313
27	0xbda596d7	-0.08085411
28	0xbaf21a80	-0.0018471032
29	0x3df047ee	0.117324695
30	0xbd884faa	-0.0665582
31	0xbdec57e1	-0.11540199
32	0x3ea2f45e	0.31827062
33	0xbfab9118	-1.3403654
34	0xbd81303f	-0.0630803
35	0x3ec7cee1	0.39025024
36	0x3e026420	0.12733507
37	0x3e68d9c0	0.22739315
38	0xbde96b2d	-0.11397395
39	0xbf948373	-1.1602615
40	0xbd842e30	-0.06454122
41	0xbd09bdd2	-0.033628292
42	0xbf6c0b2d	-0.9220455
43	0xbf8df19b	-1.1089357
44	0x3f7ffe70	0.99997616
45	0xbe47aaea	-0.19498792
46	0x3ebcebf7	0.36898777
47	0xbe2d9a9d	-0.16953512
48	0x3f09f53d	0.5388983
49	0x3e823162	0.254283
50	0xbd65ad82	-0.056073673
51	0x3ca790c9	0.020454781
52	0xbfb8d258	-1.4439192
53	0x3e4a90ce	0.19781801
54	0x3e129ba9	0.14317192
55	0x3e3c299c	0.18375248
56	0x3f6c7064	0.92358994
57	0xbe673c52	-0.22581604
58	0xbe805804	-0.2506715
59	0x3e36a5ce	0.17836687
60	0x3ef093f2	0.46987873
61	0x3e35cb9c	0.17753452
62	0x3ed5a8f5	0.41730466
63	0x3e43c10c	0.1911661
64	0x3d0e6a5d	0.034769405
65	0x3e3dfbe8	0.18553126
66	0xbe43dc30	-0.19126964
67	0x3ec95cbe	0.3932857
68	0x3ea3de0a	0.3200534
69	0x3e8869a6	0.26643103
70	0x3d8564e2	0.065133825
71	0x3d18ffde	0.03735339
72	0xbe6875c4	-0.22701174
73	0xbe72984c	-0.23690909
74	0x3e0fc18b	0.14038675
75	0x3e067224	0.13129479
76	0x3ef9ae61	0.48765853
77	0x3ce9316e	0.028465953
78	0xbe03e237	-0.12879263
79	0xbf0b2960	-0.5436001
80	0x3edee49c	0.4353379
81	0xbe55aeb5	-0.20867427
82	0xbd5475a4	-0.051870003
83	0xbe5bfdcb	-0.21483533
84	0xbeb04b23	-0.34432325
85	0x3e4d9a34	0.20078355
86	0x3c77a6f4	0.015115488
87	0xbd228bea	-0.039684214
88	0x3f46e1df	0.776884
89	0xbf351b2e	-0.707446
90	0x3ead2ffe	0.33825678
91	0x3d0e3556	0.034718834
92	0x3e0b7c99	0.13621749
93	0x3e3e0dbe	0.1855993
94	0x3dc17e92	0.094479695
95	0x3e1b8154	0.15186054
96	0xbe2b12ca	-0.16706386
97	0x3dc2ccc2	0.09511711
98	0xbeae90d3	-0.34094867
99	0x3e6bde3e	0.23033997
100	0x3e0c1f6e	0.13683864
101	0x3e0e2684	0.1388188
102	0xbe470481	-0.19435312
103	0x3dd6254c	0.104563326
104	0xbe6a4bb7	-0.22880445
105	0xbdc9c720	-0.09852433
106	0x3e7e6fa4	0.24847275
107	0x3e68aef0	0.22722983
108	0x3ee276b6	0.44231194
109	0x3e1e93fe	0.15486142
110	0xbe83d3f4	-0.25747645
111	0xbf87004a	-1.0546963
112	0x3e8b9939	0.27265337
113	0x3d9faaac	0.07796225
114	0xbd80cbfe	-0.062889084
115	0x3d849ee2	0.06475617
116	0x3ec4f50f	0.38468215
117	0xbd1cfdd4	-0.038328007
118	0x3e88a750	0.2669015
119	0x3d81c3e0	0.06336188
120	0x3f594cfd	0.848831
121	0xbf1c8822	-0.6114522
122	0x3f0cb7c4	0.54967904
123	0xbd6f731a	-0.05845938
124	0x3e84b6bc	0.25920665
125	0xbcf35126	-0.02970178
126	0x3dd558c8	0.10417324
127	0x3edba022	0.4289561
128	0x3e8adc34	0.27121127
129	0x3eab60e9	0.33472374
130	0xbfb031ec	-1.3765235
131	0x3ea9d3f7	0.3316953
132	0xbdfa6e18	-0.1222803
133	0x3e07e4d7	0.13270889
134	0x3e95745d	0.2919034
135	0x3eb4b468	0.3529389
136	0xbfc4c2f8	-1.5372
137	0xbfa016a2	-1.2506907
138	0x3e803e88	0.25047708
139	0x39f372c4	0.0004643408
140	0xbdc0ca52	-0.094135895
141	0xbe746e44	-0.23870188
142	0x3e53e920	0.20694399
143	0xbed236e8	-0.41057515
144	0x3d456504	0.04819204
145	0xbfa7c2d2	-1.310633
146	0x3d231140	0.039811373
147	0xbfb174c6	-1.3863761
148	0xbec07cc0	-0.37595177
149	0xbce5f7c7	-0.028072251
150	0xbf0f357c	-0.55940986
151	0x3d8e3f66	0.06945686
152	0x3ef136bd	0.47112074
153	0xbf31916f	-0.6936254
154	0x3e9d1b9d	0.3068513
155	0xbf87baee	-1.0603921
156	0x3f015663	0.5052244
157	0x3e90fad8	0.2831638
158	0x3eac0fd6	0.33605832
159	0x3eb1f3df	0.3475637
160	0x3e71ca16	0.23612246
161	0x3dc710ea	0.09720023
162	0x3e498064	0.19677883
163	0xbedb2bae	-0.42806762
164	0xbb87bb5a	-0.004142207
165	0xbe950576	-0.2910573
166	0xbbe2f9fc	-0.006926773
167	0x3e47774e	0.19479105
168	0x3f0d9310	0.55302525
169	0x3e102a6b	0.14078681
170	0x3e1f1df8	0.15538776
171	0x3e546218	0.20740545
172	0xbf1517fe	-0.58239734
173	0x3d3bb4d5	0.04582675
174	0x3ee33d08	0.443825
175	0x3edaf950	0.42768335
176	0xbd9d9f7a	-0.07696433
177	0x3e76ed12	0.24113873
178	0x3e83b980	0.25727463
179	0x3ea2e7b9	0.31817415
180	0x3e64ff2a	0.22362962
181	0x3e35edee	0.17766544
182	0xbc328528	-0.010896005
183	0x3d91b93e	0.0711541
184	0xbf1eba36	-0.62002885
185	0x3e9fb1d6	0.31190366
186	0xbec2acf5	-0.3802258
187	0x3e074766	0.1321083
188	0xbebb634b	-0.36599192
189	0x3e879198	0.26478267
190	0x3df8f7b8	0.121566236
191	0x3d8f2d54	0.069910675
192	0x3d9760bc	0.073914975
193	0x3da58ba3	0.08083274
194	0xbec5a71c	-0.38604057
195	0x3ead666c	0.33867204
196	0x3e56fd8a	0.20995155
197	0x3e8027bc	0.25030315
198	0xbe004e18	-0.1252979
199	0x3e54652e	0.20741722
200	0xbdcb52ec	-0.099279255
201	0xbe149721	-0.14510776
202	0x3c1e7a29	0.00967268
203	0x3e12f81e	0.14352462
204	0x3f33be52	0.7021228
205	0xbe5576d0	-0.20846105
206	0xbd0447dc	-0.032295093
207	0xbe84555b	-0.2584637
208	0x3ea47116	0.32117528
209	0x3e16ee87	0.14739428
210	0x3d4accd8	0.04951176
211	0xbd3e515d	-0.046464313
212	0xbeafe971	-0.3435779
213	0x3dc022e0	0.09381652
214	0x3e178784	0.14797789
215	0xbc51b968	-0.012800552
216	0x3f40b8c2	0.7528192
217	0xbec8ca2a	-0.3921674
218	0x3e81f6fe	0.25383753
219	0x3cb11640	0.021617055
220	0x3edef370	0.43545103
221	0x3e7e581e	0.24838302
222	0x3e571408	0.21003735
223	0x3d82541c	0.06363699
224	0x3d8eb734	0.06968537
225	0x3e58a9ba	0.21158496
226	0xbe0a2f2d	-0.13494559
227	0x3e7b24a4	0.24525696
228	0x3e548e8c	0.20757502
229	0x3d85461e	0.065075144
230	0xbd3a9c91	-0.04555947
231	0xbb66dfb8	-0.0035228562
232	0xbdec9fc4	-0.115539104
233	0xbe00c95a	-0.1257681
234	0xbd9ebaca	-0.07750471
235	0x3e626546	0.22108945
236	0x3f551c78	0.83246565
237	0xbb0012df	-0.0019542498
238	0x3d54473b	0.051825743
239	0xbe31afae	-0.17352173
240	0x3ed74079	0.42041376
241	0x3e1383ef	0.14405797
242	0x3e292ec8	0.16521752
243	0xbde444b5	-0.11145917
244	0xbec937b4	-0.3930031
245	0x3da382a2	0.079839006
246	0xbb0d111b	-0.0021525088
247	0xbda88308	-0.08228117
248	0x3f33e91e	0.70277584
249	0xbf29e04c	-0.66357875
250	0xbdd29344	-0.10281995
251	0x3d514a18	0.051096052
252	0x3d9ef8a7	0.077622704
253	0x3e3c7fb6	0.18408093
254	0x3e6b200b	0.22961442
255	0x3e47ae9a	0.19500199

layer2.bias f4 [32]
0	0xbe28bb38	-0.16477668
1	0x3d7ef84e	0.06224852
2	0xbc960dba	-0.018317092
3	0xbdb6cfda	-0.08926363
4	0x3ea66388	0.3249781
5	0x3cda14bc	0.026621215
6	0x3e5247ea	0.20535246
7	0x3dd42cd4	0.10360113
8	0x3c902e88	0.017600313
9	0xbdd9bd10	-0.10631764
10	0x3ea1ca22	0.31599528
11	0x3eac3322	0.3363276
12	0x3e2e4500	0.17018509
13	0x3e4a01bc	0.19727224
14	0x3e741f4c	0.23840064
15	0x3e6199f2	0.22031382
16	0x3c281816	0.010259649
17	0x3e68aa3e	0.22721192
18	0xbf0e66b0	-0.5562544
19	0xbe629f5e	-0.22131106
20	0xbda38256	-0.07983844
21	0x3e813ece	0.2524323
22	0x3d506b7b	0.05088375
23	0x3db5c464	0.08875349
24	0xbe4842bc	-0.19556707
25	0x39c0b8bc	0.00036758732
26	0x3d188509	0.037236247
27	0x3e38e372	0.18055514
28	0x3cb209b0	0.021733135
29	0x3e9f3558	0.31095386
30	0xbda63938	-0.08116382
31	0x3a14118a	0.00056483655

output.weight f4 [1, 32]
0	0x3e161b51	0.14658858
1	0x3f141b34	0.5785401
2	0x3f34d286	0.70633733
3	0x3e9d2e00	0.30699158
4	0x3fd53064	1.6655393
5	0xbf18b548	-0.59651613
6	0x3f0cc67e	0.54990375
7	0x3eb904bd	0.36136428
8	0xbfb298b6	-1.3952854
9	0xbf2d2072	-0.6762763
10	0xbffc8400	-1.9727783
11	0xbfbc6794	-1.471911
12	0xbed60f42	-0.41808516
13	0xbed543cc	-0.41653287
14	0xbf1350bc	-0.57545066
15	0x3f9ea672	1.2394545
16	0xbeef805a	-0.46777612
17	0x3f91d378	1.139266
18	0x3f9f88b3	1.2463592
19	0xbf45a4e6	-0.7720474
20	0x3e145762	0.14486459
21	0xbf30c918	-0.69056845
22	0x3fa94c6e	1.322645
23	0xbf0e85ac	-0.5567272
24	0x3e324e2e	0.17412636
25	0x3f12709c	0.5720308
26	0xbf83ac76	-1.0287006
27	0xbf213a9e	-0.6298007
28	0x3fb4a900	1.4114075
29	0x3fc0f5e8	1.5075045
30	0x3f7ad6f8	0.97984266
31	0x3f8f53ec	1.1197486
