Models/target_network/tau_0.5/target_policy_network.pt (torch, 7175 bytes, 5 tensors)

layer1.weight f4 [32, 3]
0.5991842 -0.51003355 -0.60738033 -0.051461425 1.3027947 -0.6396962 -0.43002415 -0.27950484
-0.7311095 -1.0879552 -1.3049319 -0.21020105 -0.62309015 -0.889164 -0.91419363 0.62470996
-0.37322518 0.73379374 0.14516285 0.028086765 -0.05349548 -0.70248055 1.3552232 0.75479007
-1.6431347 -0.85507154 -0.1993752 -0.09705731 1.5876094 -0.07394886 -0.3677928 -0.02077273
-0.02029007 0.9845157 0.0014038286 0.31108266 0.92225087 1.0262086 0.29710826 -0.5436343
2.2477145 0.3852345 0.086168736 -0.13188407 -0.5017556 0.6149602 0.14456823 -0.38659823
-0.8701103 -1.490916 -0.3824285 0.85363793 -1.0527742 -0.011329038 -1.0756764 0.58605784
0.06580037 0.92925084 -0.78082424 -0.6304035 0.79424167 0.4246023 0.4501229 0.1761753
1.4683635 0.2329118 0.5922883 0.6135289 0.8658662 -0.2875977 -1.2889009 -0.4212137
1.0224652 -1.2793341 -0.46313733 -0.5248208 0.859571 -0.28317356 0.38166684 1.4776704
-0.40494215 -0.04777832 2.2858608 -0.298863 -0.3098734 0.84451884 0.1512102 0.006830573
-1.2632957 0.26949906 -0.4445546 -1.0337787 -0.93048334 -0.2668789 0.816594 0.8188698
00000000: 2364 193f 8f91 02bf 477d 1bbf 37c9 52bd
00000010: fac1 a63f 21c3 23bf 202c dcbe 421b 8fbe
00000020: fe29 3bbf 1e42 8bbf 0208 a7bf f23e 57be
00000030: d682 1fbf 40a0 63bf 9808 6abf feec 1f3f
00000040: 5f17 bfbe e8d9 3b3f 92a5 143e 3716 e63c
00000050: 141e 5bbd c4d5 33bf f477 ad3f ec39 413f
00000060: 3d52 d2bf f8e5 5abf 0329 4cbe fcc5 c6bd
00000070: c936 cb3f 8072 97bd 564f bcbe 922b aabc
00000080: 5c37 a6bc 3909 7c3f ac00 b83a 3a46 9f3e
00000090: a218 6c3f ce5a 833f 931e 983e 9e2b 0bbf
000000a0: 8eda 0f40 753d c53e 3c79 b03d 9e0c 07be
000000b0: 0e73 00bf 086e 1d3f b209 143e 34f0 c5be
000000c0: 8cbf 5ebf 56d6 bebf abcd c3be 0488 5a3f
000000d0: 4ec1 86bf 6e9d 39bc c4af 89bf e307 163f
000000e0: 58c2 863d 62e3 6d3f 19e4 47bf 2062 21bf
000000f0: 6c53 4b3f 7965 d93e 8276 e63e 4c67 343e
00000100: 56f3 bb3f 6e80 6e3e 35a0 173f 3b10 1d3f
00000110: 68a9 5d3f 0140 93be b4fa a4bf 52a9 d7be
00000120: 24e0 823f 38c1 a3bf 5620 edbe a85a 06bf
00000130: d80c 5c3f 20fc 90be d669 c33e 4e24 bd3f
00000140: 9454 cfbe 33b3 43bd 8b4b 1240 9204 99be
00000150: baa7 9ebe 6332 583f d9d6 1a3e 00d3 df3b
00000160: acb3 a1bf c8fb 893e a99c e3be dc52 84bf
00000170: 2834 6ebf 5aa4 88be 4e0c 513f 74a1 513f

layer1.bias f4 [32]
0.0066790506 0.14525577 0.48821253 1.0184844 -0.19363685 -0.5357178 0.85155404 0.04745865
0.9916382 0.036096722 -0.5307262 0.2256065 -1.2053964 -0.17840701 -0.4827285 0.21634601
0.17494051 -0.2851166 0.36290896 -0.47856253 0.89895785 0.50336194 0.12878942 -0.25212425
0.17477354 0.20888026 -0.24405655 0.27188918 0.61287194 0.55933034 0.073045544 0.37439692
00000000: f0db da3b eebd 143e fef6 f93e b25d 823f
00000010: bd48 46be cd24 09bf 72ff 593f 0064 423d
00000020: 00dc 7d3f 28da 133d acdd 07bf 6405 673e
00000030: 6e4a 9abf 54b0 36be 3128 f7be cf89 5d3e
00000040: 9b23 333e cefa 91be 34cf b93e 2606 f5be
00000050: 1a22 663f 54dc 003f 60e1 033e 6e16 81be
00000060: d6f7 323e b5e4 553e f6e9 79be 0f35 8b3e
00000070: 2de5 1c3f 4630 0f3f e798 953d f4b0 bf3e

layer2.weight f4 [32, 32]
-0.017205546 0.1492994 0.029212754 0.37819526 0.19711792 0.19594145 0.50753707 -0.17526858
0.08150679 -0.031818815 -0.025327053 -0.065304816 -1.7141478 -0.5171976 0.18957272 -0.08233636
-0.029378932 0.67980224 0.017674636 0.47922814 0.16128108 -2.9814434 0.22377065 0.018461294
0.38924593 -0.5756232 -0.017051186 -0.6960068 -0.7931788 0.22758147 -0.017537754 0.13011238
-0.0078170225 0.123528615 -0.036562145 0.04409802 -0.13581681 0.17069215 0.40028313 -0.005935261
0.12947753 -0.15105918 -0.05166129 -0.074183464 0.6520943 0.312109 0.16031279 -0.03811416
-0.07631421 -0.13602608 0.2769583 0.16290057 0.28920627 0.042407043 -0.0514663 -0.24366678
0.2498602 -0.2514739 0.09283087 0.37984964 -0.09026272 0.14649102 0.020652687 0.09893868
-0.08759321 0.06664782 0.050760925 0.34500515 -0.1682255 -0.25303885 0.28860044 0.37946683
0.36176568 0.28878012 -0.022502199 -1.2473283 1.3099396 0.51316047 -0.6735921 -0.3313141
0.3204146 -1.1636329 0.18579155 -1.6105978 -0.13617751 0.46067885 -0.20686086 -0.030804701
-0.3523789 -0.3167637 -0.3124989 0.7545976 -0.053247087 0.0031899686 -0.26467752 -0.09695992
-0.08616938 -0.030494526 -0.10816409 -0.01507698 -0.068016455 0.04748133 0.099144444 -0.1471674
0.0008651018 0.15907444 0.14350994 0.03873162 0.023660004 0.17294438 -0.14586338 -0.09476847
-0.10527372 -0.05996293 -0.08332004 -0.17029034 -0.022927359 -0.15134394 0.03121455 -0.025146425
0.074010804 -0.11835861 0.10104473 -0.08540696 -0.094392985 -0.14666384 0.018492684 -0.16020232
0.09138892 -0.05860558 0.029722143 0.21385455 0.12474809 0.1254611 -0.07384373 -1.4143684
0.21343091 -0.077030584 -0.13595217 0.17008367 1.193707 -1.1594071 0.07974345 -0.18782562
0.57494855 0.4280426 -0.2549804 -0.24083064 -0.27341253 0.04653818 -0.26678783 0.5218754
-0.08330913 0.1517436 0.11087901 -0.25392097 0.46388257 0.16989392 0.2137621 -0.7501009
0.12780456 0.16135266 0.07085255 0.039002847 0.13028926 -0.15362231 -0.04544308 0.4039495
0.11275372 0.05578731 -0.017662559 -0.6004317 1.3115435 0.81254196 0.3245725 -0.10731083
-0.32972336 -0.7866956 0.19694668 0.2676403 -0.068669036 0.53297293 -0.34973603 -0.23916963
0.01969566 -0.061015368 0.18327215 0.42763615 -0.02356784 -0.28681904 -0.041437387 -0.16839999
-0.1531972 0.059407115 0.22568023 0.16592973 0.09584889 0.4871489 0.23090968 -1.0763611
0.42793238 -0.16223982 -0.09892814 0.39532703 0.079882845 -1.310714 -0.08136587 0.15824601
0.43106878 0.61337113 -0.03808836 -0.18093893 -0.24767816 0.22165415 -1.090241 0.40706426
0.29173017 -0.14613667 -0.045379493 -0.5328014 0.1238105 0.56726485 0.24382295 -1.8049811
0.36479408 0.13964942 -0.17551026 0.17664918 0.24620435 0.13274838 0.20661654 -0.36526507
0.13299039 -0.2520616 -0.13493332 0.71329284 -3.422746 -0.7041456 0.2586295 0.35253304
-0.056034982 0.33150148 0.020645082 0.2321304 0.22171918 -0.6762248 0.26212424 0.20542692
0.22485474 -0.33371937 0.26049876 -0.35556224 -1.4672008 0.3319791 0.16499189 0.3602171
00000000: a5f2 8cbc f1e1 183e 964f ef3c cfa2 c13e
00000010: 48d9 493e e0a4 483e f3ed 013f 9b79 33be
00000020: 08ed a63d 7254 02bd ae7a cfbc 88be 85bd
00000030: 3269 dbbf 1067 04bf 5a1f 423e f79f a8bd
00000040: 16ac f0bc 8507 2e3f 66ca 903c 645d f53e
00000050: de26 253e f8cf 3ec0 2224 653e 243c 973c
00000060: 3e4b c73e 0b5c 13bf eeae 8bbc 802d 32bf
00000070: c40d 4bbf 1e0b 693e 56ab 8fbc 2e3c 053e
00000080: f812 00bc 92fc fc3d 30c2 15bd 20a0 343d
00000090: 9013 0bbe ecc9 2e3e e9f1 cc3e 947c c2bb
000000a0: c295 043e 42af 1abe ca9a 53bd 80ed 97bd
000000b0: a7ef 263f c0cc 9f3e 0929 243e 981d 1cbd
000000c0: a04a 9cbd 6c4a 0bbe 7acd 8d3e 68cf 263e
000000d0: d812 943e 02b3 2d3d 54ce 52bd c983 79be
000000e0: 5adb 7f3e 30c1 80be 1c1e be3d a77b c23e
000000f0: a9db b8bd be01 163e d32f a93c 5da0 ca3d
00000100: 1264 b3bd a77e 883d b0ea 4f3d 84a4 b03e
00000110: 4e43 2cbe 4f8e 81be 70c3 933e 7a49 c23e
00000120: 5a39 b93e fdda 933e 8856 b8bc 74a8 9fbf
00000130: 1aac a73f 7c5e 033f 8870 2cbf 00a2 a9be
00000140: 620d a43e ecf1 94bf 2440 3e3e 1228 cebf
00000150: 1e72 0bbe 19de eb3e 55d3 53be 245a fcbc
00000160: 026b b4be da2e a2be dbff 9fbe 4f2d 413f
00000170: 9e19 5abd cb0e 513b d083 87be ec92 c6bd
00000180: 9279 b0bd a8cf f9bc 2285 ddbd 7005 77bc
00000190: 364c 8bbd c87b 423d 3e0c cb3d 0db3 16be
000001a0: 00c8 623a 69e4 223e 45f4 123e 0ca5 1e3d
000001b0: a0d2 c13c 5518 313e 365d 15be f915 c2bd
000001c0: c099 d7bd b09b 75bd b2a3 aabd 9760 2ebe
000001d0: 28d2 bbbc e8f9 1abe a8b5 ff3c e0ff cdbc
000001e0: fa92 973d 0066 f2bd 8af0 ce3d d8e9 aebd
000001f0: 1c51 c1bd 0c2f 16be f87d 973c 140c 24be
00000200: 1d2a bb3d 680c 70bd da7b f33c b0fc 5a3e
00000210: ed7b ff3d e078 003e 623b 97bd 060a b5bf
00000220: a28d 5a3e 36c2 9dbd 0c37 0bbe 6a2a 2e3e
00000230: 64cb 983f 7467 94bf 8950 a33d 5c55 40be
00000240: d42f 133f 6628 db3e ca8c 82be 4f9c 76be
00000250: bafc 8bbe d29e 3e3d 6a98 88be a099 053f
00000260: fa9d aabd ad62 1b3e 8914 e33d ee01 82be
00000270: 0482 ed3e acf8 2d3e 74e4 5a3e 9d06 40bf
00000280: 33df 023e a239 253e 241b 913d 73c1 1f3d
00000290: 8c6a 053e 2b4f 1dbe 8622 3abd 78d2 ce3e
000002a0: 6ceb e63d 3c81 643d 12b1 90bc e4b5 19bf
000002b0: a8e0 a73f c002 503f 5e2e a63e c8c5 dbbd
000002c0: 80d1 a8be e264 49bf 64ac 493e 2608 893e
000002d0: 5aa2 8cbd ea70 083f 9a10 b3be e2e8 74be
000002e0: cb58 a13c 40eb 79bd b2ab 3b3e 20f3 da3e
000002f0: 5811 c1bc f2d9 92be 40ba 29bd 0c71 2cbe
00000300: badf 1cbe e054 733d b818 673e 7ce9 293e
00000310: 6c4c c43d 956b f93e 9673 6c3e 33c6 89bf
00000320: f419 db3e 3222 26be d69a cabd 4e68 ca3e
00000330: 9e99 a33d 7ac5 a7bf 26a3 a6bd 3e0b 223e
00000340: 0cb5 dc3e e405 1d3f 8a02 1cbd 0e48 39be
00000350: 589f 7dbe 4ef9 623e 048d 8bbf ba6a d03e
00000360: a85d 953e daa4 15be d9df 39bd ac65 08bf
00000370: 5c90 fd3d 4538 113f b9ac 793e 9f09 e7bf
00000380: 4ac6 ba3e 4200 0f3e f6b8 33be 86e3 343e
00000390: fe1c 7c3e 31ef 073e 4993 533e 0604 bbbe
000003a0: a22e 083e 380e 81be f62b 0abe 5c9a 363f
000003b0: 450e 5bc0 e342 34bf 166b 843e 367f b43e
000003c0: f084 65bd 90ba a93e e01f a93c 97b3 6d3e
000003d0: 5a0a 633e 121d 2dbf 2635 863e 6f5b 523e
000003e0: 5240 663e 44dd aabe 1860 853e 410c b6be
000003f0: 3ccd bbbf 2af9 a93e a2f3 283e 606e b83e

layer2.bias f4 [32]
-0.13418394 0.3256305 -0.022947077 -0.07439161 -0.036534805 -0.21206445 0.37072188 0.2896111
0.34722465 0.070957184 0.21889834 0.23031306 0.10102638 -0.4574851 -0.08706336 -0.10908021
-0.24736857 0.068306014 0.36706045 0.013341393 -0.113707915 -0.096012354 -0.06563169 0.031791363
0.3852371 0.060433675 -0.025721248 -0.021625556 0.2573916 0.08944863 0.025851104 -0.19742948
00000000: 8467 09be 0ab9 a63e 82fb bbbc a15a 98bd
00000010: 85a5 15bd 6c27 59be 42cf bd3e e847 943e
00000020: 6ec7 b13e 0052 913d e326 603e 30d7 6b3e
00000030: ebe6 ce3d 7d3b eabe 464e b2bd 7265 dfbd
00000040: 304e 7dbe 06e4 8b3d 59ef bb3e dc95 5a3c
00000050: b2df e8bd 20a2 c4bd e869 86bd a937 023d
00000060: cc3d c53e 4d89 773d 5eb5 d2bc 1428 b1bc
00000070: d5c8 833e d830 b73d b2c5 d33c f42a 4abe

output.weight f4 [1, 32]
1.8437326 0.25751543 0.9568397 -0.04233025 -0.92411554 0.6924541 -0.88936424 0.5481944
0.45871583 -0.32385495 0.4672882 -1.725296 -1.1766965 0.54530215 -0.7602241 -1.2116493
-1.0776253 -1.1394426 0.37747627 0.6657473 0.39894128 -1.3011683 -0.40852445 -0.33247173
-1.162781 1.7508118 -0.30530944 1.4960063 0.60698307 -0.4153182 0.8797946 -0.21934763
00000000: 6eff eb3f 10d9 833e 72f3 743f 7c62 2dbd
00000010: d692 6cbf ac44 313f 60ad 63bf 7856 0c3f
00000020: cddc ea3e 51d0 a5be 6640 ef3e 80d6 dcbf
00000030: fe9d 96bf ec98 0b3f 0c9e 42bf 5317 9bbf
00000040: a0ef 89bf 41d9 91bf 9244 c13e 6a6e 2a3f
00000050: 0842 cc3e af8c a6bf 1e2a d1be bc39 aabe
00000060: 02d6 94bf 9a1a e03f 8551 9cbe 227d bf3f
00000070: 3e63 1b3f 96a4 d4be 383a 613f aa9c 60be
