Models/target_network/tau_0.5/target_Q_network.pt (torch, 7263 bytes, 5 tensors)

layer1.weight f4 [32, 4]
-2.274237 0.11029576 -1.0708389 -0.19417071 -0.84870666 1.2846739 0.19612198 0.026153304
-1.4704697 -1.3594491 -0.46425772 -0.027254593 0.15422224 1.2452234 -0.100350544 -0.104144946
-0.74228644 -1.4065721 -0.065664634 -0.002658748 -2.0145273 -1.3583828 -0.344738 -0.21561876
-1.5221024 2.928841 0.6287343 0.2591866 -2.5177293 -0.11401515 -0.4015539 -0.1396126
-0.22292326 -2.5782948 -0.3449206 -0.22169234 0.36394572 0.051390663 -0.18726422 -0.0373678
-2.5347939 -0.94950616 0.4183563 0.10041536 -0.10262423 1.794032 0.306542 -0.012860866
0.23023966 -1.9668741 -0.37413305 -0.19407338 1.502881 -1.7400193 0.21068932 0.23265499
-1.1861402 -2.2436795 -0.5593426 -0.12105606 -1.3874269 -2.7103417 -0.5223732 -0.19173405
-2.529756 1.5797703 0.47780177 0.1748906 -0.75026333 1.5707436 -0.11994478 -0.02922369
-1.7254206 2.056285 -0.012706236 0.10541627 -0.16089785 -2.905814 -0.6371026 -0.27384606
-1.2320349 -1.0928059 -0.21011451 0.039568882 -1.0413796 -2.0360982 0.1429981 0.15731071
-1.5721552 3.423088 0.30611742 0.19363704 3.1820402 0.6569723 0.049064033 0.07416755
0.8992995 -2.3827214 -0.45774826 -0.17001005 -0.993433 -1.5351927 -0.47441092 -0.13337462
-0.8114244 3.6198444 0.7150962 0.2985855 -0.3427056 -2.1542194 -0.5697917 -0.13212173
0.80479527 2.2001486 0.28978392 0.07876171 -1.3782525 -0.70537096 -0.81296563 -0.16476062
-1.3222944 1.5085397 0.44331735 0.082399726 -1.6976142 2.4642644 0.55319035 0.15925966
00000000: 198d 11c0 bee2 e13d 4011 89bf b0d4 46be
00000010: d744 59bf 3270 a43f 33d4 483e 743f d63c
00000020: 5a38 bcbf 6e02 aebf 30b3 edbe 0645 dfbc
00000030: 6fec 1d3e 7b63 9f3f 9684 cdbd f249 d5bd
00000040: 7c06 3ebf 8e0a b4bf 2e7b 86bd 643e 2ebb
00000050: 04ee 00c0 7ddf adbf 8081 b0be 2acb 5cbe
00000060: 40d4 c2bf 2272 3b40 bbf4 203f 1bb4 843e
00000070: 7a22 21c0 c680 e9bd 7998 cdbe 9bf6 0ebe
00000080: ff45 64be c802 25c0 6f99 b0be 5103 63be
00000090: 1857 ba3e 047f 523d 31c2 3fbe fa0e 19bd
000000a0: 103a 22c0 d612 73bf cc32 d63e 91a6 cd3d
000000b0: a72c d2bd d7a2 e53f 13f3 9c3e 62b6 52bc
000000c0: f2c3 6b3e 88c2 fbbf 5e8e bfbe 2cbb 46be
000000d0: 685e c03f f4b8 debf f1be 573e 1c3d 6e3e
000000e0: 71d3 97bf 7298 0fc0 1431 0fbf 3dec f7bd
000000f0: 3497 b1bf 3d76 2dc0 40ba 05bf ee55 44be
00000100: 86e7 21c0 ea35 ca3f 6fa2 f43e 8516 333e
00000110: 4211 40bf 200e c93f 9ca5 f5bd 8566 efbc
00000120: 95da dcbf 2c9a 0340 d12d 50bc 7ce4 d73d
00000130: 68c2 24be dbf8 39c0 2819 23bf 8d35 8cbe
00000140: 52b3 9dbf 10e1 8bbf 4228 57be fb12 223d
00000150: ed4b 85bf 6f4f 02c0 186e 123e 0f16 213e
00000160: 623c c9bf e013 5b40 6cbb 9c3e ca48 463e
00000170: 8ca6 4b40 562f 283f 5ef7 483d 28e5 973d
00000180: 7e38 663f 827e 18c0 fb5d eabe 1d17 2ebe
00000190: a051 7ebf 3281 c4bf fde5 f2be 5b93 08be
000001a0: 82b9 4fbf 88ab 6740 8b10 373f 33e0 983e
000001b0: 1c77 afbe bbde 09c0 dedd 11bf eb4a 07be
000001c0: 1007 4e3f 3ccf 0c40 8f5e 943e d24d a13d
000001d0: 946a b0bf 3193 34bf 841e 50bf 02b7 28be
000001e0: f140 a9bf d417 c13f 7efa e23e 30c1 a83d
000001f0: 6c4b d9bf 82b6 1d40 e29d 0d3f f714 233e

layer1.bias f4 [32]
-0.25072932 1.1415963 0.96131015 1.3293521 2.1032257 0.27406108 0.7386044 0.09932538
-0.30652863 1.7563183 -0.1800993 1.0683475 1.4925925 -0.37188107 0.48383373 0.5050124
0.9722438 1.3008912 0.3602597 -0.531112 1.8049283 1.1242154 -0.01455842 1.7630285
-0.38096696 2.157611 0.15553485 -0.19324496 0.43566436 0.42396435 -0.22864571 0.96707034
00000000: 985f 80be d41f 923f 6c18 763f 3628 aa3f
00000010: 409b 0640 bc51 8c3e 2e15 3d3f 1b6b cb3d
00000020: 52f1 9cbe 0acf e03f f36b 38be 9cbf 883f
00000030: 450d bf3f 3267 bebe 0eb9 f73e 7e48 013f
00000040: f8e4 783f 9a83 a63f f673 b83e f5f6 07bf
00000050: e407 e73f 4ae6 8f3f 7086 6ebc ebaa e13f
00000060: 1a0e c3be 4c16 0a40 8744 1f3e 02e2 45be
00000070: 660f df3e db11 d93e 1a22 6abe ec91 773f

layer2.weight f4 [32, 32]
-0.24916852 0.13636649 0.68742645 0.77127695 -0.356441 0.5693126 0.72589254 0.581884
0.4895655 -0.3145684 0.70019 0.66309035 -0.12325533 0.8807046 0.7000724 0.5559819
0.57339823 0.8597803 0.9673157 0.58417046 -0.16658062 0.3391336 0.25429058 0.6581572
0.5397414 -0.52199936 0.2485865 0.7442615 1.4778043 0.87404794 0.19962814 0.8324217
-0.08799809 0.4142421 0.8062352 0.66748226 -0.36996776 0.9455688 0.95761555 0.5807018
0.39041132 -0.35628211 0.7264942 0.97623146 0.05572132 1.0586648 0.77341264 0.44901478
0.7053405 0.89345837 0.7525028 0.5395719 -0.16800907 0.31772938 0.29974312 0.97611225
0.62625974 -0.51936746 0.45839804 0.7868502 1.3750913 0.70520025 0.32418486 0.9561923
-0.35967124 0.21288703 0.7011916 0.6916313 -0.39524305 0.5329377 0.73718786 0.5979914
0.38275224 -0.34244996 0.54379255 0.8315139 -0.003348655 0.7650557 0.61990315 0.5114886
0.6516587 0.78469193 0.80491793 0.6080698 -0.13457537 0.2765656 0.1528503 0.9419786
0.5027556 -0.29598403 0.31846023 0.83094317 1.400898 0.8063319 0.45346892 0.6979022
-0.3261573 0.37922198 0.5583484 0.63802373 -0.22864261 0.63958746 0.6536311 0.66150403
0.40281475 -0.3989017 0.7078607 0.9187491 0.012003161 0.9788548 0.74292135 0.4297679
0.5615216 0.6355151 0.95247054 0.39898527 -0.26533777 0.36518034 0.21808991 0.96015054
0.55709636 -0.24850556 0.41012216 0.7665372 1.3418741 0.86615944 0.38121504 0.67750084
0.45577157 -1.0533719 0.6949034 -0.24652073 0.5662339 0.6665398 -1.2703189 0.7380921
0.4292119 0.32113853 -1.0099828 -0.6524904 0.47541818 1.0854626 0.65437376 0.63455486
-1.6240662 0.40377843 0.44863412 0.54180247 0.7334868 -1.3369205 2.9448996 -1.4440639
0.22305217 0.51844394 -0.43332338 0.3932789 -2.9365659 0.59100753 -0.095428675 -1.4035814
-0.26111233 0.40889555 0.87983024 0.72536206 -0.26819372 0.82145876 0.67242247 0.69348735
0.33216155 -0.25870407 0.63572407 0.97061557 -0.11203732 0.8108312 0.57914436 0.4756865
0.4401201 0.61537254 0.96872354 0.5272068 0.026098203 0.31111938 0.37943155 0.74956477
0.4696304 -0.5238869 0.4921595 0.59745467 1.3763342 0.76208234 0.34851068 0.8791057
1.5928941 0.43442494 -1.0446513 -0.06363936 -0.12397385 -1.3538659 1.3567197 -1.2746934
1.3213997 -0.6013794 0.59762377 0.86617374 -1.9207356 -1.0151021 0.5083643 -0.5210487
1.2115813 -1.009189 0.8451265 -0.4822458 -0.9819497 0.6948289 0.70666933 -0.40768385
-0.3962711 0.004130003 0.9856616 1.3143488 0.8401974 -1.5310073 0.8438556 1.0723677
0.0093277 -0.16821873 0.1173891 -0.0013300623 -0.09743054 0.07149336 -0.032316916 -0.1995973
0.12033492 -0.06298821 -0.08098219 -0.051373243 0.012079436 -0.19455278 0.041365728 0.12448256
-0.001453833 -0.19586828 -0.06992456 -0.054372266 0.12936461 0.0054766834 0.14025484 -0.04493972
-0.18759507 -0.18636891 0.016096279 0.034534708 0.05677089 -0.037018023 0.030973725 -0.09906836
00000000: 0826 7fbe a8a3 0b3e 2efb 2f3f 6872 453f
00000010: 6f7f b6be 78be 113f 18d4 393f 5af6 143f
00000020: 54a8 fa3e 1c0f a1be a73f 333f 4ac0 293f
00000030: 4a6d fcbd db75 613f f237 333f d454 0e3f
00000040: 3aca 123f 901a 5c3f 00a2 773f 328c 153f
00000050: 1c94 2abe eba2 ad3e 6032 823e fe7c 283f
00000060: 7e2c 0a3f c0a1 05bf 768d 7e3e ec87 3e3f
00000070: b128 bd3f 9bc1 5f3f 526b 4c3e 9719 553f
00000080: 5838 b4bd 8a17 d43e 6e65 4e3f 1ee0 2a3f
00000090: 6a6c bdbe cc10 723f 4b26 753f e0a8 143f
000000a0: fee3 c73e 9c6a b6be 86fb 393f 4eea 793f
000000b0: 0a3c 643d 5482 873f 5ffe 453f 44e5 e53e
000000c0: 3291 343f b0b9 643f 06a4 403f 6221 0a3f
000000d0: 920a 2cbe 6dad a23e ee77 993e 7ee2 793f
000000e0: 8f52 203f 44f5 04bf 26b3 ea3e 046f 493f
000000f0: fe02 b03f 0188 343f 8ffb a53e 05c9 743f
00000100: d426 b8be 0fff 593e 4b81 333f c00e 313f
00000110: 4c5d cabe 9b6e 083f 58b8 3c3f f715 193f
00000120: 1af8 c33e 9a55 afbe fd35 0b3f 18de 543f
00000130: 1c75 5bbb b1da 433f f9b1 1e3f ebf0 023f
00000140: 1bd3 263f 92e1 483f 1a0f 4e3f 76aa 1b3f
00000150: 20ce 09be 029a 8d3e ca84 1c3e 8225 713f
00000160: 97b4 003f 388b 97be 380d a33e b1b8 543f
00000170: a050 b33f c46b 4e3f 142d e83e b8a9 323f
00000180: 17fe a6be 6229 c23e ecef 0e3f 8655 233f
00000190: 4a21 6abe 01bc 233f 5e54 273f 5458 293f
000001a0: bc3d ce3e d83c ccbe 5c36 353f 2433 6b3f
000001b0: e8a8 443c 3a96 7a3f 1830 3e3f 8a0a dc3e
000001c0: e1bf 0f3f 1eb1 223f 1cd5 733f cc47 cc3e
000001d0: 5ada 87be ebf8 ba3e f652 5f3e 6dcc 753f
000001e0: de9d 0e3f 3e78 7ebe 88fb d13e c83b 443f
000001f0: 88c2 ab3f a0bc 5d3f 9e2e c33e b270 2d3f
00000200: e45a e93e e4d4 86bf 30e5 313f ee6f 7cbe
00000210: b4f4 103f 5aa2 2a3f cf99 a2bf 9bf3 3c3f
00000220: aac1 db3e 456c a43e 1e47 81bf 9c09 27bf
00000230: 036a f33e 70f0 8a3f 0a85 273f 3072 223f
00000240: 67e1 cfbf 0cbc ce3e 5fb3 e53e 91b3 0a3f
00000250: cac5 3b3f 3620 abbf 3c79 3c40 16d7 b8bf
00000260: ca67 643e beb8 043f 90dc ddbe da5b c93e
00000270: b2f0 3bc0 454c 173f 1c70 c3bd 8ea8 b3bf
00000280: 84b0 85be c25a d13e 8e3c 613f 54b1 393f
00000290: b050 89be 1f4b 523f e123 2c3f 6388 313f
000002a0: 1411 aa3e dc74 84be d0be 223f 437a 783f
000002b0: d373 e5bd a292 4f3f ce42 143f 2e8d f33e
000002c0: 6c57 e13e 0e89 1d3f 44fe 773f 06f7 063f
000002d0: e6cb d53c 0a4b 9f3e da44 c23e 7ae3 3f3f
000002e0: 6573 f03e 741d 06bf 54fc fb3e caf2 183f
000002f0: b82b b03f d417 433f fe6f b23e 120d 613f
00000300: f4e3 cb3f f26c de3e 22b7 85bf 5a55 82bd
00000310: 00e6 fdbd 7a4b adbf fea8 ad3f 2729 a3bf
00000320: a023 a93f 00f4 19bf dffd 183f 90bd 5d3f
00000330: aada f5bf deee 81bf 2a24 023f 7363 05bf
00000340: 1915 9b3f 1b2d 81bf 365a 583f ece8 f6be
00000350: 0e61 7bbf 4fe0 313f 48e8 343f f0bb d0be
00000360: 0ce4 cabe fa54 873b 5254 7c3f 953c a83f
00000370: 2d17 573f 0cf8 c3bf ec06 583f 5843 893f
00000380: 36d3 183c 8841 2cbe b269 f03d 7c55 aeba
00000390: aa89 c7bd 1c6b 923d be5e 04bd 3c63 4cbe
000003a0: 2872 f63d f6ff 80bd fed9 a5bd c06c 52bd
000003b0: d4e8 453c d838 47be 1c6f 293d b6f0 fe3d
000003c0: 8a8e beba b291 48be 9c34 8fbd 74b5 5ebd
000003d0: 2878 043e c075 b33b f79e 0f3e b612 38bd
000003e0: ec18 40be 7ed7 3ebe 58dc 833c 4474 0d3d
000003f0: 9888 683d 36a0 17bd 9cbc fd3c 5ae4 cabd

layer2.bias f4 [32]
-0.19311664 -0.0716892 -0.030401053 -0.042656753 0.3136477 -0.0325636 0.52098787 0.050886855
-0.0048960648 -0.062195502 1.4833316 0.9827703 0.4772818 0.14158705 0.98104167 -0.056719765
0.80982625 -0.080028534 0.18448785 -0.056881577 0.36611623 -0.26624435 -0.21603763 0.7071775
0.16248254 0.25759807 0.14183545 0.25922245 -0.16666119 0.18372881 -0.054151535 0.45512766
00000000: 5ec0 45be cad1 92bd a10b f9bc d9b8 2ebd
00000010: 6e96 a03e 6961 05bd 765f 053f bc6e 503d
00000020: 2b6f a0bb b6c0 7ebd cfdd bd3f d696 7b3f
00000030: 485e f43e 32fc 103e 8c25 7b3f fc52 68bd
00000040: c650 4f3f 00e6 a3bd 62ea 3c3e a8fc 68bd
00000050: 9673 bb3e 2e51 88be f838 5dbe 9609 353f
00000060: d361 263e e5e3 833e 503d 113e ceb8 843e
00000070: 3ba9 2abe 6823 3c3e 00ce 5dbd 7e06 e93e

output.weight f4 [1, 32]
-0.929543 -0.7883739 -0.915686 -0.91536754 2.2883725 -0.93898696 2.1367455 0.14162073
-0.8405944 -0.92031664 5.9283795 2.735945 3.5994701 -0.73824805 2.6593437 -0.8589104
2.2490988 -0.84224856 -0.7817414 -0.9043362 2.233016 3.6919494 -0.94670296 3.3615985
-0.82837087 2.821312 -0.74538076 1.978887 -0.92388606 -0.7894458 -0.7760154 2.409034
00000000: 88f6 6dbf dfd2 49bf 666a 6abf 8755 6abf
00000010: b274 1240 7361 70bf 70c0 0840 0605 113e
00000020: 3231 57bf df99 6bbf 49b5 bd40 b919 2f40
00000030: b85d 6640 d3fd 3cbf b032 2a40 8de1 5bbf
00000040: 3cf1 0f40 9a9d 57bf 3420 48bf 9482 67bf
00000050: bce9 0e40 e648 6c40 205b 72bf 6e24 5740
00000060: 1d10 54bf 6090 3440 46d1 3ebf 2b4c fd3f
00000070: cc83 6cbf 1f19 4abf f2a8 46bf 9d2d 1a40
