Models/OU_network/tau_0.1theta_0.1/policy_network.pt (torch, 7119 bytes, 5 tensors)

layer1.weight f4 [32, 3]
0.37836912 -0.8060366 -0.32208887 -0.1884886 -2.0569324 -0.07372399 -0.74243796 0.27620628
-0.054922156 -0.4177792 1.468748 0.7116018 0.5518128 -0.7560474 -0.34709156 1.0617847
1.151147 0.19842096 0.7169319 1.1374989 0.28436372 -0.043963626 1.4346584 0.18302695
-1.2318686 -0.69778186 -0.0043475525 1.0752667 0.5388096 0.3416053 -0.110899605 0.5690059
0.42847905 0.49272594 1.7814572 0.78124005 0.27409038 -0.7858348 -0.3915954 1.1881894
0.36090013 0.2702557 -0.44687828 -0.0864589 0.78118676 0.4357901 -0.79984975 -0.0450441
0.33385825 -0.21189478 -0.6756532 0.56259745 0.12343575 -0.30992657 -1.5940849 0.39798635
-0.5190123 0.57326704 0.39776486 0.44351855 -0.30923936 -0.2779604 0.14629212 -0.65743667
-0.025163446 -0.30492356 0.10452803 1.4665222 -0.17112167 0.24775924 -0.29985523 -0.13713393
-0.5802274 -0.46134064 -0.4959797 -0.15985921 0.1324091 -0.42760465 0.60428965 1.0462989
0.13557488 0.837198 0.77894825 0.25738806 0.73795354 -0.22926489 0.63864845 1.8145149
-0.36029118 0.014351646 -0.81151414 -1.4588436 -0.0008540634 0.19844456 0.3325554 0.0041970834
00000000: 99b9 c13e 6a58 4ebf d5e8 a4be 2803 41be
00000010: c8a4 03c0 9afc 96bd 6a10 3ebf e96a 8d3e
00000020: 0ef6 60bd 28e7 d5be efff bb3f 892b 363f
00000030: 9b43 0d3f 538c 41bf fcb5 b1be 90e8 873f
00000040: c958 933f dd2e 4b3e d988 373f 9099 913f
00000050: 1f98 913e 3413 34bd e3a2 b73f 6b6b 3b3e
00000060: dfad 9dbf d5a1 32bf ea75 8ebb 57a2 893f
00000070: 6def 093f e4e6 ae3e 551f e3bd 5faa 113f
00000080: 9b61 db3e 9346 fc3e ca06 e43f 59ff 473f
00000090: 9355 8c3e 782c 49bf 317f c8be 9716 983f
000000a0: e7c7 b83e f55e 8a3e 3bcd e4be 5d11 b1bd
000000b0: dbfb 473f e11f df3e f4c2 4cbf 2a80 38bd
000000c0: 78ef aa3e f2fa 58be 9cf7 2cbf 6306 103f
000000d0: e2cb fc3d b2ae 9ebe f90a ccbf dec4 cb3e
000000e0: fddd 04bf a1c1 123f d6a7 cb3e dd14 e33e
000000f0: 9f54 9ebe d350 8ebe 9acd 153e c54d 28bf
00000100: 9223 cebc f11e 9cbe cb12 d63d 00b7 bb3f
00000110: 853a 2fbe 99b4 7d3e a086 99be d66c 0cbe
00000120: c889 14bf d734 ecbe 0df1 fdbe 22b2 23be
00000130: 4096 073e ffee dabe bab2 1a3f 1fed 853f
00000140: 24d4 0a3e 9c52 563f 2769 473f 5ec8 833e
00000150: 86ea 3c3f 6ac4 6abe 777e 233f 0642 e83f
00000160: 1678 b8be 2b23 6b3c 64bf 4fbf 63bb babf
00000170: 39e3 5fba 0d35 4b3e b444 aa3e b087 893b

layer1.bias f4 [32]
-0.23345672 0.4467248 0.8839111 0.03766281 -0.38600653 0.05242095 0.005204241 0.6830193
1.182424 0.5571514 -0.32397136 0.84515005 -0.54091346 -0.09961661 -0.44752002 0.15023196
-0.72271 -0.7637334 0.40559995 -0.34173235 -0.98312116 -0.6357889 0.6418119 -0.4757533
0.24686563 -0.82010835 -0.61088246 -0.35424405 -0.127392 0.5569167 0.6969165 -0.41956684
00000000: 470f 6fbe 1db9 e43e ff47 623f 5244 1a3d
00000010: a6a2 c5be 5ab7 563d 5688 aa3b 5ada 2e3f
00000020: ab59 973f 79a1 0e3f 93df a5be c15b 583f
00000030: 4e79 0abf cb03 ccbd 5821 e5be 68d6 193e
00000040: 8603 39bf 0884 43bf ccaa cf3e 8bf7 aebe
00000050: d4ad 7bbf 10c3 22bf c94d 243f f095 f3be
00000060: 58ca 7c3e 9ff2 51bf cb62 1cbf 7a5f b5be
00000070: 0c73 02be 1892 0e3f 1f69 323f 77d1 d6be

layer2.weight f4 [32, 32]
-0.09342681 -0.45161796 -0.08493353 0.050317515 -0.14165115 -0.16218841 0.14914611 -0.20536612
-0.11280481 -0.03261523 0.19919428 0.16827895 -0.11047074 -0.164474 0.19003965 -0.2952452
0.043637976 -0.13466634 -0.11524977 0.044600952 0.687736 -0.07847241 -1.0267999 0.076251104
-0.1392661 -0.14127631 -2.8525772 -0.2265353 0.26297992 -0.057043787 0.06714204 -0.1157932
-0.19501597 0.050951492 -0.06832646 0.014375667 0.19617659 0.060109958 0.08554669 -0.1875222
0.07555181 0.17968181 0.16632086 -0.14105952 -0.28781196 0.049211662 0.069074586 -0.15279506
0.016816784 -0.17950672 0.16686699 0.2636141 0.8569005 -0.06093383 -0.16775306 -0.39737073
0.24861667 0.07553355 -0.3500509 -0.05270194 0.32234398 0.25035584 0.0165171 0.35135168
0.3659887 -0.07081133 0.26856795 0.4255601 0.4051632 -0.10133065 -0.2627604 0.21037307
0.5475005 -0.091476195 0.0015104519 0.4075917 0.4314025 -0.11067823 0.122655526 -0.12632437
0.36909842 0.17752689 0.17384914 0.034069415 -0.89031565 0.0685653 0.16838849 0.27127934
0.047068514 0.009140726 0.09214992 0.3986159 -0.36094257 -0.59327173 0.23800458 -0.34476423
-0.19835082 -0.6184336 -0.1372719 0.15768185 -0.56758875 0.38984722 0.42803487 0.36523873
-0.06722889 0.3170163 0.40782875 0.32373747 -0.51932865 0.12483318 0.20931096 -0.18930437
-0.20424743 -0.586913 0.20325893 0.15676196 0.625564 -0.25797236 0.46273017 -1.728211
-0.17801383 0.5771984 -0.5735645 0.05037747 0.4417929 0.22179143 -1.229397 0.3599132
-0.0010882191 0.43801722 0.42771363 -0.95173234 -0.18708125 -1.1505713 -6.297061 -0.46954215
0.6545203 -0.15750583 -2.1386766 -2.525674 -0.2527451 0.20953415 0.14346206 0.5418192
0.008594728 -0.3021206 0.2436137 -0.28676584 -0.5373802 0.23876725 0.0054497956 -0.53167504
0.032083213 -0.029218622 -0.12992191 -2.679633 -0.4015883 0.6399203 0.58582413 0.026354164
0.10841149 -0.097319 0.34998655 0.05066953 0.22173779 -0.13673028 0.01010058 0.23692824
0.28405148 0.09233471 -0.028563274 0.1396179 0.45342243 0.0342065 0.27997229 0.15865737
0.0067183366 0.14352722 0.112995036 -0.01159761 -0.80257124 0.155672 0.032763913 0.46192735
-0.07418019 0.077506825 0.52568394 0.15616038 0.06844068 -0.0037517683 -0.010348417 -0.16903114
0.020042296 -0.09126192 0.40278387 0.3135182 -0.023769839 -0.15476277 -0.1889602 0.360003
0.15648106 -0.060631253 0.05623365 0.12970951 0.5715236 0.1483623 0.03910998 0.18001185
-0.039267663 0.101231046 0.2063751 -0.13472691 -0.7875666 0.20230167 0.25559166 0.6107787
0.123198785 0.065533124 0.3431968 0.14869472 -0.03282901 -0.070619404 0.24134946 -0.4498663
0.18301472 0.20593625 -0.31950414 -0.03269752 0.1839845 -0.69509834 -0.09955519 -0.33580485
-0.084180124 -0.013457792 0.33808765 0.029377565 0.27122304 -0.4899178 0.025557963 -0.12611078
0.21743977 0.1272383 -0.09575549 0.010417631 0.094067186 0.1636824 -0.17520079 -0.57652605
0.12642398 0.027340407 -0.17786218 -0.08745608 0.08538513 0.3761959 0.038451895 0.46324942
00000000: 8e56 bfbd 783a e7be a1f1 adbd bd19 4e3d
00000010: 000d 11be b814 26be c2b9 183e 7f4b 52be
00000020: 3506 e7bd 8c97 05bd 96f9 4b3e 5151 2c3e
00000030: 7c3e e2bd df6b 28be c199 423e 612a 97be
00000040: bcbd 323d f9e5 09be 1208 ecbd 7daf 363d
00000050: 770f 303f 25b6 a0bd 2e6e 83bf 8a29 9c3d
00000060: c69b 0ebe bdaa 10be a090 36c0 dff8 67be
00000070: 4ea5 863e bfa6 69bd c481 893d fc24 edbd
00000080: 44b2 47be 83b2 503d beee 8bbd eb87 6b3c
00000090: 84e2 483e dc35 763d 1a33 af3d d205 40be
000000a0: e8ba 9a3d 82fe 373e 0450 2a3e e871 10be
000000b0: 175c 93be 2b92 493d fa76 8d3d 4f76 1cbe
000000c0: 5ac3 893c 9cd0 37be 2edf 2a3e 6df8 863e
000000d0: d55d 5b3f c095 79bd 75c7 2bbe 2d74 cbbe
000000e0: 5e95 7e3e 55b1 9a3d df39 b3be fddd 57bd
000000f0: 450a a53e a42e 803e df4e 873c 5ee4 b33e
00000100: df62 bb3e 8805 91bd bd81 893e 03e3 d93e
00000110: 8d71 cf3e 7286 cfbd 8888 86be 0a6c 573e
00000120: fe28 0c3f df57 bbbd 5bfa c53a dcaf d03e
00000130: cae0 dc3e 45ab e2bd d232 fb3d 2d5b 01be
00000140: 78fa bc3e 9cc9 353e 8205 323e 5f8c 0b3d
00000150: baeb 63bf f76b 8c3d 086e 2c3e 20e5 8a3e
00000160: eaca 403d fcc2 153c 19b9 bc3d 6217 cc3e
00000170: 77cd b8be a8e0 17bf 79b7 733e f084 b0be
00000180: 7a1c 4bbe aa51 1ebf 0191 0cbe 5a77 213e
00000190: 7f4d 11bf 0e9a c73e 6327 db3e 9200 bb3e
000001a0: 4daf 89bd f64f a23e eece d03e ebc0 a53e
000001b0: b9f2 04bf 8aa8 ff3d 9d55 563e 01d9 41be
000001c0: 3d26 51be ee3f 16bf 1c23 503e 3586 203e
000001d0: f624 203f f414 84be f8ea ec3e 0536 ddbf
000001e0: 4249 36be 46c3 133f 20d5 12bf 9b58 4e3d
000001f0: ae32 e23e 4b1d 633e e25c 9dbf 8b46 b83e
00000200: 93a2 8eba cb43 e03e 48fd da3e bba4 73bf
00000210: 3a92 3fbe ec45 93bf 8681 c9c0 d467 f0be
00000220: a48e 273f 3549 21be 14e0 08c0 a5a4 21c0
00000230: ce67 81be 1f90 563e b8e7 123e aab4 0a3f
00000240: e7d0 0c3c 8daf 9abe df75 793e f9d2 92be
00000250: c091 09bf 677f 743e 3394 b23b db1b 08bf
00000260: b069 033d e45b efbc 400a 05be 1b7f 2bc0
00000270: fb9c cdbe d1d1 233f 92f8 153f b0e4 d73c
00000280: d806 de3d 2f4f c7bd 7031 b33e da8a 4f3d
00000290: 3b0f 633e 0603 0cbe e77c 253c 519d 723e
000002a0: 326f 913e fb19 bd3d 87fd e9bc fff7 0e3e
000002b0: fc26 e83e 1d1c 0c3d 8758 8f3e 1477 223e
000002c0: 7e25 dc3b cdf8 123e f169 e73d e703 3ebc
000002d0: 4f75 4dbf 7b68 1f3e 7433 063d be81 ec3e
000002e0: c9eb 97bd e6bb 9e3d 3993 063f 82e8 1f3e
000002f0: a12a 8c3d 3ae0 75bb 688c 29bc 8016 2dbe
00000300: be2f a43c 88e7 babd b039 ce3e 7585 a03e
00000310: f7b8 c2bc 227a 1ebe c87e 41be 5052 b83e
00000320: 923c 203e 7a58 78bd 4155 663d 92d2 043e
00000330: 5f4f 123f 49ec 173e c931 203d 0755 383e
00000340: 21d7 20bd 3952 cf3d ff53 533e daf5 09be
00000350: f79d 49bf 2b28 4f3e e9dc 823e fe5b 1c3f
00000360: a54f fc3d 3b36 863d 7eb7 af3e 6e43 183e
00000370: b677 06bd e8a0 90bd 5024 773e e054 e6be
00000380: 3668 3b3e f4e0 523e 0c96 a3be d6ed 05bd
00000390: 6f66 3c3e f7f1 31bf 97e3 cbbd 9dee abbe
000003a0: a166 acbd 127e 5cbc d319 ad3e 38a9 f03c
000003b0: bfdd 8a3e 82d6 fabe ef5e d13c 2f23 01be
000003c0: 88a8 5e3e c24a 023e 741b c4bd b6ae 2a3c
000003d0: 4ca6 c03d 5c9c 273e d667 33be 3697 13bf
000003e0: 4a75 013e fdf8 df3c 8121 36be 2c1c b3bd
000003f0: 66de ae3d c09c c03e bc7f 1d3d 072f ed3e

layer2.bias f4 [32]
-0.21473902 -0.022099957 0.22612576 -0.036633983 0.68623096 0.08691497 -0.0253132 -0.30816355
0.012970476 -0.30548072 0.15464382 -0.43468043 0.19080462 -0.06647961 -0.22598486 0.07999191
-0.38773632 0.13532856 0.3089177 -0.21969041 -0.014121572 0.11594198 0.19971535 0.21011874
-0.087100655 0.09288347 0.18365884 0.20585188 -0.06012267 0.20267954 0.19879021 0.18811023
00000000: 8ce4 5bbe f80a b5bc 838d 673e 840d 16bd
00000010: d5ac 2f3f 7a00 b23d a15d cfbc 9dc7 9dbe
00000020: 1f82 543c f867 9cbe f35a 1e3e 6f8e debe
00000030: 4962 433e 7626 88bd 9368 67be ccd2 a33d
00000040: 6085 c6be 9293 0a3e 762a 9e3e 86f6 60be
00000050: 2a5e 67bc fd72 ed3d 2e82 4c3e 5e29 573e
00000060: d461 b2bd b039 be3d 1011 3c3e d6ca 523e
00000070: 3043 76bd 3a8b 4f3e a98f 4b3e f89f 403e

output.weight f4 [1, 32]
-0.81555 -0.29082844 0.5966533 -1.0369335 -2.17728 0.22846554 0.34109133 -1.0339018
1.4706354 -1.7797205 -0.9383501 -1.5122484 0.40071973 2.274537 1.8527838 -0.5420707
-1.0953058 0.9895775 -1.8468013 0.37370828 0.34637648 0.405602 -1.2339929 1.3873135
-0.39589265 0.6550511 -0.58912927 0.58652794 -0.90261006 -0.69874793 0.52609134 0.24687095
00000000: e3c7 50bf 77e7 94be 45be 183f 3dba 84bf
00000010: 8e58 0bc0 dff2 693e 86a3 ae3e e556 84bf
00000020: c83d bc3f e2cd e3bf b637 70bf 5b91 c1bf
00000030: 232b cd3e 0492 1140 0528 ed3f 25c5 0abf
00000040: fb32 8cbf f354 7d3f fc63 ecbf b156 bf3e
00000050: 4258 b13e 11ab cf3e 7bf3 9dbf 7d93 b13f
00000060: 71b2 cabe 6eb1 273f 2dd1 16bf b226 163f
00000070: 7411 67bf 25e1 32bf ecad 063f bdcb 7c3e
