Models/OU_network/tau_0.1theta_0.1/Q_network.pt (torch, 7207 bytes, 5 tensors)

layer1.weight f4 [32, 4]
00000000: f6e2 cfbf 1441 2bc0 cb5e 1fbf 3c95 4dbe
00000010: ffb8 0040 8184 37bf 4384 c2bd f588 adbd
00000020: 1f1c 66bf c811 d23f 92b9 f23d 7cc3 5abd
00000030: 587c 853f 4d9e f83f 62fc cbbd 217c e2bd
00000040: de53 d43f 154e 753f 54a5 913e e60d 163e
00000050: f831 40bf ba1f 16c0 83ba aabd 99b5 81be
00000060: ad2c 60bf efd0 c8be f0aa de3e 38a5 153e
00000070: 690a aabe 6b27 d33f b07c d43e 5281 0a3e
00000080: 4219 08bf baf3 dbbf e35f 06be e49f 8b3d
00000090: 657e bfbe 1353 86c0 2c02 74bf 4e21 9fbe
000000a0: dc9e d6bf e2d8 373f 6702 d63e 2d44 2fbe
000000b0: 7fd2 11c0 9c55 a33f 1485 09be 81b4 bc3d
000000c0: c8dd d5be 13ba 073f 06e0 d73e 8ac7 f53d
000000d0: f9dd b8bf cae3 db3f 4607 a13e 1cf1 41bc
000000e0: a9b2 9bbf 4487 4540 8efc 353f 5eaa 1e3e
000000f0: 49fe 00c0 1e35 dfbf cfef 1dbf 3959 18be
00000100: f0dc a5bf fb90 5cc0 f4d5 44bf 56f4 6cbe
00000110: eed7 21c0 ca36 713d 91bd 103e d6dc 9ebd
00000120: 0669 80bf f0df 89c0 234a 7dbf 9df3 9cbe
00000130: 1b07 19c0 2f57 91be 9bf5 e73e e7e0 c33d
00000140: 46ba dbbe 0241 3dbf 39d5 57be 5982 a0be
00000150: 1edb bd3f 7a1a 703f 6e89 aa3d c00f 77bd
00000160: ebde 95bf 44f1 4e3f 7232 893e f623 ed3d
00000170: 70c7 30bf 1963 a2bf b126 31be 0b61 593e
00000180: 58f3 c2bf cb50 0640 7769 1c3f 21fc 223e
00000190: 92e0 88be d24a f1be 2166 503e c238 883d
000001a0: 8e16 08c0 af4a bd3f a040 7dbe 1640 cebd
000001b0: 3588 ebbf 994f e73f dc31 ce3e de96 cb3e
000001c0: 5db4 05c0 e452 573f 0b9b d33d f2d0 d83d
000001d0: 3d85 18bf 4204 5240 04d6 083f d84d 8e3e
000001e0: daba c13f c712 c73f 22da 0ebf 140d 04be
000001f0: 827c 8cbf cf5e 1540 8260 173f 3fba 393e
-1.6241138 -2.675847 -0.6225402 -0.2007646 2.0112913 -0.7168656 -0.09497883 -0.08473388
-0.8988666 1.6411676 0.11851801 -0.053409085 1.0428572 1.942331 -0.099602476 -0.11058832
1.6588094 0.9582227 0.28446448 0.1465374 -0.75076246 -2.3456864 -0.083363555 -0.2533386
-0.8756817 -0.39221904 0.4348979 0.14613807 -0.33211067 1.6496404 0.4150138 0.13525894
-0.5316354 -1.7183754 -0.13122515 0.06817606 -0.3740112 -4.197641 -0.95315814 -0.31080097
-1.676723 0.7181531 0.41798708 -0.17115851 -2.2784727 1.2760501 -0.13429672 0.09214116
-0.41770768 0.530183 0.42163104 0.1200095 -1.4442741 1.7178891 0.31450862 -0.01183727
-1.2163898 3.086381 0.7108849 0.15494677 -2.0155203 -1.7438085 -0.61694044 -0.14877786
-1.295805 -3.446349 -0.76888967 -0.23140082 -2.5288043 0.05889014 0.14134814 -0.07756965
-1.0032051 -4.308586 -0.9894125 -0.30654612 -2.3910587 -0.28386828 0.4530457 0.09564381
-0.42915553 -0.7392732 -0.21077432 -0.31349447 1.4832494 0.937904 0.08326994 -0.060317755
-1.1708654 0.8083689 0.267963 0.11579125 -0.6905432 -1.2686492 -0.17299916 0.21228425
-1.5230513 2.0986812 0.61098427 0.15916492 -0.26733834 -0.47127396 0.20351459 0.06651451
-2.1263766 1.4788417 -0.24731684 -0.10070817 -1.8400942 1.8071166 0.40272415 0.3976354
-2.0891335 0.84110856 0.103323065 0.10586728 -0.59578305 3.2815099 0.5345156 0.27793765
1.5135148 1.5552605 -0.55801594 -0.12895614 -1.0975497 2.3339117 0.59131634 0.18137453

layer1.bias f4 [32]
00000000: b07d 403f ffed 853f e9c7 aebe 01db 82bf
00000010: 73a4 70be d82b cd3f 631d 2140 9027 ff3f
00000020: 4f91 753f 2e39 5fbf f347 e73f 54ab 7e3f
00000030: ab8c 693f 0feb 833d 59ad 933e 4d86 ad3f
00000040: a9a1 3c3e 3406 4a3f 78b6 b1be 76ec a63e
00000050: b770 1540 1cc3 883e 8403 643f 07e8 1940
00000060: 3bbc 623f f43d ba3f 6163 933e af84 2c3f
00000070: b850 2e3e 7d1b 99bc bc04 ad3f 96c3 d73e
0.75191784 1.0463256 -0.34136894 -1.0223085 -0.23500232 1.6029005 2.5174186 1.9933949
0.9592485 -0.87196624 1.8068832 0.99480176 0.9123027 0.06441318 0.2884319 1.355661
0.18421043 0.78915715 -0.34709525 0.3260228 2.3350046 0.26711357 0.89067864 2.4047868
0.88568467 1.4550157 0.28786758 0.6738996 0.1702298 -0.018689865 1.351707 0.42141408

layer2.weight f4 [32, 32]
00000000: 8987 8cc0 7d01 213f 8ad7 3bbe df0d 703f
00000010: af8b b83f 939b 10c0 8de8 3e3f 00cd 3f3f
00000020: d171 e2bf 7b1f 16bf 7882 253f d3cf cdbe
00000030: a528 1a3f 5e55 a53e 16a8 f83e 9d96 05c0
00000040: 946b 10c0 f0a1 87bd 99fd 60bf 2b67 31bd
00000050: c0f9 66c0 aefd 663f 65ca 0cbf 9fc7 48c0
00000060: 3d60 063f 8998 3b3f c6ab c6bf 8053 883e
00000070: ea2e 50be 6034 953f e9d4 d5be a77e 333f
00000080: 32fd 59be da2d e33c c875 6c3d 6db7 7bbc
00000090: 7ac0 ca3c ae47 693d 146b 3c3b a40b c2bd
000000a0: 869a 03be e2f2 a2bd 11a9 c5bd 764f 99bd
000000b0: 3980 8cbd b9cd 853d 9b51 9b3c 4153 a23d
000000c0: 5bb8 12be 83f4 e03d 1cf5 cbbd 6894 bc3d
000000d0: b821 37be f5f3 d6bd 33c5 593c 2a04 54be
000000e0: 1889 05bd be7f 2cbe 862b 37bc 0ebb 7ebd
000000f0: a1f0 3b3c f0b2 d7bc 6ce9 393c 6d2e 51bc
00000100: 03ca 10bf 9fcd 47c0 833f 9dbe d697 76bf
00000110: fab2 f5bf fc1f ddbe 0ea7 ab3f c7ea 883f
00000120: ad6b 1abf 469e 8c3f bfe6 d53f f13d 28bd
00000130: 14bf 833f 224c 7b3f f8fd 5d3f 2897 e5bf
00000140: 3346 1bbf 56a9 cf3f 2d45 f23e a8a1 853f
00000150: 78d2 97bf 8617 79be 51c4 283e 9fda 95be
00000160: 1c7b 3b3f 26d3 a03f bb84 d2bf e045 863f
00000170: 42fb 923f 291f 393f 0ff3 ae3f 4b15 143f
00000180: 3eab 063f fd57 c23f 71a5 813f 2fff b03f
00000190: e1a9 d03f e280 8bbe bf8f 743c 51dc 53bf
000001a0: 4c7a 0bbd aa51 823f 51c5 8fbd 0b17 543d
000001b0: 3f6e 58be 74fc 893f 5193 8e3f 3043 61be
000001c0: cdf9 7e3f a46e f93e b20c 223f 441c 823f
000001d0: d7a7 22bf c706 a53f 1e31 143f 7da4 14be
000001e0: 65c2 583f 6010 453f e2a9 e53e 0e73 fb3e
000001f0: 67e2 1a3f 280d 7e3f c7b6 26bf 349b 753f
00000200: 10d8 113f 7381 b03f 800d 743f 786b 8e3f
00000210: e445 833f 0612 11bf 2f94 2bbe 2773 93bf
00000220: bc57 99be 12ab 923f 748f 96bd 61a9 b73d
00000230: 224f 3fbf ae14 633f 2632 8f3f 6a92 c03d
00000240: de15 913f dfcb 0d3f 65bf 813f 1287 453f
00000250: 6a57 1fbf e915 163f 1f81 193f 3490 9ebe
00000260: 6d87 323f 5889 863e 9d61 333f 6269 053f
00000270: dd27 423f e716 8b3f 0845 2bbf fa64 903f
00000280: 6471 12c0 1d3f 41be f8b8 d03e cbf4 ca3d
00000290: f879 a53f 62fc 23c0 8b5a 053f 4348 163f
000002a0: f8df 22c0 fa4f 8abe 7e97 483f 2c1b 333e
000002b0: 4be8 ef3e fdc7 0b3f c65d 7b3f f794 4bbf
000002c0: e4a5 15c0 4210 823e 2dc4 05bf 3cae 2abe
000002d0: 0f62 32c0 aaa5 213f 75b3 873e 943d 2bc0
000002e0: 4edb 3c3f 48ab d93e a928 84be 76c9 e03e
000002f0: 6615 1f3e 2f15 ad3f 51d3 ae3e e080 573f
00000300: 413c 023f 4d4a ac3f e05e 833f ddf5 ba3f
00000310: 02a2 883f 84d0 21bf af55 98be b383 71bf
00000320: 4fe1 91bd 5af7 9c3f 9a06 7bbe 87cf 5a3e
00000330: 7d8b 0cbf 9485 9d3f afab a13f bb24 933d
00000340: c805 963f 6a25 233f c60d 893f 48be 743f
00000350: 5df3 35bf b643 683f ebfd 393f a123 fdbe
00000360: 3b0c 153f 4f4e 2c3e 08a4 f53e c236 403f
00000370: 3b52 093f 9203 813f 1726 25bf 0316 883f
00000380: 8fbd 38be cbb8 e2bd 1e97 27be a9f8 273e
00000390: 3441 2dbd a0ca 31be 7968 813d 723f 24be
000003a0: 7dc4 c5bd cb13 113c b228 01be 8c6e 653c
000003b0: 4046 cabd d156 b9bd b72a 803c 9daa 1a3d
000003c0: 3044 da3c 2009 cb3d 353a 083e 87a4 87bd
000003d0: 5004 6f3d 4097 c5bd 1258 e93d 1409 23bd
000003e0: 271d 0d3e 1f34 b6bc 2f98 e5bd f03a 8d3d
000003f0: 1a33 ce3c 9ac7 93bd 93c5 f3bd 8cae e13b
-4.391545 0.62892896 -0.1834394 0.93771166 1.4417628 -2.2594955 0.74573594 0.7492218
-1.7690984 -0.58641785 0.64652205 -0.4019762 0.6021827 0.32291692 0.4856574 -2.0873177
-2.256566 -0.06622684 -0.8788696 -0.04331128 -3.6089935 0.90230834 -0.5499633 -3.137184
0.524906 0.73279625 -1.5521171 0.26626205 -0.20330396 1.1656609 -0.41764 0.7011513
-0.21287993 0.027731825 0.057729512 -0.015363556 0.024749983 0.056953125 0.0028750347 -0.094748765
-0.12851915 -0.079564825 -0.096513875 -0.07485859 -0.06860394 0.06533379 0.018959811 0.07926036
-0.14328139 0.10984137 -0.0995886 0.09207994 -0.17883956 -0.1049575 0.013291645 -0.20704713
-0.032601446 -0.16845605 -0.01117981 -0.062190108 0.011470945 -0.026330441 0.011347156 -0.012767416
-0.56558245 -3.121925 -0.30712518 -0.96325433 -1.9195244 -0.43188465 1.3410356 1.0696648
-0.6032055 1.0985801 1.6711043 -0.041074697 1.0292687 0.98163044 0.8671565 -1.7936754
-0.6065399 1.6223552 0.47318402 1.0439959 -1.1861105 -0.2432538 0.16481139 -0.29268357
0.73234725 1.2564437 -1.6446756 1.0490074 1.1482928 0.7231317 1.3667926 0.5784499
0.52605045 1.5183102 1.0128614 1.3827876 1.6301843 -0.27246767 0.01492685 -0.8275805
-0.03405218 1.0181172 -0.07020057 0.051779788 -0.21135806 1.0780168 1.1138707 -0.21998286
0.99599916 0.48717225 0.6330062 1.0164876 -0.63537353 1.2892693 0.57887447 -0.14515872
0.8467162 0.7697811 0.44856173 0.49111217 0.6050171 0.99238825 -0.65122646 0.95939946
0.5697031 1.3789505 0.953331 1.1126547 1.0255704 -0.56668127 -0.16755746 -1.1519517
-0.2994975 1.1458457 -0.0735158 0.08967853 -0.7473012 0.8870343 1.1187179 0.09402926
1.1334798 0.5538921 1.0136534 0.77159226 -0.6224276 0.5862718 0.5996265 -0.30969393
0.69737893 0.2627666 0.7007082 0.52113926 0.75842077 1.0866364 -0.6690221 1.1280816
-2.2881708 -0.18871732 0.4076612 0.09909972 1.2927847 -2.5622792 0.5209128 0.5870401
-2.54492 -0.27014142 0.7835616 0.17490834 0.46856913 0.5460203 0.9818996 -0.7952418
-2.3382502 0.2540303 -0.52252465 -0.16668028 -2.787235 0.6314341 0.26504102 -2.6756334
0.7377213 0.4251349 -0.2581227 0.43903702 0.15535507 1.352209 0.34145597 0.8418102
0.5087319 1.3460175 1.0263329 1.4606282 1.0674441 -0.63208795 -0.2975287 -0.9434158
-0.07123052 1.2262986 -0.24514237 0.21368228 -0.5490034 1.230639 1.2630519 0.0718474
1.1720514 0.63728964 1.0707328 0.95602846 -0.7107447 0.9072832 0.72653073 -0.49441245
0.5822179 0.16826747 0.47976708 0.75083554 0.536411 1.0079215 -0.64511245 1.0631717
-0.18041061 -0.11070403 -0.1636624 0.1640345 -0.04229851 -0.17362452 0.06318755 -0.16039827
-0.09656618 0.008854817 -0.1261318 0.014003407 -0.098766804 -0.09049762 0.015645368 0.037760366
0.026643842 0.0991385 0.13303454 -0.06623178 0.058353722 -0.09647989 0.11393751 -0.03980358
0.13780652 -0.02224165 -0.11210667 0.06896007 0.025170851 -0.07215805 -0.11902919 0.0068872627

layer2.bias f4 [32]
00000000: 1646 38bf 6ac9 a23d c532 f73d 2151 433e
00000010: bb76 53be cfc1 20bf 3079 3ebe c18a 2cbe
00000020: c389 45be 9ce4 823c ee02 2c3f 14ec 87be
00000030: 5e79 84be 5bbe 0cbe b36d ffbc 97ab 42be
00000040: 3752 e0bd b945 823f b96c f3bc 0f52 77be
00000050: 3c96 dd3e 9a23 9cbd 6145 1bbe b6fe b0bd
00000060: 0dad dabe 00f9 9abe e799 65bb ff05 88be
00000070: d127 7fbe f949 42bd 360a 82bd 4726 013e
-0.7198194 0.07948573 0.120702304 0.19073917 -0.20650761 -0.6279573 -0.18600917 -0.16849805
-0.19290833 0.01597815 0.6719197 -0.265473 -0.25873846 -0.1374449 -0.031180238 -0.19010769
-0.10953181 1.0177528 -0.029714929 -0.24152397 0.43278682 -0.07623978 -0.15163185 -0.08642332
-0.42710152 -0.30268097 -0.003503436 -0.26567075 -0.24917533 -0.047433827 -0.06349604 0.12612258

output.weight f4 [1, 32]
00000000: a6e5 5b40 7883 c13c 8a63 2840 3591 a0bf
00000010: 36af 9dbf 74ef 3040 7143 80bf 5758 053e
00000020: 9c6c 8cbf 3249 343c ba62 d140 dfbb 96bf
00000030: ca4a 7dbf 3eea 0f40 2533 83bf 1fb4 9abf
00000040: 5ace a9bf b314 4d40 1529 8abf 410d aabf
00000050: 7051 c440 5b55 a6bf aec4 9ebf c909 103d
00000060: b561 2540 8c66 9ebf 655b 1040 a32f 90bf
00000070: 9c9e 8abf f764 073e 1f9b 8bbf 78e8 6f40
3.4358916 0.02362226 2.6310754 -1.2544314 -1.2319095 2.764615 -1.0020581 0.1302198
-1.0970645 0.011003779 6.5433016 -1.1776084 -0.98942244 2.248672 -1.0249983 -1.2086219
-1.3266098 3.2043884 -1.0793787 -1.3285295 6.134941 -1.2994798 -1.2403772 0.03516558
2.5840886 -1.2375045 2.2555783 -1.1264538 -1.0829654 0.13222109 -1.0906714 3.7485638
