Models/OU_network/tau_0.5theta_0.01/Q_network.pt (torch, 7207 bytes, 5 tensors)

layer1.weight f4 [32, 4]
00000000: e0f5 42c0 9056 edbf 25d2 003f 6ecf aa3e
00000010: 1585 413e e57a 0640 05b6 d63e de1f 443d
00000020: d23d c7be ad3e 0d40 eccf 3abe 6c06 53bd
00000030: 285e ca3f 8bdf b73f f18a 44be c3b8 af3e
00000040: 3618 0e3e ec51 7040 7708 503f c794 853e
00000050: 849e cdbf 5d0c 1dc0 5a9a 20bf e3f5 f9bd
00000060: be10 9fbf 4ca2 29c0 d4f5 00bf 11e6 97be
00000070: a2bb 52bf d319 0bc0 5778 b6be 6c60 ffbd
00000080: 34a9 06c0 91cd 0b40 7158 1a3f c64e 3d3e
00000090: 4403 12bf fbc6 3fc0 1b0a 3dbf 13c2 6cbe
000000a0: 5ae2 bdbf 9c40 85c0 5993 3abf afdc 46be
000000b0: 8d95 d93e 03d5 f5be ad0e 95be 3e6e 21be
000000c0: 19da 1c3f 3cf1 1bc0 704a cfbe 83a1 03be
000000d0: ad10 28be 14d8 cd3f d513 8c3d 281f ccbe
000000e0: 6dbb 313f 0c2e 03bf 3bb9 9fbe aae8 b93d
000000f0: c22b b1bf 8a8e 98bf 9df8 ebbe 7bcc 08bf
00000100: 9f4a 6dbf 5d02 4040 2e25 193f 47d3 6b3e
00000110: 0e43 0bbf 13b8 51c0 f4b1 07bf 37e3 33be
00000120: fea6 1840 2f52 70c0 8dd6 41bf 5321 dfbd
00000130: 646c f33f d796 4b3f e3e7 52be e5ac 67bd
00000140: 1277 e3bf aed5 0bbf bec9 b1be e5f6 85be
00000150: 8a62 ffbd 61e8 20c0 eb10 2d3b 5851 a4be
00000160: 51d6 adbf 44be 11bf 4f6e 9ebf 9c4c 41bf
00000170: 79f9 9e3f 9f18 d6bf ca14 50be ac00 9bbb
00000180: 3630 53bf 1afc a3bf 43b0 c0bd a3e9 883e
00000190: 2b1b 883f a533 be3f 790d 4d3e d204 c43e
000001a0: c15a 883d e48e c53f 7b68 853f 726c b33e
000001b0: 8840 1340 48fd a8bc 444b 703c 1a29 b93b
000001c0: 02d7 00c0 c915 d1bf 22d7 1ebf 75f5 51be
000001d0: 96d9 cf3c 1602 4c40 80a7 b73e 4c05 80be
000001e0: c9c3 4fbf 0e90 3f40 326d 323f a0b6 5b3e
000001f0: 7f34 12c0 14c7 71bf e78f e9be 7158 73be
-3.046257 -1.8542042 0.50320655 0.3336138 0.18898423 2.101251 0.41935745 0.047881953
-0.38914353 2.2069504 -0.18243378 -0.051519796 1.5809984 1.4365095 -0.19193627 0.3432065
0.13876423 3.755 0.81262916 0.2609007 -1.6064 -2.4538796 -0.6273552 -0.12205102
-1.2426984 -2.6505308 -0.50375104 -0.29667714 -0.82317555 -2.1734512 -0.35638687 -0.12469563
-2.1040773 2.1844218 0.602912 0.18487081 -0.5703623 -2.9965198 -0.73843545 -0.23120908
-1.4834702 -4.164137 -0.72881085 -0.19420122 0.4249691 -0.48014078 -0.2911276 -0.1576471
0.6127029 -2.4365988 -0.4048648 -0.1285458 -0.16412611 1.6081567 0.0683972 -0.3986752
0.69426614 -0.51242137 -0.31196007 0.0907758 -1.3841479 -1.19185 -0.46088114 -0.5343701
-0.9269199 3.0001442 0.59822357 0.23029815 -0.5439919 -3.27686 -0.5300591 -0.17567144
2.3851924 -3.755016 -0.75718004 -0.10895028 1.9017453 0.7952704 -0.2059627 -0.05656137
-1.7770712 -0.54622924 -0.3472423 -0.26164928 -0.12469967 -2.5141833 0.002640779 -0.3209331
-1.3581029 -0.5693095 -1.2377414 -0.7550752 1.2419883 -1.6726264 -0.2032043 -0.0047303047
-0.8249544 -1.281131 -0.09408619 0.2674075 1.0633291 1.4859511 0.2002467 0.38284928
0.06657935 1.5434232 1.042251 0.35043675 2.3008137 -0.020628586 0.014666382 0.0056506516
-2.013123 -1.6334773 -0.62047017 -0.2050379 0.025372308 3.1876273 0.3586998 -0.2500404
-0.8115812 2.9931674 0.6969787 0.21456385 -2.284454 -0.94444394 -0.456176 -0.23764206

layer1.bias f4 [32]
00000000: 0b81 993f f0ce 2840 7ee2 a93f 1357 fb3f
00000010: d4da 5fbf 5683 7b3f 8d66 323f 00f8 d53f
00000020: 5a33 bc3f d681 febc 7090 2a3f 3659 543f
00000030: 391c d93e 1845 633f bf38 a73f 535a b7be
00000040: e3a1 783f 6e1e 203e 5b83 f2be d7ba f93f
00000050: ebe3 dd3f 63db f73f e7a7 9d3f 9185 413f
00000060: cb71 eb3f eff0 8e3e c166 0e40 4693 c43f
00000070: 01ab d13f fdcc 513f 13d1 493e 0544 0440
1.1992506 2.6376305 1.3272245 1.9635948 -0.8744328 0.9824728 0.6968773 1.6716309
1.4703171 -0.03106777 0.66626644 0.82948625 0.42404345 0.88777304 1.3064193 -0.358111
0.9712202 0.15636608 -0.4736584 1.9510144 1.733518 1.9363827 1.2316865 0.7559443
1.8394102 0.27918193 2.2250216 1.5357444 1.6380311 0.8195341 0.19708662 2.0666516

layer2.weight f4 [32, 32]
00000000: d252 473d 5615 0cbe a21f 3ebe 1bb9 773d
00000010: 6ea9 09be a794 e6bc 5e61 cbbd 8756 10be
00000020: dad5 8f3d b1a2 6dbd 0b27 4dbc 40ab 4dbd
00000030: 57e1 d33c 7dc6 8a3d 8090 2fbe b4e9 383d
00000040: 5121 d33d 498b f4bd 2d67 05bd 49b3 933d
00000050: 8124 41bd 03dd 033e 152d b7bd 58e2 b23c
00000060: 31fb b73c 6077 1dbc b0d0 57be 5c36 d0bd
00000070: c320 e9bd ce32 42be 1d4a cb3c e9f5 03be
00000080: d028 dc3e 3b9c 14bf a6e9 e03e b86c 51bf
00000090: 3335 3d3f 8069 023f 037f 183f a2d6 da3e
000000a0: 36a6 f33e fed5 223f 8efe c53d 38fc bfbe
000000b0: e552 8a3f ba87 103f e76e ebbe 2a33 c73e
000000c0: 068d 0d3f ae74 223f 0266 1c3f aa61 3ebf
000000d0: 80d8 ce3e c7b0 593c 9373 49bf 8331 7f3f
000000e0: b702 5b3d 83bd ce3f e5c4 21bf 362b d33f
000000f0: f3bd 213f 4170 69be 8355 4c3f 2558 053f
00000100: 8154 9bbf 4806 24c0 611d 98be b91c 97bf
00000110: aa25 87bf df95 dd3f 64d2 e43f 5e3a 573f
00000120: aa28 1cc0 0b7e b53f e86a 0f40 9b0e f4be
00000130: 1742 0640 d3bb bdbe 05f3 c03e 5aa9 443f
00000140: 6d4b 0ec0 7b2a 0040 43d6 e83f e109 f5bf
00000150: c2b9 943f bf73 f73f e7d2 3f3f f2a7 efbe
00000160: 725a 963f 44f7 90be 0c7a 293f af19 fcbf
00000170: bdda bf3f ea79 83c0 f4c5 45bf a798 a23f
00000180: 0a20 153f b8f9 05bf c377 513f d8a7 53bf
00000190: 11da 263f f638 0e3f 6601 163f eb2e 423e
000001a0: d1e6 013f a3be 613f 854e a33e 4f6b f8be
000001b0: 9e46 303f ab7b 4a3f 16df e0be add7 bd3e
000001c0: b0b2 1b3f a7b2 243f e51d 023f aa5b 35bf
000001d0: a834 053f df84 eebe ba8a 0bbf 55bf 1f3f
000001e0: 05ab aabe 562a a53f 3ce2 2dbf 96a5 b63f
000001f0: c130 173f 6e87 babe 2c7d dc3e 4b40 ba3e
00000200: c195 ef3e c8d6 34bf ef0b 893f dfc0 1ebf
00000210: 1d11 353f 11c7 4b3f f0ef 143f 3a39 b73e
00000220: 292a 083f 1455 1f3f 5c3d b23e ed30 21be
00000230: 69ea 2b3f 5c84 4a3f 27e3 18bf 5c4d f83e
00000240: 0173 073f 557c fe3e 600e 083f 03d0 64bf
00000250: 0745 583f 02b3 84be ba8c 18bf b68e f43e
00000260: e9ff 8cbe 9266 ad3f c2fd 16bf f307 993f
00000270: f432 533f 71cc 24bd 96c6 393f 0b0f 2e3f
00000280: 19f9 8c3d a029 15be 791f a2bd 3f4b 9b3d
00000290: 00f2 223d d6f1 f53d 4e9a a43d 367c b3bd
000002a0: 9425 ffbd 8e7b 1dbe 98b6 8d3d 2bd8 2ebe
000002b0: 9c13 12be 8cf8 d1bc 49f1 00be d5dc 28be
000002c0: 8fcb 063d 0779 94bd ada4 7fbd 6f3e f03d
000002d0: ebdc 113d 16ea 543d 6fb4 8b3d c0ee b9bd
000002e0: e10a 03be 5144 02be 0c87 0fbe c05b a1bc
000002f0: a878 81bc 02bd 02be ebc8 1abd a67f 683c
00000300: 8837 8c3e 9b30 ecbe 6a33 f73e 347f 45bf
00000310: 8f3f 2d3f 9438 443f 0718 653f 6377 523e
00000320: 3848 c33e 2559 363f 2172 c63e 055c 53be
00000330: e740 7b3f 85da 053f ec8a 1cbf 2b33 ca3e
00000340: 2b07 bc3e cf02 1a3f 5d10 553f 4a1c 1ebf
00000350: 517e 2a3f 06bc 7fbc e58a 44bf b2fd 4e3f
00000360: 9b5d 843d 5809 ae3f 345a ccbe 8e09 b03f
00000370: dca4 e53e ef51 2ebe 7a32 083f 9f58 213f
00000380: e2bd c03e 9d10 d5be c4df 123f 228c 2abf
00000390: 8c66 6c3f f71d 333f adcb 503f 0a92 c33e
000003a0: 3401 f03e d87e 3c3f 02f2 bf3d 2a90 5abe
000003b0: db79 7f3f e38e ed3e 578e febe 0e92 853e
000003c0: b7ee 0f3f 3b2c 0f3f f646 443f 9a6a 50bf
000003d0: bb42 323f 4a61 253d 6b35 4abf c3c0 5b3f
000003e0: 7272 04be 5da8 c03f 5aea 04bf b01d b93f
000003f0: ac65 f53e 74a7 c3be 1784 e83e 51a0 1d3f
0.048662968 -0.13680014 -0.18566754 0.060479265 -0.13443539 -0.028147055 -0.09930681 -0.14095508
0.07023211 -0.058016483 -0.012521516 -0.050212145 0.025864286 0.0677614 -0.17144966 0.04514475
0.10309089 -0.11940629 -0.0325691 0.0721193 -0.047153953 0.12877278 -0.089441456 0.021836445
0.022458645 -0.009610981 -0.21075702 -0.10166618 -0.11383202 -0.18964693 0.024815613 -0.12886776
0.42999887 -0.5805089 0.4392826 -0.81806517 0.739093 0.5094223 0.59568805 0.42741877
0.47587746 0.63607776 0.09667693 -0.37497115 1.0806547 0.564571 -0.4598305 0.38906223
0.5529331 0.6345929 0.6109315 -0.74367774 0.4039955 0.013286776 -0.7869198 0.99684924
0.053469386 1.6151584 -0.6319106 1.6497562 0.63180465 -0.22796728 0.7981798 0.5208762
-1.2135164 -2.5628834 -0.29709914 -1.180564 -1.0558369 1.7311362 1.7876706 0.84073436
-2.439982 1.417909 2.2409 -0.47667393 2.0977838 -0.3705736 0.3768541 0.7682091
-2.2233536 2.0025928 1.8190387 -1.914364 1.1619189 1.9332198 0.74931186 -0.4680782
1.1746352 -0.2831365 0.66201854 -1.9695338 1.4988629 -4.108632 -0.7725518 1.2702836
0.5825201 -0.52334166 0.81823367 -0.82677984 0.6517649 0.55555665 0.58595884 0.1896321
0.5074282 0.88181514 0.31895843 -0.4851937 0.68857753 0.7909495 -0.439202 0.3707861
0.6081953 0.643351 0.50826865 -0.70842993 0.5203347 -0.46585748 -0.54508555 0.62401325
-0.33333603 1.2903545 -0.6792333 1.4269283 0.5905877 -0.3643145 0.4306425 0.36377177
0.4679394 -0.7064023 1.0706767 -0.6201305 0.7072924 0.79600626 0.58178616 0.35785848
0.5318933 0.62239194 0.34812438 -0.1574132 0.67154557 0.79108214 -0.59721607 0.4849652
0.5290986 0.49704233 0.53146935 -0.893799 0.8448033 -0.25917822 -0.5958973 0.4776513
-0.27538994 1.3546927 -0.58980954 1.1955551 0.82499623 -0.040234033 0.72568643 0.67991704
0.06883449 -0.1456666 -0.07916159 0.075827114 0.03978157 0.12009017 0.08037244 -0.08763926
-0.12458339 -0.15379164 0.069195926 -0.17074649 -0.14265293 -0.025631212 -0.12592043 -0.1649049
0.032908972 -0.07249647 -0.062412906 0.11730658 0.035611074 0.051981054 0.06821524 -0.09078741
-0.12797119 -0.12721373 -0.1401636 -0.01969707 -0.015804604 -0.12767413 -0.037789267 0.01419059
0.27386117 -0.46130833 0.48281413 -0.7714722 0.6767511 0.7664883 0.8948979 0.20553355
0.38141036 0.71229774 0.38758948 -0.20640571 0.9814591 0.5228656 -0.6114948 0.39492163
0.3672422 0.60160536 0.83228093 -0.61761916 0.66598994 -0.015608793 -0.76774436 0.8085586
0.06463166 1.3596601 -0.3991257 1.3752916 0.4485234 -0.17023443 0.5320202 0.6302585
0.3764487 -0.41614237 0.5737269 -0.66620076 0.92343974 0.699676 0.81560785 0.38197356
0.46875918 0.7363105 0.09372331 -0.21344057 0.9979531 0.46398076 -0.49717972 0.26087993
0.56223625 0.55926865 0.7667078 -0.8141266 0.6963307 0.040375985 -0.7898776 0.85841006
-0.12934282 1.505138 -0.5192009 1.4462185 0.47929132 -0.38213694 0.45413277 0.6157275

layer2.bias f4 [32]
00000000: ad2e 8b3d f01f a8be 5c98 c83e b506 07bf
00000010: a907 a5be 26ba 1cbb 090e 8cbe 69d9 afbe
00000020: febd 4cbe 92e0 bcbd 110d 92be 3ad4 93be
00000030: 5d08 b53f 0a6e cbbe c792 03be e00c a2be
00000040: 6fa6 18be 2803 ee3f 72c6 1bbe 3257 663f
00000050: d721 d3be 398a e03e 5334 3bbe 3416 1ebf
00000060: 835e 14be a19a 0940 3eda ebbe ae60 ebbe
00000070: 9c7c 913f a756 99be e9ce 16bf 5b16 fcbe
0.06796012 -0.32836866 0.3917874 -0.5274461 -0.32232407 -0.0023914664 -0.27354458 -0.34345558
-0.19994351 -0.09222521 -0.28525594 -0.28872854 1.4143177 -0.3973239 -0.1284896 -0.31650448
-0.1490724 1.8594713 -0.1521242 0.899768 -0.41236755 0.43855456 -0.18281679 -0.6175263
-0.14489178 2.1500628 -0.46064943 -0.45972198 1.1366153 -0.29948923 -0.5890947 -0.49235806

output.weight f4 [1, 32]
00000000: 73a5 f93c 7da6 7abf d511 5e40 778e 9cbf
00000010: 5684 8ebf b379 123e 98bc 5bbf 7305 90bf
00000020: 5617 9fbf d77c a0bf 55fe 87bf 6044 8fbf
00000030: 3874 ca40 3b56 7abf 83dd 92bf d076 88bf
00000040: 1663 9bbf 02c8 eb3f 773f 9bbf 741f 6340
00000050: 7a82 89bf 1d2b 4440 0148 69bf 30d9 a4bf
00000060: cc4b aebf 5c5f 4b40 fb67 94bf 60ca 8cbf
00000070: e9db f940 ad19 84bf 61b9 79bf 15da 8bbf
0.0304744 -0.9791029 3.4698384 -1.2230977 -1.1134136 0.14304237 -0.85834646 -1.1251663
-1.2428997 -1.2538098 -1.0624491 -1.1192741 6.326687 -0.9778783 -1.147385 -1.0661259
-1.2139614 1.8420413 -1.2128743 3.5487947 -1.0742943 3.0651314 -0.91125494 -1.287878
-1.3616881 3.1776953 -1.1594232 -1.099926 7.8080945 -1.0320336 -0.9754849 -1.0925928
