Models/OU_network/tau_0.5theta_0.01/target_Q_network.pt (torch, 7263 bytes, 5 tensors)

layer1.weight f4 [32, 4]
00000000: 4cf6 42c0 6657 edbf c8d2 003f 52cf aa3e
00000010: 448a 413e 217a 0640 ddb9 d63e 293a 443d
00000020: d03e c7be 8c3e 0d40 7dc7 3abe 46fb 52bd
00000030: ac5e ca3f badf b73f 2e93 44be 40b9 af3e
00000040: 1818 0e3e 5652 7040 c406 503f e690 853e
00000050: 9a9e cdbf 680c 1dc0 6c9a 20bf d0ff f9bd
00000060: 8f10 9fbf eaa1 29c0 a9f7 00bf 0ee7 97be
00000070: 75ba 52bf 5619 0bc0 4e7b b6be f051 ffbd
00000080: 25a9 06c0 64cd 0b40 a058 1a3f af4b 3d3e
00000090: 7c03 12bf 16c7 3fc0 6e09 3dbf ceca 6cbe
000000a0: 91e2 bdbf 5340 85c0 8a95 3abf 64dc 46be
000000b0: 7c97 d93e 38d0 f5be 9a11 95be 7f68 21be
000000c0: 62d9 1c3f 99f1 1bc0 b047 cfbe b6a5 03be
000000d0: 5411 28be 94d8 cd3f 5814 8c3d ec1c ccbe
000000e0: 50bc 313f db2b 03bf a6bb 9fbe d5f2 b93d
000000f0: 5e2b b1bf 588e 98bf b6f9 ebbe 01cd 08bf
00000100: 164c 6dbf 4602 4040 ed24 193f 5cce 6b3e
00000110: f341 0bbf d9b7 51c0 34b3 07bf 80e4 33be
00000120: c3a6 1840 b152 70c0 dbd4 41bf 362d dfbd
00000130: f16c f33f 0a97 4b3f c0ea 52be 6a99 67bd
00000140: 7b76 e3bf 0ad5 0bbf c6cd b1be a6f8 85be
00000150: 0762 ffbd a2e8 20c0 1214 2f3b 3a4e a4be
00000160: 3cd6 adbf dfbb 11bf e86e 9ebf 944b 41bf
00000170: d4f9 9e3f 0c18 d6bf b819 50be d446 9cbb
00000180: 962f 53bf eafb a3bf 47b1 c0bd 66ed 883e
00000190: f21a 883f 8634 be3f 3809 4d3e caff c33e
000001a0: 0c64 883d d48c c53f c669 853f 206e b33e
000001b0: b440 1340 26d8 a8bc b611 703c d62f b83b
000001c0: 40d7 00c0 da15 d1bf f3d6 1ebf 1cfd 51be
000001d0: b50e d03c d000 4c40 42ad b73e c803 80be
000001e0: d8c3 4fbf 5490 3f40 896b 323f 86b3 5b3e
000001f0: 5c34 12c0 9dc6 71bf b693 e9be 425c 73be
-3.0462828 -1.8542297 0.50321627 0.33361298 0.189004 2.1012042 0.41938677 0.04790703
-0.3891511 2.2069426 -0.18240161 -0.051509164 1.5810142 1.4365151 -0.1919677 0.34321022
0.13876379 3.7550254 0.81260324 0.2608711 -1.6064026 -2.4538822 -0.6273563 -0.122069955
-1.2426928 -2.6505075 -0.503779 -0.29668468 -0.8231576 -2.1734214 -0.3564095 -0.124668
-2.1040738 2.184411 0.6029148 0.18485902 -0.57036567 -2.9965262 -0.73842514 -0.23124239
-1.4834768 -4.164102 -0.7288443 -0.1942001 0.42498386 -0.4801042 -0.2911499 -0.15762518
0.612692 -2.436621 -0.4048438 -0.12856182 -0.1641286 1.6081719 0.06839818 -0.39865816
0.6942797 -0.51238793 -0.31197852 0.0907952 -1.384136 -1.191844 -0.46088952 -0.5343781
-0.9269422 3.0001388 0.5982197 0.23027939 -0.54397506 -3.2768462 -0.5300782 -0.17567635
2.3851783 -3.755047 -0.75715417 -0.10897295 1.9017621 0.7952734 -0.20597363 -0.05654279
-1.7770532 -0.54621947 -0.34727305 -0.26166266 -0.12469869 -2.5141988 0.0026714844 -0.32090932
-1.3581004 -0.56927294 -1.2377596 -0.7550595 1.2419991 -1.6726089 -0.20322311 -0.0047691856
-0.82494485 -1.2811253 -0.09408813 0.2674362 1.0633223 1.4859779 0.20023048 0.3828109
0.066597074 1.5433602 1.0422904 0.35044956 2.3008242 -0.02061088 0.01465266 0.005620937
-2.0131378 -1.6334794 -0.62046736 -0.2050671 0.025397638 3.1875496 0.35874373 -0.25002885
-0.8115821 2.993184 0.69695336 0.21455202 -2.2844458 -0.94443685 -0.45620507 -0.23765662

layer1.bias f4 [32]
00000000: ba81 993f bbcf 2840 98e2 a93f 9957 fb3f
00000010: 06dc 5fbf 3782 7b3f 2e65 323f 9ff8 d53f
00000020: cc33 bc3f 767b febc 368f 2a3f 425a 543f
00000030: e61b d93e 1f45 633f 5a39 a73f 7458 b7be
00000040: 899f 783f 2217 203e 4285 f2be c8bb f93f
00000050: 02e3 dd3f e6db f73f 1ea8 9d3f 4a83 413f
00000060: ae72 eb3f 32ee 8e3e 9867 0e40 b591 c43f
00000070: 68aa d13f 02ce 513f cecd 493e 8243 0440
1.1992714 2.6376789 1.3272276 1.9636108 -0.87445104 0.9824557 0.6968564 1.6716498
1.4703307 -0.03106473 0.6662477 0.8295022 0.42404097 0.88777345 1.3064377 -0.35809672
0.9711843 0.15633824 -0.47367293 1.9510431 1.7334902 1.9363983 1.231693 0.75590956
1.8394372 0.27916104 2.2250729 1.5356966 1.6380129 0.8195497 0.19707415 2.0666203

layer2.weight f4 [32, 32]
00000000: d252 473d 5615 0cbe a21f 3ebe 1cb9 773d
00000010: 6ea9 09be a694 e6bc 5e61 cbbd 8656 10be
00000020: dad5 8f3d b0a2 6dbd 0a27 4dbc 40ab 4dbd
00000030: 58e1 d33c 7ec6 8a3d 8090 2fbe b4e9 383d
00000040: 5221 d33d 488b f4bd 2c67 05bd 4ab3 933d
00000050: 8024 41bd 04dd 033e 142d b7bd 58e2 b23c
00000060: 32fb b73c 6077 1dbc b0d0 57be 5c36 d0bd
00000070: c220 e9bd ce32 42be 1e4a cb3c e8f5 03be
00000080: 6423 dc3e 5d9e 14bf d3e7 e03e 066e 51bf
00000090: 5835 3d3f 5f69 023f f27e 183f d9d4 da3e
000000a0: 28a3 f33e d0d5 223f 9dfe c53d b9fd bfbe
000000b0: d652 8a3f 7c87 103f d870 ebbe 6c32 c73e
000000c0: 238c 0d3f f274 223f bc65 1c3f 1863 3ebf
000000d0: 7ad7 ce3e 02fa 583c 2474 49bf 8230 7f3f
000000e0: 3ddb 5a3d 50bd ce3f 7ec7 21bf 462a d33f
000000f0: c2bd 213f 2e6e 69be 9254 4c3f b057 053f
00000100: 7655 9bbf 2d06 24c0 041a 98be 301c 97bf
00000110: aa25 87bf 0096 dd3f 58d2 e43f 223a 573f
00000120: e128 1cc0 167e b53f d96a 0f40 7e0d f4be
00000130: f141 0640 1cb9 bdbe 04f4 c03e eca9 443f
00000140: 844b 0ec0 5d2a 0040 06d6 e83f 8c09 f5bf
00000150: 0aba 943f f472 f73f bed3 3f3f eaa9 efbe
00000160: 365a 963f 49f9 90be 4978 293f 041a fcbf
00000170: fcda bf3f 9e79 83c0 32c6 45bf ea98 a23f
00000180: 371d 153f 9dfb 05bf 3676 513f fea8 53bf
00000190: 44da 263f b838 0e3f 4c01 163f b62b 423e
000001a0: 36e5 013f 6abe 613f 7a4e a33e 946c f8be
000001b0: 0047 303f 227b 4a3f 97e0 e0be e4d6 bd3e
000001c0: 92b1 1b3f d6b2 243f 481e 023f b95c 35bf
000001d0: de33 053f 9689 eebe a18b 0bbf 58bf 1f3f
000001e0: acaf aabe 6a2a a53f 76e4 2dbf 10a5 b63f
000001f0: 5030 173f d486 babe 427b dc3e d83e ba3e
00000200: e68f ef3e 0cd9 34bf 000b 893f 7cc2 1ebf
00000210: 4e11 353f bec6 4b3f d5ef 143f 2e37 b73e
00000220: 7e28 083f d754 1f3f 4c3d b23e db34 21be
00000230: 98ea 2b3f 7a83 4a3f 52e4 18bf 914c f83e
00000240: c871 073f a57c fe3e 980e 083f 94d1 64bf
00000250: 0c44 583f 63b8 84be de8d 18bf e18d f43e
00000260: 1605 8dbe 7266 ad3f 2e00 17bf 2207 993f
00000270: 5c32 533f 38cc 24bd 99c5 393f 250e 2e3f
00000280: 1af9 8c3d a029 15be 781f a2bd 404b 9b3d
00000290: 00f2 223d d6f1 f53d 4e9a a43d 367c b3bd
000002a0: 9425 ffbd 8e7b 1dbe 98b6 8d3d 2ad8 2ebe
000002b0: 9c13 12be 8cf8 d1bc 49f1 00be d4dc 28be
000002c0: 90cb 063d 0679 94bd aca4 7fbd 703e f03d
000002d0: ecdc 113d 16ea 543d 70b4 8b3d c0ee b9bd
000002e0: e00a 03be 5144 02be 0c87 0fbe c05b a1bc
000002f0: a878 81bc 02bd 02be eac8 1abd a67f 683c
00000300: 1d32 8c3e f834 ecbe 3531 f73e a280 45bf
00000310: b43f 2d3f 6038 443f f217 653f a473 523e
00000320: 1545 c33e ee58 363f 2672 c63e 565f 53be
00000330: ce40 7b3f 28da 053f fc8b 1cbf 6432 ca3e
00000340: 4405 bc3e 1203 1a3f 2010 553f c91d 1ebf
00000350: ae7d 2a3f ea38 80bc 988b 44bf c1fc 4e3f
00000360: 6249 843d 1c09 ae3f 635f ccbe a108 b03f
00000370: 3fa4 e53e 4a50 2ebe 8431 083f 0a58 213f
00000380: 76b8 c03e 6c15 d5be 41de 123f 018e 2abf
00000390: b066 6c3f b31d 333f 98cb 503f 0090 c33e
000003a0: 06fe ef3e 9c7e 3c3f 17f2 bf3d 9394 5abe
000003b0: ba79 7f3f 7e8d ed3e 1c91 febe 4391 853e
000003c0: aced 0f3f 7e2c 0f3f aa46 443f 7b6c 50bf
000003d0: ee41 323f da33 253d 5636 4abf b8bf 5b3f
000003e0: fc7c 04be f6a7 c03f f2ec 04bf a31c b93f
000003f0: ca64 f53e 32a7 c3be 2482 e83e 959f 1d3f
0.048662968 -0.13680014 -0.18566754 0.06047927 -0.13443539 -0.028147053 -0.09930681 -0.14095506
0.07023211 -0.05801648 -0.012521515 -0.050212145 0.025864288 0.06776141 -0.17144966 0.04514475
0.1030909 -0.11940628 -0.032569095 0.07211931 -0.04715395 0.1287728 -0.08944145 0.021836445
0.022458646 -0.009610981 -0.21075702 -0.10166618 -0.11383201 -0.18964693 0.024815615 -0.12886775
0.4299575 -0.58054143 0.43926868 -0.8180851 0.7390952 0.50942034 0.59568703 0.42740515
0.47585416 0.636075 0.09667704 -0.37498263 1.080653 0.5645673 -0.4598453 0.38905656
0.55291957 0.63459694 0.61092734 -0.74369955 0.4039877 0.0132432 -0.7869284 0.9968339
0.05343174 1.6151524 -0.63195026 1.6497276 0.6318017 -0.22795936 0.79816544 0.52086926
-1.2135456 -2.562877 -0.29707348 -1.1805477 -1.0558369 1.7311401 1.7876692 0.8407308
-2.439995 1.4179103 2.2408965 -0.47666544 2.0977747 -0.3705529 0.3768617 0.7682178
-2.223359 2.0025856 1.8190315 -1.9143538 1.1619275 1.9331956 0.7493247 -0.46809322
1.174628 -0.2831519 0.66199166 -1.9695439 1.4988704 -4.108596 -0.7725555 1.2702916
0.58247703 -0.52337056 0.81821 -0.82679737 0.65176797 0.55555296 0.5859573 0.18961987
0.50740373 0.88181174 0.3189581 -0.4852034 0.6885834 0.79094136 -0.43921348 0.3707801
0.60817826 0.6433538 0.50827456 -0.7084461 0.5203227 -0.46589345 -0.5450993 0.6240134
-0.33337152 1.2903569 -0.6792673 1.4269123 0.59058094 -0.3643099 0.43062788 0.3637607
0.46789473 -0.7064369 1.0706482 -0.6201551 0.7072953 0.7960013 0.58178455 0.35784286
0.53186786 0.6223883 0.3481239 -0.15742819 0.67154837 0.7910687 -0.5972339 0.48495916
0.5290799 0.4970447 0.5314727 -0.8938229 0.8447883 -0.25921926 -0.5959147 0.47764495
-0.27542943 1.3546889 -0.5898465 1.1955302 0.8249872 -0.04023382 0.72567135 0.6799033
0.0688345 -0.1456666 -0.079161584 0.07582712 0.03978157 0.12009017 0.08037244 -0.08763926
-0.12458339 -0.15379164 0.069195926 -0.17074648 -0.14265293 -0.025631212 -0.12592043 -0.16490489
0.032908976 -0.07249646 -0.062412903 0.11730659 0.03561108 0.051981054 0.06821525 -0.09078741
-0.12797117 -0.12721373 -0.1401636 -0.01969707 -0.015804604 -0.12767413 -0.037789263 0.01419059
0.27381983 -0.46134162 0.4827973 -0.77149403 0.6767533 0.7664852 0.8948966 0.20551926
0.38138643 0.71229446 0.38758963 -0.20641837 0.9814576 0.52286005 -0.611511 0.3949157
0.36722767 0.60160935 0.8322773 -0.617642 0.6659802 -0.015652139 -0.76775503 0.8085442
0.06459309 1.359653 -0.39916524 1.3752633 0.44851872 -0.17022815 0.53200555 0.6302496
0.37640733 -0.41617906 0.5737038 -0.6662293 0.9234419 0.6996719 0.8156066 0.381958
0.46873492 0.7363069 0.09372347 -0.21345739 0.99795115 0.46397012 -0.49720085 0.26087388
0.56222034 0.55927265 0.76670325 -0.8141553 0.6963185 0.040332653 -0.7898916 0.85839415
-0.12938303 1.5051258 -0.5192405 1.4461864 0.47928458 -0.38213497 0.4541179 0.6157163

layer2.bias f4 [32]
00000000: ae2e 8b3d 7424 a8be 3b98 c83e b708 07bf
00000010: 890c a5be 26ba 1cbb ac12 8cbe 88de afbe
00000020: fac6 4cbe f6f5 bcbd aa11 92be d0d8 93be
00000030: f408 b53f 6c72 cbbe 2a9c 03be 6611 a2be
00000040: a3ad 18be 8104 ee3f fece 1bbe 7c58 663f
00000050: 5c26 d3be f08a e03e 583e 3bbe 3818 1ebf
00000060: 3867 14be 349b 0940 91de ebbe d564 ebbe
00000070: ca7d 913f 725b 99be 48d1 16bf e21a fcbe
0.06796013 -0.32840312 0.39178643 -0.5274767 -0.32236126 -0.0023914664 -0.27357996 -0.34349465
-0.19997779 -0.09226601 -0.28529102 -0.28876352 1.4143357 -0.39735734 -0.1285254 -0.316539
-0.14909987 1.8595124 -0.1521568 0.89978766 -0.41240203 0.43856 -0.18285501 -0.61755705
-0.144925 2.1500978 -0.46068242 -0.45975366 1.1366513 -0.2995258 -0.5891309 -0.4923926

output.weight f4 [1, 32]
00000000: 74a5 f93c 50a6 7abf cc11 5e40 958e 9cbf
00000010: 4584 8ebf b479 123e 71bc 5bbf 5805 90bf
00000020: 3617 9fbf 287c a0bf 64fe 87bf 5044 8fbf
00000030: 4674 ca40 1c56 7abf 79dd 92bf b576 88bf
00000040: ea62 9bbf 3cc9 eb3f 4e3f 9bbf b11f 6340
00000050: 7082 89bf 222b 4440 e047 69bf 64d9 a4bf
00000060: b54b aebf f75f 4b40 e867 94bf 89ca 8cbf
00000070: 3fdc f940 9819 84bf 86b9 79bf f5d9 8bbf
0.030474402 -0.9791002 3.4698362 -1.2231013 -1.1134115 0.14304239 -0.85834414 -1.1251631
-1.2428958 -1.253789 -1.0624509 -1.1192722 6.3266935 -0.9778764 -1.1473838 -1.0661227
-1.2139561 1.8420787 -1.2128694 3.5488093 -1.0742931 3.0651326 -0.911253 -1.2878842
-1.3616854 3.1777322 -1.159421 -1.0999309 7.8081355 -1.032031 -0.9754871 -1.092589
