Models/DDPG_network/policy_network.pt (torch, 7119 bytes, 5 tensors)

layer1.weight f4 [32, 3]
00000000: 1021 c7bd 5f4e 57bf 7669 f0be 05a1 d2be
00000010: a4fa 12bf ad43 c8be ca0d 9abf 702a 44be
00000020: 7d17 543f 2f36 88be 7eed a13f b76d 983e
00000030: 8075 723f 44f9 82bf 15dc 713f e757 da3e
00000040: 3a65 263f 2b6f 243f bc62 1ebf 3ec2 6abe
00000050: 0701 953f 8332 be3e f0bb a2bf cb2c 9ebd
00000060: c4d7 9bbd c11d e83e e0e8 463f 67a5 28bf
00000070: 39d8 443f dff1 713e 290a a93f b409 553e
00000080: 53ad ca3d 67c6 c43d 7588 bbbd dc53 26bc
00000090: b4cd f03d 3611 9c3f cc90 9b3c ed1e 00bf
000000a0: 4c3b e33e c02f 2f3f 83e6 3d3f f718 0abf
000000b0: 3407 d6be 0952 433f e2e0 03bf f2e8 72be
000000c0: ac85 e63e 7dd0 433f 1c9d 473e 0188 d33e
000000d0: bc2b 00bf 4ec8 0fbf 5501 4cbf 61e3 3a3f
000000e0: 3a3f 6b3f 01f6 4abe f2ee b23f 929b e23e
000000f0: 879c 1cbf 3d72 2940 ad28 023f 6cf6 bb3e
00000100: 3f20 ea3e c678 c7be 9751 56bd 8018 363f
00000110: 8a5a 0d3f 32ba 7f3e 7ad0 89bf 4615 3dbf
00000120: fb5c 76bf 4efa 313f 8b80 9e3e d6ac 06bf
00000130: b2a9 dfbc 037c 38bf 15a2 2b3e 256d 8a3f
00000140: 76ef b03e 11a1 a8bf 4a46 ad3f bdd7 e03e
00000150: da16 c4bf 93ce 88bf bf04 d7bd bf5e 8fbe
00000160: 502a b43d 2a83 c6be 647f 3cbf 0e47 c13e
00000170: 5c2b 9fbe bc46 1a3f 7de4 b2be 4b03 1abf
-0.09723103 -0.8410396 -0.4695546 -0.41138473 -0.574137 -0.39114133 -1.2035458 -0.19156814
0.8284834 -0.2660384 1.2650602 0.29771206 0.9471054 -1.023232 0.94476444 0.4264519
0.6499821 0.6423213 -0.61869407 -0.2292566 1.1640939 0.37147912 -1.2713604 -0.07723387
-0.076095134 0.453352 0.7769909 -0.65877384 0.7689243 0.23627423 1.3206226 0.20804483
0.0989634 0.09608155 -0.091568865 -0.01015183 0.11757985 1.2192752 0.018989943 -0.5004719
0.44381177 0.68432236 0.7417986 -0.53944343 -0.4180237 0.7629705 -0.5151502 -0.23721674
0.4502386 0.7649 0.19493526 0.413147 -0.50066733 -0.56165016 -0.7968953 0.730032
0.9189335 -0.19820406 1.397917 0.44259316 -0.6117634 2.6475976 0.50843316 0.36711442
0.45727727 -0.3895933 -0.052323904 0.71131134 0.55216277 0.24973372 -1.0766747 -0.73860586
-0.96235627 0.6952256 0.30957446 -0.52607477 -0.027302597 -0.72064227 0.16761048 1.0814558
0.34557694 -1.3174154 1.3537076 0.43914595 -1.5319474 -1.0688041 -0.10498952 -0.28001973
0.08797133 -0.38771945 -0.7363188 0.37749523 -0.31087768 0.6026418 -0.34939948 -0.60161275

layer1.bias f4 [32]
00000000: 27dd 883e 71b1 49bf 1a5b 0b3f 0e15 fe3e
00000010: 36b6 9c3e 3d35 13be d811 0f3f 1168 5f3f
00000020: d217 04be aab4 d03e 9893 2dbe 5f68 553f
00000030: d134 dd3e 1ef9 173e af19 283f f8e7 e5be
00000040: 6240 593f 5917 e7bc 84f4 453e aa12 4c3e
00000050: d715 90be 572c f4bd 9be0 a43e 9889 6d3f
00000060: 0743 e1be faa2 3f3f 688c 543e 6a14 423f
00000070: b976 883f 93ad 74bf 7457 1c3f 1c4c 723f
0.26731226 -0.7878638 0.54435885 0.49625438 0.30607766 -0.14375778 0.558866 0.8726817
-0.12899712 0.40762836 -0.16950834 0.8336238 0.43204358 0.14841124 0.6566419 -0.4490354
0.84863865 -0.028209375 0.19331557 0.19928995 -0.28141662 -0.1192252 0.3220261 0.92788076
-0.4399645 0.7485806 0.20756686 0.758124 1.0661231 -0.95577353 0.6107094 0.94647384

layer2.weight f4 [32, 32]
00000000: a66c 193e bc05 973e 2723 b53d 206a bdbc
00000010: 5a50 fc3d fda2 50be e039 1f3d 182e f43c
00000020: 6fcb 87be 54f3 d03e 804e 8bbd 8066 573e
00000030: 6195 a53e 25e5 2f3e 55a7 20be fe20 683f
00000040: 486c aa3e 2ac0 6d3d 8ad8 e73d 774b 413e
00000050: 1b85 463f 6b4c 883e 3cc2 903e 0a63 253e
00000060: cd3f 43bf 6bb7 c7bd 2ff1 b3be cffe 603e
00000070: 06b0 513e ce66 083e 6a36 133e 6cce 7dbe
00000080: 988f 953c b8e7 e93e a41e 673e 950b ae3e
00000090: 9cde 1cbe c428 9cbe d168 023e c406 3cbe
000000a0: cde8 f3bd b123 693e d6ba cfbe e4b3 203e
000000b0: cd28 683e 1394 153d 4303 00be 9343 343f
000000c0: 8d6c 323e 613b 2a3e f30b 643e e204 563e
000000d0: 60f6 683f 0673 733e 600e 9a3e bd46 d4bc
000000e0: fe99 50bf b4e0 1b3e 6ea5 2fbe 60a3 313e
000000f0: ec9e b03e 9570 ca3e 436a 4a3d 775e 37be
00000100: 3156 61bd e716 49be 91ee 25be 2ecb cc3d
00000110: 0a83 323d 8b91 4f3e 790c 943d dcdd 8bbc
00000120: ca2f 3e3e 3705 84bd d5be b7bc 63b3 b7bc
00000130: 9f6b 52be e06a cb3c b445 373e 42b6 0dbf
00000140: a2a3 efbd 5e1a b8bd 630d a13c 01f4 62be
00000150: ce35 18bf e8cd cdbc 9712 00be 249c 9dbc
00000160: cb6b 7c3f 89f5 7c3d 38e4 b23e 1236 083e
00000170: 47c0 493d 020c a2be 7a6d 0d3e aaf8 953e
00000180: 3034 783e 3947 8fbe cff7 283e 8260 2c3e
00000190: 5a94 833e ce57 bc3e 89ab 4c3c 9cba 1b3e
000001a0: de9f 933d 3428 77be b3ae 573e 7ccd 7cbd
000001b0: fb0e b1be 67dc ec3d ca9c 583e 1722 f9be
000001c0: e0ad 183e 7e2e 1dbe 3209 f93d 4f70 a9be
000001d0: 598b f7be 428c 44be 76bf bbbe 7406 24bc
000001e0: 7adf 5a3f db86 f9bd 8729 873e b60c d1be
000001f0: b1ed 36be 510f f0bd 015c 053d 3d12 c73e
00000200: a95b 103e 1f79 c6be 529f 5c3e be0d 813e
00000210: 6e89 54bf d960 133d 4294 5abe 0dff fd3e
00000220: 79f7 b3be 736e db3d d9ac dd3e 46dd 9b3e
00000230: 48f9 96bf e967 8c3d 2625 083e e90d c0be
00000240: 78c8 1fbf 219b c7bd c811 0ebe 2080 00c0
00000250: b7fd afbf 9aac 963d 9df1 19c0 28da ff3d
00000260: 6358 d5bf e45e 8bbd 998c a1bf 2752 62be
00000270: fdbe c53e 16db e4be 36b7 2fbe d518 d6bd
00000280: 4fd5 aa3c c597 df3e 2048 803d aa9f a3be
00000290: 7e16 093e ae45 c1be 01d7 9d3e 3bf8 963d
000002a0: ac93 b6bd d491 f03e 828c 5a3e 9e01 613e
000002b0: 2ded 833e 27f9 003e d9d0 95bd a2a4 5f3f
000002c0: 54ed d03d b957 a73e 265b 343e fdcb f13d
000002d0: 3c34 1b3f dec7 4c3e b5f2 9b3e f85e cc3d
000002e0: a409 75bf 7e87 893d b726 01bf da15 0bbe
000002f0: 6500 a73e 9388 803e 624e 59bd bd72 933c
00000300: 6e52 103d ea65 a93d 0136 3d3e 5d5b 9cbd
00000310: 4492 5d3e aa24 e13d d5b1 213e d1ab 803c
00000320: 0397 b73e adce 7cbe 13a2 723c 3bfd 77bd
00000330: c934 96bb efd4 033e e366 2a3e 7f50 15bf
00000340: ee71 3d3d 7a2d b6bd 3e56 89bc d14a d5be
00000350: 4f79 58bf 1a27 20be 0d96 20be 1178 d23d
00000360: 8ae6 ba3e d06d 453d 3b9c 353f 1500 1ebf
00000370: b635 603d 679a 8ebe 05a0 e03d 890e b23e
00000380: c0bb 3c3c 2a6d 0bbe e265 6e3e a075 aa3f
00000390: 025c 8dbf b387 7cbf 2d86 0cbe 2326 013f
000003a0: 4f92 35bf 92fc c23e aea8 16be f19b 803e
000003b0: 635f dabd eb1b e7be e01f bc3e 2065 1cbf
000003c0: 62cb 44be 24a5 98bd 5d9d 8cbe 1f65 14c0
000003d0: 3b4e a2bf fab4 f83c 2965 09c0 3f89 3a3e
000003e0: cbc6 0ebf a804 863d e9b5 973f 1da0 b53e
000003f0: 0b89 d73e 56d4 75be 7042 a43e be07 273e
0.14982852 0.29496562 0.088445954 -0.023121893 0.12320013 -0.20374675 0.038873553 0.029807135
-0.26522395 0.40810645 -0.06802082 0.21035194 0.3234053 0.17177255 -0.15688832 0.9067534
0.33285737 0.05804459 0.113205984 0.18876444 0.7754685 0.26620802 0.2827319 0.16151062
-0.7626923 -0.09751781 -0.35144946 0.21972202 0.20477304 0.13320467 0.14376226 -0.24785775
0.018256947 0.456846 0.22570282 0.3399321 -0.15319294 -0.30499852 0.12735297 -0.18361956
-0.119096376 0.22767521 -0.40572232 0.15693623 0.22671814 0.036518168 -0.12501244 0.7041561
0.17424221 0.16624214 0.22270183 0.209003 0.9100094 0.23774347 0.30089092 -0.025912637
-0.81484973 0.15222436 -0.1715295 0.17347479 0.34496248 0.39539018 0.049417745 -0.17907129
-0.05501384 -0.19637643 -0.16204287 0.09999691 0.043582 0.20270364 0.072289415 -0.017073564
0.18572918 -0.06446307 -0.022429863 -0.022424405 -0.20548867 0.024831235 0.17897683 -0.5535623
-0.11701132 -0.08989404 0.019659704 -0.22163393 -0.594571 -0.025122598 -0.12507091 -0.019239493
0.9860198 0.061757598 0.34939742 0.13301876 0.049255636 -0.31649786 0.13811293 0.29291278
0.24238658 -0.27984026 0.16500781 0.1683369 0.2569912 0.3678574 0.012492069 0.15207905
0.072082266 -0.2413643 0.21062736 -0.061719403 -0.34581742 0.11565476 0.2115356 -0.4865882
0.14910078 -0.15349767 0.12159957 -0.33093497 -0.483485 -0.19194129 -0.3666951 -0.010011304
0.8549725 -0.12183925 0.2639887 -0.4083001 -0.1786411 -0.117216714 0.032558445 0.38881102
0.14097466 -0.38764283 0.21545151 0.25205797 -0.830222 0.035981033 -0.21345618 0.4960865
-0.35149744 0.10714426 0.43295935 0.30442256 -1.1794825 0.06855757 0.13295421 -0.37510613
-0.62415266 -0.09746385 -0.1387397 -2.0078201 -1.3749303 0.0735714 -2.405372 0.12492782
-1.6667598 -0.06805208 -1.2621032 -0.22101651 0.38622275 -0.446984 -0.17159733 -0.10453955
0.020853667 0.43670478 0.06263757 -0.31957752 0.13387486 -0.37748474 0.30828097 0.07371565
-0.08914885 0.46986258 0.21342662 0.21973273 0.25766888 0.12595044 -0.07315225 0.87360585
0.10201517 0.32684115 0.17612895 0.11806486 0.6062658 0.19998118 0.30458608 0.09979051
-0.95717835 0.06715296 -0.504497 -0.13582554 0.32617489 0.25104198 -0.053053267 0.017999047
0.03523486 0.08271392 0.18477632 -0.07634614 0.21637827 0.10993321 0.15790494 0.015706928
0.358574 -0.24688216 0.014809149 -0.060544234 -0.004583929 0.12874196 0.1664081 -0.5832595
0.04625123 -0.08895393 -0.016764756 -0.41658643 -0.845601 -0.15639916 -0.1568224 0.10276807
0.36504012 0.04820043 0.70941514 -0.61718875 0.054738723 -0.27852175 0.10968021 0.34776714
0.011519372 -0.13615862 0.23281053 1.3317146 -1.1043704 -0.9864456 -0.13723059 0.50448817
-0.70926374 0.3808332 -0.14712784 0.25118974 -0.10662725 -0.45138487 0.3674307 -0.61091805
-0.1921821 -0.07453373 -0.2746381 -2.318672 -1.2680124 0.030359734 -2.1467993 0.18216418
-0.55772084 0.06543857 1.185239 0.3547372 0.42096743 -0.24006781 0.32081938 0.16311547

layer2.bias f4 [32]
00000000: 6566 05bd 6c8c d13d f97e 13bd 3af6 023e
00000010: f43e 2c3e f4f5 15bd 27d8 7c3e 87a3 003f
00000020: 88ce 7b3c c2f0 be3d e49d 993e 98ec 193e
00000030: 6f03 a9bc 5e74 bd3e e202 3e3e 3c4d db3e
00000040: cb93 ae3e 0da6 eabe d2c6 1a3e 7d61 283e
00000050: 0885 cd3d 6b65 f0bc eae4 483e e68a 863e
00000060: 7f88 33be da19 a73d de8f 5a3e be0a 163e
00000070: 5f9a fabd 5ef7 1ebe 6076 07bc 314e 463e
-0.032568354 0.102318615 -0.036009762 0.1278924 0.1682089 -0.036611512 0.2469183 0.5024952
0.015369065 0.09323265 0.30003273 0.1503166 -0.02063152 0.37002844 0.18555787 0.42832363
0.34097132 -0.45829812 0.15114906 0.16443439 0.10035139 -0.029345235 0.19618574 0.26277846
-0.17532538 0.08159228 0.21343943 0.14652535 -0.12236475 -0.1552405 -0.008267969 0.19365765

output.weight f4 [1, 32]
00000000: 2007 f83e 0c3d 073f ce69 29bf b3cb 01bf
00000010: fec9 02c0 282b c53e b525 1abf 7a4a 9cbf
00000020: 5870 35bf b4a3 ecbe fd39 813f 268c e93e
00000030: b74d 02bf b1a5 39bf 343d 533f 7dc7 adbf
00000040: 056c 34bf 7127 15c0 30af f6be 9177 ba3e
00000050: 657c 403f a859 30bf f784 18bf e891 86bf
00000060: d817 3f3f 1d7e 2bbf f1e7 1fbf 2f9e 1a3f
00000070: 9d94 213e d350 273f 0563 653f ac70 a4be
0.48442936 0.52827525 -0.6617707 -0.50701445 -2.0435786 0.38509488 -0.60213786 -1.2210228
-0.7087455 -0.46218646 1.0095822 0.45614737 -0.50899833 -0.7251845 0.82515264 -1.3576504
-0.70477325 -2.3305323 -0.48180532 0.36419347 0.7518981 -0.68886805 -0.5957789 -1.0513277
0.7464576 -0.6698931 -0.6246329 0.6039762 0.15779348 0.653577 0.89604217 -0.32117212
