Models/DDPG_network/policy_network.pt (torch, 7119 bytes, 5 tensors)

layer1.weight f4 [32, 3]
-0.5469499 -1.3840003 -0.25169697 0.6344915 -0.17992832 -0.313979 0.14302687 0.731072
0.7382115 -0.52593684 -0.8532421 0.36993116 -0.81949186 -0.77370024 -0.35192505 2.0810862
-0.13195682 -0.32441056 -0.09799799 0.70123583 0.26085082 -0.9751999 0.8473084 -0.6615725
-0.032243516 0.43004897 0.84828824 -0.92248166 -0.03597165 -0.44668046 -0.7778733 1.471401
0.35024625 0.7817221 -0.16137494 -0.23766614 0.80284065 -0.9806462 -0.58427435 0.74407804
0.29982767 -0.30113596 0.17350766 1.3944812 0.8902521 -0.90973634 -0.4659617 -0.9495255
-0.8308565 -0.6485046 -0.44430473 -1.0128254 -0.9728429 0.12929545 -0.8029462 -1.2036556
-0.42997053 -0.67217076 1.741055 -0.15485825 0.76909703 -0.27001634 0.5377455 -0.8574255
1.0681072 0.777054 -0.08232055 0.96405035 0.02859114 -0.22021492 -0.04608662 0.41954798
0.14977056 -1.5648061 -0.29148102 -1.2371464 -0.3608876 0.54701436 -1.1331406 0.4579764
-1.1230983 -0.41576356 1.5990938 -0.603137 -0.26597622 1.4154004 0.17970154 0.038325958
0.5414177 0.78429264 -0.17999011 0.88487595 0.1622153 -0.89570266 1.0312059 0.063462414
00000000: e904 0cbf ec26 b1bf 6dde 80be 096e 223f
00000010: 213f 38be dbc1 a0be a375 123e 8927 3b3f
00000020: 6efb 3c3f cca3 06bf 136e 5abf 9e67 bd3e
00000030: 38ca 51bf 3811 46bf 852f b4be 8430 0540
00000040: b01f 07be 2419 a6be 2cb3 c8bd 3184 333f
00000050: 3d8e 853e b3a6 79bf 34e9 583f d15c 29bf
00000060: c711 04bd 612f dc3e 6b29 593f c227 6cbf
00000070: 0257 13bd 4db3 e4be b422 47bf de56 bc3f
00000080: 7a53 b33e f11e 483f 793f 25be c15e 73be
00000090: f786 4d3f a10b 7bbf 0193 15bf e67b 3e3f
000000a0: 0383 993e 7e2e 9abe feab 313e 5c7e b23f
000000b0: 90e7 633f 7be4 68bf 8892 eebe 1a14 73bf
000000c0: 03b3 54bf 6604 26bf e97b e3be 43a4 81bf
000000d0: 3b0c 79bf 0766 043e e28d 4dbf 6311 9abf
000000e0: 1925 dcbe 6213 2cbf e4da de3f 2993 1ebe
000000f0: 8be3 443f 953f 8abe b0a9 093f 3d80 5bbf
00000100: bdb7 883f 03ed 463f ad97 a8bd 01cc 763f
00000110: f737 ea3c 0580 61be 53c5 3cbd fece d63e
00000120: 745d 193e 914b c8bf 003d 95be d05a 9ebf
00000130: 42c6 b8be 2209 0c3f c00a 91bf e27b ea3e
00000140: afc1 8fbf f6de d4be 1baf cc3f 3067 1abf
00000150: 092e 88be d72b b53f ae03 383e aefb 1c3d
00000160: 5a9a 0a3f 67c7 483f 544f 38be 3b87 623f
00000170: c51b 263e c54c 65bf 8efe 833f 95f8 813d

layer1.bias f4 [32]
0.89960164 -0.52187395 0.65207165 0.8374209 0.2200364 0.45541915 0.6257089 -0.27891967
0.27904552 0.5132455 -0.2158596 1.1732831 -0.25174257 0.45825112 0.43425167 -0.1591588
-0.07935266 0.93708843 0.019797008 0.37000573 0.81899965 0.5567592 -0.26316118 -0.38174036
0.55048895 0.25277713 0.259747 -0.2621042 0.43488872 0.4865247 -0.42527094 0.16110441
00000000: 4b4c 663f 8899 05bf 2bee 263f 3761 563f
00000010: 3951 613e b32c e93e 752e 203f 8fce 8ebe
00000020: 0edf 8e3e 0f64 033f 4d0a 5dbe 242e 963f
00000030: 67e4 80be e49f ea3e 3c56 de3e 86fa 22be
00000040: a683 a2bd 07e5 6f3f 562d a23c 6471 bd3e
00000050: f6a9 513f c587 0e3f 10bd 86be 7973 c3be
00000060: d8ec 0c3f 016c 813e 8ffd 843e 8632 86be
00000070: bca9 de3e c419 f93e 1dbd d9be 8ef8 243e

layer2.weight f4 [32, 32]
0.3209574 -0.8170657 -1.2892592 0.6350527 0.28600562 -0.19820052 0.6740349 -0.026157299
-1.3834717 0.22451948 -0.64703023 0.14332074 0.035788786 -0.10036251 -1.4655126 0.011410807
0.20265028 0.5097009 0.4072283 0.15286234 -0.21947354 -0.35591292 -0.6858346 -0.005462149
0.14543824 0.20995517 0.19697794 -0.16162218 0.29799765 -0.89785975 -1.5483986 0.33297214
0.050203096 -0.09457361 -0.043295868 -0.059768718 -0.17928818 -0.09145976 0.04041507 0.054582532
-0.10554152 -0.15319343 -0.03477572 0.05521137 -0.25267926 -0.19758353 -0.06792794 0.14522369
0.056705732 0.020238984 0.03216152 -0.16225177 -0.12971361 -0.24985142 -0.10727736 -0.13003592
-0.103751525 -0.14899711 0.010805781 0.1570531 -0.13361727 -0.053723134 0.04275553 0.049175274
-0.13119829 -0.74326545 -0.20204005 -0.893263 0.21776533 0.09065304 0.36385107 0.100365125
-0.5678715 0.015824873 -0.23933256 0.27111402 -0.02664769 0.18626489 -0.09188852 0.17078084
0.17513636 0.28013077 0.16605477 0.0694532 -0.17746253 -0.46807787 0.46726596 -0.14934582
-0.49666634 -0.6466829 -0.13174252 0.1949063 0.058033016 -0.20668754 -0.18188952 0.016589977
0.32282767 0.65991706 0.2576347 -0.21957238 0.078632824 0.07470402 -0.11393545 0.42869657
-0.08273538 0.33033037 0.50601304 0.045105554 0.0027385089 0.17118838 0.39348617 0.2166876
-0.027781125 0.021804726 0.08914019 0.26643616 -0.054774232 0.1873896 -0.50829595 -0.2833921
0.2150928 0.11018144 0.22944036 0.16206348 0.45026073 0.27058467 0.077957734 0.045283753
0.041244578 0.64131755 0.20004435 -0.2954149 -0.07061005 -0.054865252 0.0030233562 0.2761589
-0.12338669 0.23208039 0.18108797 -0.07342272 0.08179442 -0.011022262 0.17482653 0.4115921
0.01954291 0.12345994 0.05838613 0.1313653 -0.08649469 0.32021585 -0.2713757 -0.19644523
0.06641325 0.24678928 0.11230827 0.30090818 0.27539167 0.10494692 0.04160118 0.22510964
0.3505309 0.683993 0.27975264 0.02806567 -0.16712265 -0.03206952 0.04926458 0.24853359
0.0023958334 0.27921957 0.4200502 -0.052286092 0.032213207 -0.15692028 0.14825457 0.35872096
0.05297148 0.16491035 -0.024511546 0.29812267 -0.06280576 0.32843143 -0.33659193 -0.040150244
0.1903328 -0.0130425505 0.16293697 0.24485981 0.30692053 0.22994323 0.056434765 0.06880638
0.3894685 0.72544295 0.10304721 -0.018098786 0.054732632 -0.10048546 -0.1495733 0.26045635
-0.12992716 0.52216756 0.4721148 -0.072589196 -0.0642398 0.12546165 0.24747172 0.10209694
-0.114966996 0.15899388 -0.024771862 0.21636598 0.110245116 0.10468321 -0.35791266 -0.10073829
0.063420564 0.16376409 0.14590906 0.24650647 0.4153076 0.23871449 0.15581498 0.22978853
0.38013566 -0.5898452 -2.0499344 0.22826478 0.19770843 -0.25852972 -0.32898036 -0.31208146
-1.709615 -0.013913338 -1.2931049 0.05638741 0.09260594 -0.05470686 -1.7658846 -0.07785702
0.33365548 0.5559299 0.39641297 -0.29242328 -0.48272887 -0.41203472 -0.68700594 0.14239399
0.29268453 0.13628702 -0.12473462 -0.4576709 -0.7016392 -1.3680238 -1.6579332 0.25581908
00000000: 8754 a43e 382b 51bf 7206 a5bf d092 223f
00000010: 546f 923e 14f5 4abe 8d8d 2c3f d547 d6bc
00000020: 9a15 b1bf 6fe8 653e c6a3 25bf acc2 123e
00000030: 4397 123d dc8a cdbd eb95 bbbf 65f4 3a3c
00000040: 8e83 4f3e c27b 023f 3a80 d03e f287 1c3e
00000050: acbd 60be 383a b6be db92 2fbf d4fb b2bb
00000060: c3ed 143e 7dfe 563e 96b4 493e 4980 25be
00000070: 2693 983e 23da 65bf ed31 c6bf 537b aa3e
00000080: c3a1 4d3d cfaf c1bd 0257 31bd 0bd0 74bd
00000090: 5297 37be 414f bbbd 468a 253d ef91 5f3d
000000a0: 2726 d8bd bdde 1cbe fc70 0ebd 5125 623d
000000b0: 2d5f 81be 5653 4abe ce1d 8bbd 85b5 143e
000000c0: 4544 683d 3acc a53c ccbb 033d 5425 26be
000000d0: a5d3 04be 0dd9 7fbe 3cb4 dbbd 2328 05be
000000e0: ae7b d4bd b392 18be bb0a 313c 87d2 203e
000000f0: f7d2 08be ca0c 5cbd 6c20 2f3d 036c 493d
00000100: d858 06be a546 3ebf 96e3 4ebe e2ac 64bf
00000110: e0fd 5e3e 4da8 b93d b04a ba3e 3b8c cd3d
00000120: 0760 11bf 2aa3 813c 9813 75be 75cf 8a3e
00000130: 424c dabc 39bc 3e3e 0c30 bcbd 2ce1 2e3e
00000140: f256 333e 4d6d 8f3e 430a 2a3e 7b3d 8e3d
00000150: bdb8 35be e7a7 efbe 7c3d ef3e 1cee 18be
00000160: 0d4b febe 038d 25bf 83e7 06be 8495 473e
00000170: 07b4 6d3d e6a5 53be 3f41 3abe b4e7 873c
00000180: ab49 a53e 53f0 283f b2e8 833e 95d7 60be
00000190: 3f0a a13d 6cfe 983d fd56 e9bd 1e7e db3e
000001a0: 2b71 a9bd 1021 a93e 128a 013f 9ac0 383d
000001b0: 8e78 333b 024c 2f3e 0577 c93e 5be3 5d3e
000001c0: 3e95 e3bc d39f b23c 228f b63d 526a 883e
000001d0: f25a 60bd 0fe3 3f3e af1f 02bf c518 91be
000001e0: 4941 5c3e cfa6 e13d 6af2 6a3e f8f3 253e
000001f0: 9388 e63e 138a 8a3e 4ea8 9f3d 757b 393d
00000200: 13f0 283d 632d 243f 6dd8 4c3e 9f40 97be
00000210: 009c 90bd 63ba 60bd 8023 463b b364 8d3e
00000220: 29b2 fcbd 7ba6 6d3e 206f 393e a75e 96bd
00000230: d583 a73d b896 34bc ba05 333e 33bc d23e
00000240: 7418 a03c 91d8 fc3d 4b26 6f3d a084 063e
00000250: 2124 b1bd 55f3 a33e c1f1 8abe f028 49be
00000260: ac03 883d 54b6 7c3e e101 e63d a310 9a3e
00000270: 2300 8d3e 69ee d63d 0066 2a3d 2483 663e
00000280: c978 b33e 2a1a 2f3f bd3b 8f3e fae9 e53c
00000290: 3322 2bbe 545b 03bd a8c9 493d 977f 7e3e
000002a0: 6a03 1d3b def5 8e3e d210 d73e f129 56bd
000002b0: fff1 033d b6af 20be 0cd0 173e 46aa b73e
000002c0: 9ff8 583d 42de 283e 70cc c8bc 89a3 983e
000002d0: 4ea0 80bd 2a28 a83e c755 acbe 9574 24bd
000002e0: 9ae6 423e 6cb0 55bc f3d8 263e 88bc 7a3e
000002f0: b024 9d3e 3d76 6b3e 2428 673d 5cea 8c3d
00000300: 6a68 c73e a1b6 393f 6a0a d33d e843 94bc
00000310: 532f 603d 52cb cdbd be29 19be 895a 853e
00000320: a00b 05be c6ac 053f 08b9 f13e a5a9 94bd
00000330: 2890 83bd 0579 003e 3a69 7d3e 3318 d13d
00000340: d173 ebbd 4bcf 223e 5cee cabc 0b8f 5d3e
00000350: 31c8 e13d 2764 d63d 5440 b7be e04f cebd
00000360: a4e2 813d c6b1 273e 2f69 153e 316c 7c3e
00000370: 33a3 d43e 9271 743e f68d 1f3e af4d 6b3e
00000380: 24a1 c23e 1800 17bf 2032 03c0 3ebe 693e
00000390: 1474 4a3e 025e 84be 1d70 a8be 24c9 9fbe
000003a0: aad4 dabf c5f4 63bc 7684 a5bf 7cf6 663d
000003b0: 2fa8 bd3d 4d14 60bd 8208 e2bf 8073 9fbd
000003c0: e4d4 aa3e 6c51 0e3f a4f6 ca3e 81b8 95be
000003d0: 3d28 f7be 37f6 d2be 9fdf 2fbf bbcf 113e
000003e0: bfda 953e d38e 0b3e dd74 ffbd d753 eabe
000003f0: a09e 33bf 671b afbf 2837 d4bf b8fa 823e

layer2.bias f4 [32]
0.45727256 -0.08677104 0.106878184 0.09837355 0.19328563 -0.005560145 0.20125014 0.063006416
-0.0060989517 -0.014191761 0.17124686 0.0065796943 0.11774836 0.2659836 0.19778088 0.5127504
-0.07307597 0.27502874 0.5562478 -0.044174343 0.055838954 -0.0007912785 0.074601896 0.0144257685
0.0759446 -0.23483615 0.08235427 -0.12435457 0.32428268 -0.052774224 0.33916083 0.051117048
00000000: a11f ea3e 04b5 b1bd f3e2 da3d 1278 c93d
00000010: abec 453e e031 b6bb 8414 4e3e 8209 813d
00000020: b7d9 c7bb 8f84 68bc 565b 2f3e 7a9a d73b
00000030: 0d26 f13d 012f 883e 1287 4a3e 9c43 033f
00000040: dba8 95bd 91d0 8c3e 4166 0e3f 28f0 34bd
00000050: 63b7 643d cd6d 4fba e1c8 983d 0f5a 6c3c
00000060: d888 9b3d e378 70be 5ba9 a83d 9cad febd
00000070: 6108 a63e c929 58bd 7da6 ad3e 1c60 513d

output.weight f4 [1, 32]
-1.1722597 0.30439574 -1.1673332 0.38203806 0.29006875 0.31175724 0.40715113 -1.1697837
0.15919222 2.4230726 0.6892667 0.6931199 -0.5412497 1.0606235 -0.68549603 1.6461554
-0.06680345 0.45244133 1.3874176 -0.10328687 -1.1332402 0.3381384 -0.72437155 -0.7047206
-0.6361613 -0.424936 -0.61170757 -0.09111053 -0.74848306 -0.8706509 -0.84686154 -0.65610987
00000000: 9b0c 96bf c2d9 9b3e 2d6b 95bf 7e9a c33e
00000010: e483 943e a59e 9f3e 1d76 d03e 79bb 95bf
00000020: 4903 233e 9f13 1b40 c873 303f 4e70 313f
00000030: 578f 0abf 83c2 873f ab7c 2fbf 38b5 d23f
00000040: 3fd0 88bd 64a6 e73e e696 b13f 1188 d3bd
00000050: 040e 91bf 7a20 ad3e 6a70 39bf 9268 34bf
00000060: 78db 22bf 3691 d9be de98 1cbf 2898 babd
00000070: 969c 3fbf fae2 5ebf ebcb 58bf d1f6 27bf
