Models/target_network/tau_0.1/policy_network.pt (torch, 7119 bytes, 5 tensors)

layer1.weight f4 [32, 3]
000000 28 ca 60 bd ac ed 68 bf 84 3c 90 3e 08 f5 7e 3e
       -0.05488029 -0.9098766 0.2817117 0.2489816
000010 c0 59 89 bf 3f 2a a5 bd 1d 02 91 bf 8c 34 27 3e
       -1.0730515 -0.080646984 -1.132877 0.16328639
000020 b6 71 4f 3e 84 45 fb bd a5 9f b0 3f 93 09 9f 3d
       0.20258221 -0.122691184 1.379872 0.07765498
000030 37 91 0b 3f 9d f9 b7 3f 7d 92 02 3f f8 e9 fe 3c
       0.54518455 1.4373051 0.51004773 0.031117424
000040 f2 c8 08 c0 cb 73 b0 be ef 15 8b bf 59 9b 0b bf
       -2.1372647 -0.34463343 -1.0866069 -0.54533917
000050 ea 49 86 3d 74 e6 db 3e a6 16 1b bf 41 42 01 bf
       0.06557067 0.4294926 -0.60581434 -0.5049172
000060 b1 d6 9b 3e cf cd f2 bf 66 0f 72 be 00 c8 34 bf
       0.30437234 -1.8969058 -0.23638687 -0.70617676
000070 b0 68 c9 bd 9f 62 d1 3e 37 71 29 3f fe a6 09 40
       -0.09834421 0.40895554 0.6618838 2.1508174
000080 44 08 f1 3e 03 63 27 bf bd ae a0 3b 15 24 42 bf
       0.4707662 -0.65385455 0.004903643 -0.75836307
000090 69 ba 61 bd 56 27 0e 40 c3 98 e7 3e 4b f7 c9 be
       -0.055109415 2.2211509 0.45233735 -0.39446482
0000a0 f3 fa a9 bf e4 06 61 3e 03 e3 70 bf 47 72 92 be
       -1.3279709 0.21975285 -0.9409639 -0.28602812
0000b0 31 8a 1c 3f fb 12 9a 3f f9 56 59 3f 1c b8 80 3d
       0.61148363 1.2037042 0.84898335 0.06285116
0000c0 d7 79 17 3e 2b fd 8b bf c2 53 87 bf d8 1d 79 be
       0.14792572 -1.0936636 -1.0572436 -0.2432779
0000d0 a0 0b e9 3f 55 5e f2 3d 68 2b 0f c0 88 ec 60 bf
       1.8206673 0.11834399 -2.2370243 -0.8786092
0000e0 73 a9 1c 3f 80 11 37 3f 5a f2 0d 3f 04 7b 5c bd
       0.6119606 0.7151108 0.55447924 -0.053828254
0000f0 32 0f 64 3f 22 d0 90 3e 0a 0a 07 bf 3d 7e fd be
       0.89085686 0.28283793 -0.52749693 -0.49510375
000100 6b 18 cc be 37 e0 91 bf 2c b5 12 be a3 68 83 3f
       -0.3986238 -1.139655 -0.14326924 1.0266308
000110 15 75 09 3e a7 c4 15 bf 1d 7e 56 3f 08 1e 38 be
       0.1342357 -0.5850319 0.83786184 -0.17980206
000120 68 9e a8 bf 6b 58 08 3f f0 b2 41 3e bf de 9a bd
       -1.3173342 0.53259915 0.18915915 -0.07562017
000130 3a f9 38 3f 63 af 07 3f e5 a2 fc bc e5 78 7c 3f
       0.7225529 0.53001994 -0.030839393 0.9862197
000140 e6 48 06 bf 4f b6 8d 3f aa 57 64 be 13 93 64 3e
       -0.52454984 1.1071261 -0.22299066 0.2232173
000150 ff fc fd bd 69 e3 4c bd 1f a7 81 3f 56 23 6b bf
       -0.12401771 -0.050021563 1.0129126 -0.91850793
000160 a1 97 c0 3d eb 87 c3 be e1 d5 e5 3d 9b 16 1e bf
       0.09403921 -0.38189635 0.11222435 -0.61753243
000170 5f 68 5a be c2 de 66 3e a7 a4 c5 3e 9d cc 4e 3f
       -0.21328877 0.22545913 0.38602182 0.80780965

layer1.bias f4 [32]
000000 18 39 05 3f 4c 19 4c 3f 29 b0 26 be 73 b7 f1 be
       0.52040243 0.797261 -0.16278137 -0.47210273
000010 c7 be 17 3e 7b bc c0 3e 00 ec 29 3f ab 97 50 3e
       0.1481887 0.376438 0.6637573 0.20370357
000020 56 d4 48 3f 4a dd 4e 3f 74 dd 89 3e 91 8a 88 3f
       0.78449 0.8080641 0.26926768 1.0667287
000030 77 73 38 3f ae 4e 69 3f 7e 51 cc be cf 92 2c 3e
       0.72051185 0.9113568 -0.39905924 0.16852878
000040 53 92 60 3f 6f 49 01 bf 36 08 e2 3e d6 14 0a bf
       0.87723273 -0.50502676 0.4414689 -0.53938043
000050 1e 21 d3 bd 9d ec 56 3e 56 c0 4a be 78 3d 0a 3e
       -0.10309051 0.20988698 -0.19799933 0.13500011
000060 66 f3 6a 3f f2 2c 2d bf 04 4b 70 3e c8 e6 bd 3e
       0.91777647 -0.67646706 0.23466116 0.37090135
000070 0e 11 ba be 66 59 db be 32 02 1c bf 95 bf d9 3e
       -0.36341137 -0.42841643 -0.6094085 0.42528978

layer2.weight f4 [32, 32]
000000 af d9 90 3c 57 8d 8f be 52 5b f7 bd 16 88 78 be
       0.017681925 -0.2803752 -0.12077965 -0.24270663
000010 53 4d 22 3e 59 e8 b8 bd 6e df 37 be 4c a5 b5 bd
       0.1584981 -0.09028692 -0.17956325 -0.088694185
000020 fe 6f 06 be 73 a8 89 bd 2e e6 f0 3e 27 4a 02 3e
       -0.13128659 -0.06721582 0.47050613 0.127236
000030 ea 3e 5b 3e 78 6d 11 3c a2 09 dc bd f0 d9 2f be
       0.21410719 0.008876197 -0.10744025 -0.1717298
000040 56 94 ad 3e d5 24 c6 bd c7 bf 4e 3d c4 71 c0 3e
       0.33902234 -0.09674994 0.050475862 0.37586796
000050 cd bd dc 3d 0d 8b 4a 3d 54 bf a5 be 24 e2 a6 3e
       0.10778389 0.049449015 -0.32372534 0.32594407
000060 b3 f0 e1 bc 56 e8 20 3e 3c 0c 00 3e 67 37 cd 3e
       -0.027580595 0.15713629 0.12504667 0.4008133
000070 c4 cf 8c 3d ec 54 df 3d 57 7e 1e bf 4c f7 d6 3c
       0.06875566 0.109048694 -0.6191153 0.026240967
000080 58 ac 51 bd f4 bb 20 be 9c 07 44 3d ac bc 83 bd
       -0.05118975 -0.15696698 0.04785882 -0.06432471
000090 c2 06 21 be 5b d0 cc bd 11 e6 d0 bd 9e 93 85 bd
       -0.15725234 -0.10000678 -0.10200132 -0.06522296
0000a0 f6 9b c5 3d 40 aa 90 3d 02 4b c5 3d a0 e6 60 3d
       0.09648888 0.070637226 0.09633447 0.05490744
0000b0 f0 15 4c bc a8 0d 8b bc 74 38 ab bd e0 76 3f bc
       -0.012456402 -0.016974285 -0.08360377 -0.011686057
0000c0 11 97 e5 bd b0 59 45 bc c0 1e a8 3b 3d 89 da bd
       -0.11210454 -0.012045309 0.005130619 -0.106707074
0000d0 ae 93 7f bd 5c 11 16 be 00 1e 82 bd de 87 c7 bd
       -0.062396698 -0.1465506 -0.06353378 -0.097427115
0000e0 98 67 82 bd a0 ea cc bb 50 b5 3d bc 4e bd d9 bd
       -0.06367415 -0.0062535554 -0.011578873 -0.1063181
0000f0 98 04 13 3d e0 b5 81 bc 42 cf f3 3d 79 03 09 be
       0.035893053 -0.015833795 0.11904766 -0.13380231
000100 35 f4 ab be 48 11 56 be e3 a0 04 3f fc a2 52 3f
       -0.33584753 -0.2090503 0.51807994 0.82279944
000110 b7 d8 ef 3d 7b 77 d8 bf 51 cf 1d 3e 08 19 03 c0
       0.11711257 -1.6911463 0.15411116 -2.0484028
000120 90 53 ed bf 4a 69 23 3e 71 a6 af 3e 62 0b 44 be
       -1.8541126 0.15958133 0.34306672 -0.19144967
000130 c6 9f 82 3e a4 c1 16 be 7b ac 74 be 95 7e 09 3f
       0.25512522 -0.14722306 -0.23893921 0.53708774
000140 03 dd de bf a9 57 12 3f d9 c2 5f be 38 05 84 bf
       -1.7411197 0.5716501 -0.21851672 -1.0314093
000150 2f ea 9b bf 51 d0 87 bf a1 85 f3 3e 7f 35 ab 3d
       -1.2180842 -1.0610448 0.47562888 0.08359813
000160 58 d8 26 bd df f8 ef 3d 20 e3 99 bc f3 2e a1 3e
       -0.040733665 0.1171739 -0.01878506 0.31481132
000170 b2 c7 2e be 44 94 37 bf 07 72 b8 3d 0b d7 04 3e
       -0.17068365 -0.7171061 0.09006124 0.12972657
000180 77 b1 2f bd d2 88 0e bf d5 0f 80 be 15 64 4b bd
       -0.042893853 -0.5567752 -0.2501208 -0.049655993
000190 37 6c 2a bf 3b c9 0f 3d a9 72 44 bd e8 08 1a 3e
       -0.6657137 0.035104018 -0.04796091 0.1504246
0001a0 93 d6 61 bf f5 05 24 bf 6f 81 5f bf 23 f8 25 bb
       -0.8821804 -0.6407159 -0.87306875 -0.0025324903
0001b0 19 a4 8b bf 5e a5 03 c0 da 26 24 be 55 5d f5 bd
       -1.0909454 -2.0569682 -0.16030446 -0.11980692
0001c0 ba d0 1d 3e 47 64 88 be ee 5d 04 bf ef cf d0 3d
       0.15411654 -0.26639006 -0.51705825 0.1019591
0001d0 83 bc 85 3e 4a 25 28 3e a2 b4 64 be ef 1c a0 3e
       0.26120386 0.16420475 -0.22334531 0.31272075
0001e0 ef 6e 86 bf bf 0e 01 3d 55 8c 90 3e fd ef e5 be
       -1.0502604 0.031508204 0.28232065 -0.4490966
0001f0 fd e0 0f 3d e0 76 da bd 8e 18 73 bf 43 bd d2 3c
       0.035126675 -0.10667205 -0.9495934 0.025725013
000200 ab 0d 28 be a1 18 d8 bd 3f c8 82 bd 09 f5 83 be
       -0.16411464 -0.105515726 -0.0638585 -0.25772884
000210 df e7 af 3e bc 8e ac 3d 28 ce 3b be 06 91 1e be
       0.3435659 0.08425662 -0.18340361 -0.1548501
000220 f4 59 0f be d5 22 1a bb 23 da 0f 3e 33 42 be 3d
       -0.13999158 -0.0023519297 0.14048056 0.0928997
000230 e8 a1 a9 3e f1 90 ed bd 46 be f8 bd 1e 6e 17 bd
       0.33131337 -0.11599911 -0.12145667 -0.03697025
000240 f3 9e 73 3e 62 b8 05 bd 44 f6 eb 3d 67 e3 a3 3e
       0.23791103 -0.032646544 0.11521581 0.32009432
000250 14 f1 7c be bd 05 89 3e a7 75 0d bd a5 58 ac 3e
       -0.24701339 0.2676219 -0.03453603 0.3366138
000260 16 bf c8 bd 40 8d 61 3e 10 46 8a bd 7b ec 0d 3f
       -0.09802072 0.22026539 -0.067516446 0.55438966
000270 b5 e7 9c 3d 93 dc 34 3d 3d d1 52 bf 87 48 9a bd
       0.07661382 0.04415567 -0.8235052 -0.07533365
000280 e6 af 90 bf 54 f5 a5 bf 7a a9 56 bf 99 00 05 3f
       -1.130368 -1.2965493 -0.8385235 0.51954037
000290 03 f6 2a 3f fe 63 57 be f3 32 c6 bf 22 0d 48 bd
       0.66781634 -0.21034238 -1.5484298 -0.04884065
0002a0 fc e8 85 bf e9 61 21 bf 32 48 dc 3e 40 66 41 3e
       -1.0461726 -0.63040024 0.4302383 0.18886662
0002b0 11 28 4d 3e b4 9b bb bf 51 66 3e bf b8 1b 74 bd
       0.20034815 -1.4656892 -0.7437487 -0.059596747
0002c0 32 41 0e be a5 c2 db 3e 4a 86 6d bf df 39 f1 be
       -0.13892058 0.4292194 -0.92783034 -0.47114465
0002d0 7b 3f b4 be 41 d7 c0 3d c9 95 76 be 95 31 45 3e
       -0.35204682 0.094160564 -0.24080576 0.19257195
0002e0 b9 7f 78 3e 67 60 9e be 20 98 cb 3d 03 cc ae be
       0.24267472 -0.30932924 0.09941125 -0.34140024
0002f0 7d 99 aa be 9f 17 c1 3e 61 98 49 bf dd 33 2f bf
       -0.33320227 0.37713334 -0.78748137 -0.6843851
000300 31 43 76 3e 9e c8 36 3e 56 14 31 3f a8 c2 21 3f
       0.24049069 0.17849967 0.69171655 0.63187647
000310 8b b0 b5 3c 97 e0 50 3c 90 3e 9b 3e 65 22 7c 3e
       0.022178909 0.012748859 0.3032117 0.24622495
000320 7e 05 c2 3d e6 5c 08 3e 1e 9d b9 be 61 f3 3a 3e
       0.09473704 0.13316688 -0.36252683 0.18256904
000330 c8 82 35 3c 43 27 01 3e 6b 33 72 3d f5 99 d4 3c
       0.011078544 0.12612633 0.059131067 0.025952319
000340 dd cf e5 3d 43 52 e7 3e 2e 0f c6 3c 75 08 00 bf
       0.112212874 0.45179948 0.02417716 -0.50012904
000350 69 3f fc 3d 3c ab da 3d e0 ec 72 3d 4b d5 ce bd
       0.12316782 0.106771916 0.059307933 -0.10099276
000360 9b ee 90 3d 87 9b 11 be 20 b3 ac 3d f9 e9 90 be
       0.070767604 -0.14219485 0.08432603 -0.28303507
000370 af 69 43 be 9c 3e a6 bd 54 ff 3d 3f 35 73 c7 3d
       -0.19083284 -0.081174105 0.74217725 0.09738771
000380 a6 b9 d9 3d 7b 6e 68 3e a8 62 03 3f 6f d8 31 3f
       0.10631113 0.22698395 0.5132241 0.69470876
000390 18 5a 97 3d 90 e8 f7 bc ba 03 66 bf ed 64 0d 3f
       0.07390231 -0.030262262 -0.89849436 0.55232126
0003a0 15 30 3b bd 2e 17 93 3e 34 ea 54 bd 9d 78 d5 3d
       -0.04570015 0.28728622 -0.051981166 0.10423396
0003b0 6e 26 24 3e 00 3d 36 be 29 b7 56 bf 64 90 29 3f
       0.16030285 -0.17796707 -0.8387323 0.6623595
0003c0 a6 ee 89 bc 28 63 29 3f 19 a5 28 bf 8b b5 ea bd
       -0.01683743 0.66166925 -0.6587692 -0.11460408
0003d0 2a 52 82 3e 8e 1a 1f be 79 a9 3b 3f 81 d6 bb bd
       0.2545331 -0.15537474 0.7330547 -0.09171773
0003e0 ab a1 e1 bd 46 85 31 3f ff 80 c9 3e 5c 19 37 3f
       -0.11017164 0.69343984 0.3935623 0.7152307
0003f0 d3 47 c8 be a0 06 eb bd f8 c8 f2 3e 5b 4f 94 3e
       -0.39117298 -0.11475873 0.47418952 0.28966793

layer2.bias f4 [32]
000000 10 e6 84 3e 48 a0 b7 bd 88 ab a7 3d 12 82 7c bd
       0.25956774 -0.08966118 0.08187014 -0.061647482
000010 d5 73 51 3e 5b 28 bd bd e5 12 59 3e bd 2f 56 3e
       0.20454343 -0.09236213 0.21198614 0.20916648
000020 2b f2 5c 3e 86 0a a4 3e fd 7c 99 3d 54 ed aa bc
       0.21576755 0.3203928 0.07494543 -0.02086512
000030 ce f6 da ba 94 aa 9e 3d d3 ac 97 3e 7e 03 a1 3e
       -0.0016705634 0.07747379 0.29624042 0.31447977
000040 8b 66 58 be 0d 2f 8c bc b4 d8 ef 3d 0e 1a 7a bc
       -0.21132867 -0.01711228 0.11711255 -0.015265001
000050 07 9a b8 3e 6c d1 2f 3e 4c a8 c8 3d 31 3e ab be
       0.36055014 0.17169732 0.09797725 -0.33445886
000060 f9 bd 29 be 25 09 70 3d 54 dd ad 3d e0 33 2a be
       -0.16576375 0.05860247 0.084894806 -0.16621351
000070 ac 2c a1 bc 47 3d 2b 3e a9 22 24 3e 3a 8f 34 3e
       -0.019674622 0.16722594 0.16028847 0.17632762

output.weight f4 [1, 32]
000000 9c a0 bc be 6e c2 0a be d8 a0 df 3f f2 a2 94 3f
       -0.36841285 -0.13550732 1.7470961 1.1612227
000010 c8 4d a5 be aa 63 bf bf 98 33 e1 3e 34 18 63 3f
       -0.32285905 -1.495229 0.43984675 0.88708806
000020 51 34 ff 3e 32 ca 49 bf a3 4c 4f 3f 02 d7 ad bf
       0.49844602 -0.7882415 0.80976313 -1.358124
000030 a5 59 a6 3d 2d c3 e3 3e 55 33 5c bf 55 d7 9c be
       0.08122567 0.44484845 -0.86015826 -0.30633035
000040 00 f4 85 bf 9e fe f4 3e 9c b9 9b bf 78 89 06 bf
       -1.0465088 0.47850507 -1.2166018 -0.5255351
000050 bd 66 73 40 9c e9 1b 3f 95 32 cc 3f a4 92 f7 bf
       3.8031456 0.60903335 1.5952936 -1.9341626
000060 3e 2d 0b bf 85 d4 1b bf 53 69 4e bf 3e 76 a7 bf
       -0.5436591 -0.60871154 -0.8062946 -1.308296
000070 7b cd 1e be e5 99 b3 be 0b 2b 86 be 7b 9e c3 3e
       -0.15508072 -0.3507835 -0.26204714 0.38206849
