Models/target_network/tau_0.1/target_policy_network.pt (torch, 7175 bytes, 5 tensors)

layer1.weight f4 [32, 3]
000000 d8 93 60 bd fc dd 68 bf e5 23 90 3e d8 fc 7e 3e
       -0.054828495 -0.9096372 0.28152385 0.2490114
000010 57 55 89 bf de 6c a5 bd 51 fb 90 bf 73 37 27 3e
       -1.0729169 -0.080774054 -1.1326696 0.16329746
000020 ab 67 4f 3e bc 40 fb bd 4e 9f b0 3f d2 0a 9f 3d
       0.2025439 -0.122682065 1.3798616 0.07765736
000030 c1 8e 0b 3f 24 f4 b7 3f 9d 9e 02 3f 73 1a ff 3c
       0.545147 1.4371381 0.51023275 0.031140542
000040 24 c6 08 c0 09 90 b0 be 1b 15 8b bf d2 92 0b bf
       -2.1370935 -0.3448489 -1.0865816 -0.54520905
000050 a7 07 86 3d 7e ee db 3e 09 13 1b bf 4e 49 01 bf
       0.06544428 0.42955393 -0.6057592 -0.5050248
000060 8e d5 9b 3e 1a cc f2 bf 75 1a 72 be 1d c4 34 bf
       0.30436367 -1.8968537 -0.23642905 -0.70611745
000070 b1 1a c9 bd af 43 d1 3e 17 6f 29 3f 09 a5 09 40
       -0.09819544 0.4087195 0.66185135 2.150698
000080 68 1d f1 3e 4d 68 27 bf e7 6e 9e 3b 41 22 42 bf
       0.47092748 -0.65393525 0.004834998 -0.7583352
000090 db d9 61 bd bc 25 0e 40 24 ac e7 3e 9c f4 c9 be
       -0.055139404 2.2210531 0.4524852 -0.39444435
0000a0 af f4 a9 bf 5c d4 60 3e 7c d6 70 bf 98 86 92 be
       -1.3277797 0.21956009 -0.9407728 -0.28618312
0000b0 fd 97 1c 3f 82 13 9a 3f 60 62 59 3f 11 2d 80 3d
       0.61169416 1.2037203 0.84915733 0.06258596
0000c0 b6 85 17 3e a4 01 8c bf 3c 54 87 bf fc 16 79 be
       0.147971 -1.0938001 -1.0572581 -0.24325174
0000d0 b3 0c e9 3f 15 42 f2 3d 0f 29 0f c0 56 f5 60 bf
       1.8207 0.118290104 -2.236881 -0.8787435
0000e0 08 b4 1c 3f e9 0c 37 3f b2 f6 0d 3f 78 6a 5c bd
       0.61212206 0.71504074 0.5545455 -0.053812474
0000f0 0e 13 64 3f f4 d2 90 3e 39 0e 07 bf bc 82 fd be
       0.89091575 0.28285944 -0.5275608 -0.49513805
000100 68 24 cc be c7 e3 91 bf 6e 9a 12 be 16 68 83 3f
       -0.39871526 -1.1397637 -0.14316723 1.026614
000110 0e 5b 09 3e f3 c2 15 bf 86 7e 56 3f 90 19 38 be
       0.13413641 -0.58500594 0.8378681 -0.17978501
000120 a6 9b a8 bf 67 57 08 3f aa bc 41 3e 79 a1 9a bd
       -1.31725 0.53258365 0.18919626 -0.0755033
000130 af ed 38 3f 1d ba 07 3f 86 f8 fc bc 3a 79 7c 3f
       0.72237676 0.5301836 -0.030880224 0.9862248
000140 b6 4c 06 bf f9 b4 8d 3f d5 85 64 be 36 c0 64 3e
       -0.524608 1.1070853 -0.22316678 0.22338948
000150 ba d3 fd bd ee 66 4d bd f2 ac 81 3f e3 25 6b bf
       -0.12393899 -0.05014699 1.0130904 -0.91854686
000160 6b 2b c0 3d 44 87 c3 be 59 e6 e5 3d 6e 13 1e bf
       0.09383281 -0.38189137 0.11225576 -0.617484
000170 83 7e 5a be e2 ec 66 3e eb ad c5 3e c4 b8 4e 3f
       -0.21337323 0.22551301 0.3860925 0.8075068

layer1.bias f4 [32]
000000 50 39 05 3f 99 19 4c 3f 8b c9 26 be fe b3 f1 be
       0.52040577 0.7972656 -0.1628782 -0.47207636
000010 42 be 17 3e e6 be c0 3e bf df 29 3f d8 a4 50 3e
       0.14818671 0.37645644 0.66357034 0.20375383
000020 4b d3 48 3f 68 de 4e 3f 27 dc 89 3e fa 8a 88 3f
       0.7844741 0.80808115 0.26925775 1.0667412
000030 5d 71 38 3f f6 4c 69 3f d1 3b cc be a8 93 2c 3e
       0.7204798 0.9113306 -0.39889386 0.16853201
000040 97 97 60 3f 5a 47 01 bf 4b 18 e2 3e 7a 19 0a bf
       0.8773131 -0.504995 0.4415916 -0.53945124
000050 7b f9 d2 bd 59 f9 56 3e ad d7 4a be 67 68 0a 3e
       -0.10301491 0.20993556 -0.19808836 0.13516389
000060 82 ec 6a 3f 34 20 2d bf 94 33 70 3e 24 ea bd 3e
       0.9176713 -0.67627263 0.23457175 0.37092698
000070 80 f9 b9 be 2b 49 db be 7c fe 1b bf b6 c3 d9 3e
       -0.36323166 -0.4282926 -0.6093519 0.42532128

layer2.weight f4 [32, 32]
000000 99 29 92 3c 2e 89 8f be 26 1e f7 bd 62 7c 78 be
       0.017842101 -0.28034347 -0.12066297 -0.24266198
000010 0e 5d 22 3e da c8 b8 bd 48 9f 37 be 8c cf b5 bd
       0.1585581 -0.090226844 -0.17931855 -0.08877477
000020 65 67 06 be d4 2e 89 bd 17 e8 f0 3e 7a 40 02 3e
       -0.1312538 -0.06698385 0.4705207 0.12719908
000030 8e 48 5b 3e e2 44 14 3c e7 bb db bd bf e1 2f be
       0.21414396 0.009049626 -0.10729199 -0.17175959
000040 b2 8b ad 3e 7b 0f c6 bd 19 85 4f 3d de 6b c0 3e
       0.33895642 -0.096709214 0.05066404 0.37582296
000050 57 91 dc 3d 07 93 4a 3d 7b b2 a5 be 73 e0 a6 3e
       0.10769909 0.049456622 -0.32362732 0.32593116
000060 e1 68 e0 bc 08 09 21 3e 27 f5 ff 3d c5 38 cd 3e
       -0.02739376 0.15726101 0.12497931 0.40082374
000070 5e 31 8d 3d 06 44 df 3d 74 7f 1e bf b0 36 d8 3c
       0.06894182 0.10901646 -0.6191323 0.026393265
000080 55 ac 51 bd f4 bb 20 be 99 07 44 3d ac bc 83 bd
       -0.05118974 -0.15696698 0.04785881 -0.06432471
000090 c2 06 21 be 59 d0 cc bd 10 e6 d0 bd 9e 93 85 bd
       -0.15725234 -0.10000677 -0.10200131 -0.06522296
0000a0 f6 9b c5 3d 40 aa 90 3d ff 4a c5 3d 9d e6 60 3d
       0.09648888 0.070637226 0.09633445 0.05490743
0000b0 f0 15 4c bc a8 0d 8b bc 74 38 ab bd e0 76 3f bc
       -0.012456402 -0.016974285 -0.08360377 -0.011686057
0000c0 11 97 e5 bd af 59 45 bc c0 1e a8 3b 3d 89 da bd
       -0.11210454 -0.012045308 0.005130619 -0.106707074
0000d0 ae 93 7f bd 5a 11 16 be 00 1e 82 bd de 87 c7 bd
       -0.062396698 -0.14655057 -0.06353378 -0.097427115
0000e0 98 67 82 bd a0 ea cc bb 50 b5 3d bc 4b bd d9 bd
       -0.06367415 -0.0062535554 -0.011578873 -0.10631808
0000f0 98 04 13 3d e0 b5 81 bc 42 cf f3 3d 79 03 09 be
       0.035893053 -0.015833795 0.11904766 -0.13380231
000100 9d 05 ac be c9 5f 56 be 73 98 04 3f 16 9d 52 3f
       -0.33598033 -0.20934977 0.5179512 0.82270944
000110 9e 92 ef 3d 70 77 d8 bf 42 aa 1d 3e ca 16 03 c0
       0.11697887 -1.691145 0.1539698 -2.048266
000120 7f 53 ed bf 04 44 23 3e 90 95 af 3e 50 1a 44 be
       -1.8541106 0.15943915 0.34293795 -0.19150662
000130 cf 8d 82 3e 4e e5 16 be a8 cc 74 be 39 7b 09 3f
       0.25498816 -0.1473591 -0.23906195 0.5370365
000140 0f dd de bf e4 51 12 3f cd e4 5f be 4b 04 84 bf
       -1.7411212 0.57156205 -0.21864624 -1.031381
000150 dd e6 9b bf 26 d1 87 bf 38 75 f3 3e 9b 0c ab 3d
       -1.2179829 -1.0610702 0.47550368 0.08352014
000160 d6 72 27 bd 7a b8 ef 3d 4f 75 9a bc 7c 20 a1 3e
       -0.040881 0.11705108 -0.018854765 0.31470096
000170 b2 e8 2e be 78 94 37 bf 0e 72 b8 3d e0 b3 04 3e
       -0.17080954 -0.7171092 0.09006129 0.12959242
000180 78 b1 2f bd b4 85 0e bf 8d 0d 80 be 47 5e 4b bd
       -0.042893857 -0.55672765 -0.25010338 -0.049650457
000190 2d 6c 2a bf 37 37 10 3d b7 28 44 bd 01 1a 1a 3e
       -0.66571313 0.035208907 -0.04789039 0.15048982
0001a0 b2 d0 61 bf ef 05 24 bf 14 8a 5f bf 6a 6f 21 bb
       -0.8820907 -0.64071554 -0.87320065 -0.0024633058
0001b0 ce a5 8b bf 81 a3 03 c0 d3 26 24 be 7e 77 f5 bd
       -1.0909975 -2.0568545 -0.16030435 -0.11985682
0001c0 db e2 1d 3e 4e 63 88 be e7 5d 04 bf 8b b1 d0 3d
       0.1541857 -0.26638263 -0.51705784 0.10190114
0001d0 73 c3 85 3e 8e 38 28 3e 07 bc 64 be ec 25 a0 3e
       0.26125678 0.16427824 -0.22337352 0.31278932
0001e0 c9 6a 86 bf c0 0e 01 3d 46 94 90 3e 6f d4 e5 be
       -1.0501338 0.031508207 0.28238124 -0.44888636
0001f0 04 e1 0f 3d bb 45 da bd 9a 12 73 bf 3a bd d2 3c
       0.0351267 -0.10657831 -0.9495026 0.025724996
000200 06 e3 27 be e8 06 d8 bd 01 8b 82 bd 2e ef 83 be
       -0.16395196 -0.10548192 -0.06374169 -0.25768417
000210 bb ef af 3e 2c b1 ac 3d b5 8c 3b be cd a5 1e be
       0.34362587 0.0843223 -0.18315394 -0.15492935
000220 9d 50 0f be b7 ca 0a bb f7 dd 0f 3e 27 30 be 3d
       -0.13995595 -0.0021177956 0.14049517 0.09286528
000230 b9 a6 a9 3e 2b 34 ed bd 72 70 f8 bd 61 8d 17 bd
       0.33135012 -0.11582216 -0.12130822 -0.037000064
000240 39 8e 73 3e b2 8d 05 bd 45 5a ec 3d 81 dd a3 3e
       0.23784722 -0.032605834 0.11540655 0.32004932
000250 49 07 7d be f3 06 89 3e fb 0e 0d bd f6 56 ac 3e
       -0.2470981 0.26763114 -0.034438115 0.33660096
000260 d7 5b c8 bd f0 ad 61 3e 5b 69 8a bd 2c ed 0d 3f
       -0.09783142 0.22039008 -0.06758376 0.5544002
000270 4e 49 9d 3d 06 bb 34 3d 5a d2 52 bf a8 f8 99 bd
       0.076799974 0.044123672 -0.8235222 -0.075181305
000280 d1 ab 90 bf 83 f4 a5 bf 8a a3 56 bf 63 03 05 3f
       -1.1302434 -1.2965244 -0.8384329 0.5195829
000290 65 fb 2a 3f d1 86 57 be 6b 31 c6 bf 1c 3b 48 bd
       0.6678985 -0.21047522 -1.5483831 -0.048884496
0002a0 d8 e9 85 bf cb 5a 21 bf 5c 56 dc 3e b5 5a 41 3e
       -1.0461988 -0.63029164 0.43034637 0.18882258
0002b0 e9 41 4d 3e ed 9a bb bf 78 63 3e bf d6 ca 73 bd
       0.20044674 -1.4656655 -0.7437053 -0.05951961
0002c0 25 4e 0e be 67 c8 db 3e da 81 6d bf d3 33 f1 be
       -0.13896997 0.42926332 -0.9277626 -0.4710985
0002d0 66 44 b4 be 49 ba c0 3d 8d 7c 76 be b6 29 45 3e
       -0.35208434 0.09410531 -0.2407095 0.19254193
0002e0 fa 89 78 3e 47 51 9e be bb 85 cb 3d ac ca ae be
       0.24271384 -0.30921385 0.099376164 -0.34139
0002f0 a4 8a aa be da 0c c1 3e 18 9e 49 bf 64 2e 2f bf
       -0.333089 0.37705117 -0.78756857 -0.6843016
000300 e4 17 76 3e 43 bf 36 3e 9e 0c 31 3f 96 bf 21 3f
       0.24032551 0.17846398 0.6915988 0.6318296
000310 9f 30 b5 3c bb bf 4f 3c 41 1e 9b 3e 27 37 7c 3e
       0.02211791 0.012679989 0.3029652 0.24630414
000320 98 f1 c1 3d eb 1e 08 3e 1f 9f b9 be 33 fc 3a 3e
       0.094699085 0.13293044 -0.36254212 0.18260269
000330 fa e3 34 3c 4a f8 00 3e 58 96 71 3d 3e d8 d4 3c
       0.011040682 0.12594715 0.05898127 0.025982019
000340 ed f0 e5 3d a6 4c e7 3e c3 7b c4 3c 84 05 00 bf
       0.112275936 0.45175666 0.023984795 -0.50008416
000350 26 6c fc 3d 44 a6 da 3d bc 82 72 3d 8c ce ce bd
       0.12325315 0.10676244 0.05920671 -0.100979894
000360 b3 8a 90 3d 6a bc 11 be 79 d6 ac 3d 75 eb 90 be
       0.07057705 -0.1423203 0.08439345 -0.2830464
000370 de 9a 43 be af 2d a6 bd 76 00 3e 3f 68 22 c7 3d
       -0.19102046 -0.08114182 0.74219453 0.09723359
000380 17 a3 d9 3d 82 76 68 3e 91 5f 03 3f 26 d4 31 3f
       0.1062681 0.22701457 0.513177 0.6946434
000390 ec 54 97 3d c7 8b f7 bc 5f 09 66 bf b8 6a 0d 3f
       0.073892444 -0.030218018 -0.8985805 0.55240965
0003a0 b2 0a 3b bd 1d f8 92 3e ad e5 54 bd 9c a2 d5 3d
       -0.045664497 0.2870492 -0.05197685 0.10431406
0003b0 8f 23 24 3e ee 46 36 be 07 bf 56 bf 8d 92 29 3f
       0.1602919 -0.17800495 -0.83885235 0.66239244
0003c0 6b 31 89 bc d5 5e 29 3f 2c ac 28 bf fc 9d ea bd
       -0.016747197 0.6616033 -0.65887713 -0.114559144
0003d0 44 5d 82 3e 27 14 1f be 32 a3 3b 3f 96 c5 bb bd
       0.2546178 -0.15535031 0.7329589 -0.09168546
0003e0 ba b3 e1 bd 74 78 31 3f 82 89 c9 3e 32 1b 37 3f
       -0.11020608 0.6932442 0.39362723 0.7152587
0003f0 0b 68 c8 be d9 dd ea bd 33 cb f2 3e 07 46 94 3e
       -0.39141878 -0.11468095 0.47420654 0.28959677

layer2.bias f4 [32]
000000 52 e8 84 3e 48 a0 b7 bd 99 60 a7 3d d1 57 7c bd
       0.25958496 -0.08966118 0.081727214 -0.061607186
000010 b0 78 51 3e 10 1f bd bd a8 0d 59 3e 18 38 56 3e
       0.20456195 -0.0923444 0.21196616 0.20919836
000020 f0 ed 5c 3e d9 06 a4 3e aa a5 99 3d de 84 aa bc
       0.21575141 0.32036474 0.07502301 -0.02081531
000030 24 99 dd ba 0c a0 9e 3d 24 c6 97 3e ec 05 a1 3e
       -0.0016906601 0.0774537 0.29643357 0.3144983
000040 44 29 58 be ea 59 8c bc c3 0f f0 3d 61 14 7a bc
       -0.21109492 -0.017132718 0.11721756 -0.015263648
000050 1e 96 b8 3e 61 cd 2f 3e 7c bd c8 3d 09 3e ab be
       0.3605203 0.1716819 0.09801766 -0.33445767
000060 07 bc 29 be 16 1e 70 3d d9 c6 ad 3d d1 2e 2a be
       -0.16575633 0.058622442 0.08485193 -0.16619422
000070 a3 2c a1 bc 20 42 2b 3e 52 27 24 3e 11 8a 34 3e
       -0.019674605 0.16724443 0.16030625 0.17630793

output.weight f4 [1, 32]
000000 48 9e bc be 6e c2 0a be c2 9d df 3f 91 a5 94 3f
       -0.3683951 -0.13550732 1.7470019 1.1613027
000010 c1 4d a5 be 4f 63 bf bf dd 27 e1 3e ec 1a 63 3f
       -0.32285884 -1.4952182 0.43975726 0.88712955
000020 1d 17 ff 3e 23 c7 49 bf df 51 4f 3f 4f d6 ad bf
       0.49822322 -0.78819484 0.809843 -1.3581027
000030 60 37 a6 3d 22 ae e3 3e f7 33 5c bf f2 d3 9c be
       0.08116031 0.4446879 -0.8601679 -0.3063045
000040 fd f9 85 bf ab eb f4 3e 1f bc 9b bf 2f 91 06 bf
       -1.0466915 0.4783605 -1.2166785 -0.5256528
000050 8d 64 73 40 f7 e1 1b 3f 67 34 cc 3f 6f 94 f7 bf
       3.8030121 0.6089167 1.5953492 -1.9342173
000060 2b 36 0b bf 5a d5 1b bf be 67 4e bf b3 76 a7 bf
       -0.5437953 -0.60872424 -0.8062705 -1.3083099
000070 7c cd 1e be 81 97 b3 be 14 26 86 be 0a 8b c3 3e
       -0.15508074 -0.35076526 -0.26200926 0.38192016
