Models/OU_network/tau_0.1theta_0.25/Q_network.pt (torch, 7207 bytes, 5 tensors)

layer1.weight f4 [32, 4]
000000 50 fa 1e bd 9c 32 aa 3f 68 be be 3c 79 f1 96 bd
       -0.038812935 1.3296695 0.023284152 -0.07370276
000010 e3 1d ab 3d 58 97 88 3f 0d 81 93 3e 82 43 46 3d
       0.0835531 1.0671186 0.28809395 0.048404224
000020 16 43 7e bf 9c 3a a8 3d 8f 94 f8 be 8c 24 40 bd
       -0.99321115 0.08214304 -0.4855084 -0.046909854
000030 90 d6 a9 3d ab 37 82 bf 6a b1 0d be e4 d3 81 bd
       0.08292878 -1.0173239 -0.1383721 -0.06339243
000040 3b 03 f4 3f 66 0e c5 bf db 7b 10 be 00 ee 65 3e
       1.9063486 -1.5395019 -0.14109747 0.22454071
000050 91 e4 c5 bf 8f e6 e2 bf 31 b4 07 bf 20 3e 36 be
       -1.5460378 -1.7726611 -0.53009325 -0.17797136
000060 bf 5f 76 3d 9f 6e ac 3f 43 78 9d bc c1 78 bf bd
       0.060149904 1.3471259 -0.019222384 -0.09349204
000070 36 9a 96 bf 9c 31 22 c0 70 ef 1c bf 27 43 13 be
       -1.1765811 -2.534278 -0.6130285 -0.14381085
000080 12 77 0d c0 b7 d5 b1 3f 97 9e 21 3f ae 47 b9 3d
       -2.2103925 1.3893346 0.63132614 0.09046875
000090 40 91 08 3f 90 ce 23 3f 7c 3b 0a 3f 20 f8 1b 3e
       0.53346634 0.63987064 0.53997016 0.15231371
0000a0 ad d2 1c bf d3 6f 47 c0 e4 87 f9 be 31 dc 84 be
       -0.61258966 -3.1162002 -0.4873649 -0.25949243
0000b0 95 4a bb 3f fc a7 86 be 6e d3 f8 3c 0b 15 18 3d
       1.4632136 -0.26300037 0.030374255 0.037129443
0000c0 48 7f b9 bf 5f 49 db bf cb a4 a3 3e fb ee a4 3d
       -1.4491968 -1.7131766 0.31961665 0.080533944
0000d0 64 37 38 bf a7 1f 19 40 22 84 c0 bc 3d 33 76 3e
       -0.7195952 2.392557 -0.023500506 0.24042983
0000e0 af e0 0a bf c3 8d d4 3f 45 ef c0 3c 1e ce e7 3d
       -0.5424909 1.6605762 0.023551593 0.113186106
0000f0 d0 73 be bf 36 69 6f 40 b9 1c 2d 3f 80 ef 79 3e
       -1.4879093 3.7407966 0.6762195 0.24407768
000100 96 48 83 bf 4b 68 35 bf 0e 0d d3 be 06 d5 aa be
       -1.0256526 -0.70862263 -0.41220897 -0.3336565
000110 49 b0 3b bf 92 72 a3 be e9 94 bf be 96 7c 81 3d
       -0.73315865 -0.31923348 -0.37418297 0.06322591
000120 c5 db 9a 3e b4 be 6e 40 19 67 49 3f 39 ac 94 3e
       0.30245796 3.7303896 0.7867294 0.29037645
000130 94 e0 f4 be cd 30 31 3d c4 b3 ca 3e db 57 80 be
       -0.4782759 0.04325943 0.39590275 -0.25067028
000140 44 da e0 3f a9 91 24 3f 59 0e 2b 3e 2f 5f 86 3c
       1.7566609 0.6428476 0.16704692 0.016402809
000150 8b 3c 36 c0 5d 78 89 3a 02 de 0d 3e c4 9a 8c 3d
       -2.8474452 0.0010488142 0.1385422 0.06865457
000160 ef cb 2d bf 8d 72 dc 3f bf 60 31 3d e5 1b 98 3d
       -0.678893 1.7222458 0.043305155 0.074271955
000170 3e 8b dc 3f 08 5a c3 bf 6f e7 a2 3e 92 3e 14 ba
       1.7229993 -1.526185 0.31817195 -0.00056550757
000180 92 c8 d1 be 5d 16 2d 40 36 03 0e 3f a5 f2 24 3e
       -0.40973336 2.70449 0.5547365 0.16108187
000190 73 90 92 bf 8f 78 c1 bf 63 9c c6 3d 72 70 1d 3e
       -1.1450332 -1.5114917 0.09697797 0.15374926
0001a0 b0 14 91 bf 74 fd 33 40 6d bc 06 3f a4 b5 24 3e
       -1.1334438 2.8123446 0.52631265 0.16084915
0001b0 71 63 28 be 25 8f b8 3f 24 ea 7a 3c 45 10 85 3a
       -0.16444184 1.4418684 0.015314613 0.0010151943
0001c0 46 ee c3 3f 8d 88 10 c0 de fd 25 bf af 34 80 be
       1.530709 -2.2583344 -0.64840496 -0.25040194
0001d0 ca f4 91 be 63 7a 8d be 0a a5 7f be 18 14 81 be
       -0.28507072 -0.27632436 -0.24965301 -0.25210643
0001e0 e2 30 fd bf d4 d0 58 bf 3d c7 f5 be 34 50 55 bd
       -1.9780543 -0.84693646 -0.4800357 -0.05207844
0001f0 3b bf 5c bf 69 ea 5b c0 a6 8c 39 bf 4d a2 34 be
       -0.86229295 -3.4361823 -0.7248024 -0.17640038

layer1.bias f4 [32]
000000 19 3a aa 3f aa 01 f0 3f 28 5f 18 40 ee 05 e6 3f
       1.329898 1.8750508 2.3808079 1.797056
000010 16 3d 08 3e b9 e7 78 3f d0 1a 90 3f db 8d ca 3e
       0.13304552 0.9722858 1.1258183 0.39561352
000020 f9 14 d6 3f 8c 55 ef 3f 96 6a 57 be 9d 09 55 3f
       1.672515 1.8697982 -0.21036753 0.83217794
000030 c7 15 c9 3f 4b c1 e6 3f 83 ca c9 3f 84 23 f1 3e
       1.5709771 1.8027738 1.5764927 0.4709741
000040 10 6a e5 3f ba f0 f3 3f f6 5d 33 3f 33 12 e8 3f
       1.7922993 1.9057839 0.7006525 1.8130554
000050 c4 74 4b 3f f2 3d a7 3f 78 77 d8 3f 79 54 aa 3f
       0.79475045 1.3065779 1.6911459 1.3307029
000060 71 cf b7 be f3 50 97 3f 16 ae 8b 3f 18 70 b4 3f
       -0.35900453 1.1821579 1.0912502 1.4096708
000070 dd 32 6b bf c3 3c 80 3f 29 f4 ca 3f 73 5a 10 be
       -0.91874486 1.0018543 1.5855762 -0.14097004

layer2.weight f4 [32, 32]
000000 18 cb 10 3f 50 59 3c 3f da 43 59 3f b7 eb af 3e
       0.56559896 0.7357378 0.8486916 0.34359524
000010 42 5f 11 3d 35 e0 0d c0 81 64 2c 3f 32 d7 5b c0
       0.035491236 -2.2168095 0.67340857 -3.4350095
000020 a4 4a 0d c0 ca 37 a4 3e 3d 94 71 c0 d3 ca a6 3d
       -2.2076807 0.32073814 -3.7746727 0.081441544
000030 56 84 01 3f e9 a0 4f 3f 8f 27 8a 3f 9b 35 82 c0
       0.50592554 0.81104904 1.0793322 -4.0690436
000040 69 5f 89 3d 31 e4 2c 3f 43 15 5d c0 00 22 12 3f
       0.06707651 0.6753569 -3.4544227 0.5708313
000050 54 b4 24 bc 6d d2 d7 3f 91 85 50 3f d6 62 18 3f
       -0.010052759 1.6861092 0.81453806 0.5952581
000060 ec ab df c0 89 59 16 3f 55 62 28 c0 ca a4 56 3f
       -6.9897366 0.5873037 -2.6310017 0.838452
000070 d8 a2 93 c0 9a 6a b9 3e ef 14 84 bf 91 9d a2 c0
       -4.6136284 0.36214143 -1.0318888 -5.081734
000080 ea af ab bc 62 78 54 bf 31 d1 eb bd 36 59 06 bf
       -0.020957906 -0.8299619 -0.115145095 -0.52479875
000090 51 40 dd 3e 68 37 e4 3e 23 f3 fc 3d 9a d3 3b 3f
       0.43213132 0.44573522 0.12351062 0.73369753
0000a0 78 70 a1 3f c5 5b 31 bf 16 7e 9d 3f 0a 47 7c 3f
       1.2612448 -0.69280654 1.2304103 0.98545897
0000b0 21 55 cf 3e ab dd 76 be 19 88 6c 3e 51 d2 c1 3f
       0.40494636 -0.24107997 0.23098792 1.5142308
0000c0 f6 ab f6 3d c9 97 33 bf 7d 9a 9b 3f 02 13 0c 3e
       0.12044518 -0.7015348 1.2156521 0.13679126
0000d0 91 ec 14 3f f4 fc 98 3d dc 82 84 be 1f 54 d0 be
       0.5817347 0.07470122 -0.25881088 -0.4068918
0000e0 7c 5c 86 3f 59 ad 6e 3e c4 62 57 3e 32 65 10 be
       1.0496974 0.23308314 0.2103377 -0.14101103
0000f0 32 e0 bb 3f db 02 88 be d1 93 e9 3e dd 9c 6d 3f
       1.4677794 -0.2656468 0.45620587 0.9281748
000100 a5 b9 99 3e b7 58 e3 be e3 94 49 bd c6 50 d5 be
       0.30024448 -0.44403622 -0.049214255 -0.41663188
000110 8c 18 7b 3e 45 82 78 3e e1 94 1a 3f 12 7d 1e 3f
       0.24521083 0.24268444 0.6038342 0.6190959
000120 50 31 a9 3f 07 92 b1 be 1c 0b 91 3f af 16 91 3f
       1.3218174 -0.34681723 1.1331515 1.1335047
000130 42 18 05 3f 5b f5 46 be e2 1c a8 3e dd 41 c6 3f
       0.5199014 -0.19429533 0.32834536 1.548885
000140 59 fc 85 3e f0 47 20 bf e7 61 a7 3f 95 d2 ab 3e
       0.26169088 -0.6260977 1.3076752 0.335591
000150 8c 02 37 3f b3 e7 9d 3d ee 1e 65 3e 98 eb e6 be
       0.7148826 0.07710209 0.2237508 -0.4510162
000160 dd b5 a4 3f 9d 11 04 3f ae 53 90 3e a0 23 b7 3c
       1.2868 0.51589376 0.28188843 0.022355855
000170 eb a0 99 3f bd 65 de bd 0a 30 c8 3e a2 3c 37 3f
       1.2002233 -0.10859249 0.3909915 0.71576893
000180 32 5c 05 3f 39 c6 02 bf 49 ce 4b 3b 10 16 aa be
       0.52093804 -0.51083714 0.0031098297 -0.33219957
000190 5e cd bf 3e 27 59 ea 3d 2e 92 14 3f 8c 35 f2 3e
       0.3746137 0.11442786 0.5803555 0.47306478
0001a0 0e 1c b4 3f 09 60 a9 be 26 3b 9a 3f d6 81 ab 3f
       1.4071062 -0.33081082 1.2049301 1.3398998
0001b0 70 3a 72 3e 13 0c e1 bd c7 70 d6 3e 4a 0e b8 3f
       0.23655105 -0.10988631 0.41882917 1.4379361
0001c0 4e b9 d8 3d 92 11 05 bf 02 1b aa 3f fd 99 d6 3e
       0.10582219 -0.51979935 1.3289492 0.4191436
0001d0 2a 88 8e 3f ae 82 d5 3d 6e 72 ae 3e 3e 8d 03 bf
       1.1135304 0.10425316 0.34071678 -0.51387393
0001e0 ec f1 9e 3f ae fd b6 3e ee 29 62 3e 47 f6 32 3e
       1.2417579 0.35740417 0.22086307 0.1747676
0001f0 99 b9 8a 3f b6 de 2f 3d 27 8e 8c 3e ef ed 37 3f
       1.083789 0.042937003 0.27452204 0.7184743
000200 be e0 99 3e 5a 90 9c 3e a1 8a 64 bf f3 a7 75 bf
       0.30054277 0.30578882 -0.8927403 -0.95959395
000210 d6 2c 2c c0 ea 39 9c bf 86 92 07 3f 24 67 1b bf
       -2.6902366 -1.2205174 0.5295795 -0.60704255
000220 a4 ab b5 3f 35 1e cb bd e6 ef b3 bf 6a 4b a1 bf
       1.4193006 -0.09917871 -1.4057586 -1.260114
000230 48 3b 8c bf 83 73 76 3f 4c 3c 0c 3f 1e 31 d2 3f
       -1.0955591 0.96270007 0.54779506 1.6421239
000240 b2 2b 10 c0 9c 7f 4d bf 92 62 a8 3f e3 5f b6 be
       -2.252667 -0.8027284 1.3155081 -0.3562003
000250 63 1e 26 bf 7e 65 2e 3f 17 1c 55 3f f5 38 df be
       -0.64890116 0.68123615 0.83245987 -0.43598142
000260 48 2e 8c 3f 5d f4 3e bf db f8 bf 3f cd 3a 56 3e
       1.0951624 -0.7459162 1.499782 0.20920868
000270 16 47 c2 be 59 15 8a bf 3c 6f c9 bf a3 98 d7 bf
       -0.3794486 -1.0787765 -1.5737071 -1.6843456
000280 13 6e bc 3d 0f f6 61 bf 2c 03 bc 3d 04 ed ab be
       0.092006825 -0.8826608 0.091802925 -0.33579266
000290 6c 69 9d 3e 97 6a bf 3e 0b 0c 18 3e 4d c3 fe 3e
       0.30744493 0.3738601 0.14848344 0.49758378
0002a0 a5 7f b5 3f d4 07 23 bf de 11 a1 3f 93 5f 3c 3f
       1.4179579 -0.6368382 1.2583578 0.73583335
0002b0 53 91 be 3e f8 91 9f be 81 0c de 3e 37 63 d3 3f
       0.3722025 -0.31166053 0.43368915 1.6514653
0002c0 79 1e 20 3e 55 09 2f bf 44 62 9a 3f 43 a2 ab 3e
       0.15636624 -0.68373615 1.2061238 0.33522233
0002d0 32 c7 0f 3f 60 8d 0b 3d 97 6e d8 3c 40 b0 25 bf
       0.5616332 0.034070373 0.02641992 -0.6472206
0002e0 d3 56 9b 3f 7a a0 33 3f fc f1 fd 3e 29 1a 48 bd
       1.2135872 0.7016674 0.49598682 -0.048853073
0002f0 76 a0 9d 3f 23 4c a1 be d0 9b 12 3f e9 5b 4f 3f
       1.2314594 -0.315034 0.57269 0.8099962
000300 4e b3 89 bd 70 1c 45 3c 24 52 28 3d 5d b9 24 be
       -0.06723653 0.012030706 0.04109396 -0.16086335
000310 8a b5 58 bd 88 66 91 bd 80 46 43 3d c0 38 18 3d
       -0.052907504 -0.070996344 0.047674656 0.037163496
000320 f4 87 97 bd 08 69 b6 bd be 7e ad 3d 68 22 55 3d
       -0.07398978 -0.08906752 0.0847144 0.052034765
000330 7c 93 af bd 92 c5 32 be 00 e0 40 ba 02 ad b4 3d
       -0.08573052 -0.1745818 -0.00073575974 0.08822061
000340 8e 93 13 be a0 f2 93 3c 13 b6 b4 bd bc 8c 14 bd
       -0.14411756 0.018060029 -0.088237904 -0.036267027
000350 80 95 2b bc 30 ef 3f 3d 5c d4 76 3d 99 18 ae bd
       -0.010472655 0.046858966 0.060261115 -0.085007854
000360 63 70 a0 bd 50 22 ad bd 76 7f c5 bd a0 ad f3 bd
       -0.07833936 -0.0845381 -0.09643452 -0.11898351
000370 9c c4 db bd 1c b8 3d 3d 0e 29 9c 3d 6c dd 1e bd
       -0.1073086 0.04631816 0.07625018 -0.038785383
000380 80 c3 04 3f 6d bc e0 be 94 29 62 3d 2b 99 1c be
       0.5186081 -0.43893757 0.055215433 -0.15292804
000390 9e 77 bc 3e 3d dd 54 3e 19 40 ea 3e 68 48 0d 3f
       0.3681001 0.2078752 0.45752028 0.5518861
0003a0 50 b7 b1 3f d4 cf 19 be 62 8c 9d 3f 93 ed a7 3f
       1.3884068 -0.15020686 1.2308466 1.3119377
0003b0 16 14 40 3e b3 e9 91 bd e7 31 ea 3e 46 55 b4 3f
       0.18757662 -0.07124653 0.45741197 1.4088523
0003c0 d7 d1 7e 3e 6d 62 33 bf eb d2 ae 3f 5f 9e 97 3e
       0.24884735 -0.7007206 1.3658117 0.29613015
0003d0 8b 77 90 3f 78 54 81 3c 81 7e ab 3e 6e a5 0f bf
       1.1286482 0.015787348 0.33494952 -0.561118
0003e0 72 cf b1 3f 38 d5 b6 3e 3e e4 d1 3e f1 78 09 3d
       1.3891432 0.35709548 0.40994447 0.033562604
0003f0 00 a1 89 3f fc 5d 45 be 77 0f 9b 3e 09 28 09 3f
       1.0752258 -0.19274133 0.30285236 0.53576714

layer2.bias f4 [32]
000000 f0 d3 e9 3e ee 22 82 be 29 65 0f 3e 50 32 2b 3e
       0.45669508 -0.25417274 0.14003433 0.16718411
000010 c8 fa 8a be 5a 8c af bd 4e e7 f5 3d 75 ee 7f 3e
       -0.27144456 -0.08571692 0.120070085 0.24993308
000020 a3 fc 84 3b 9d 7c e0 bd eb 4e b6 bd 71 36 d1 bd
       0.004058437 -0.10961268 -0.08901771 -0.10215462
000030 e5 2e c2 3b 97 bb 36 3f 8c d4 49 3e e7 43 6f 3e
       0.0059260004 0.7137999 0.19709986 0.23365746
000040 4a 2a 99 bd a9 a5 c9 be a0 52 22 3e 41 ff 33 3f
       -0.07478769 -0.393842 0.15851831 0.7031136
000050 9f 63 14 3d b5 6a 40 3e a6 50 5b 3e b9 58 7f 3e
       0.03622782 0.18790706 0.21417484 0.24936189
000060 0e 26 12 3e 25 b3 5b 3e fe cc f4 3b f2 e2 96 3d
       0.14272329 0.21455057 0.007470726 0.07367505
000070 f2 52 2e 3e 66 a8 e8 bd 87 f8 3a 3e b7 9d b3 bd
       0.17023829 -0.113602445 0.18258868 -0.08770316

output.weight f4 [1, 32]
000000 36 7d be 40 ab 91 89 bf 50 17 5d bf e4 bd 95 bf
       5.9527845 -1.0747579 -0.863637 -1.1698575
000010 5d 5a 40 40 06 de 80 bf a6 70 9b 3d 4b 97 93 bf
       3.0055153 -1.0067756 0.07589845 -1.1530546
000020 c9 a0 98 bf 80 2e 86 bf 1d f8 85 bf be 5e 54 40
       -1.1924068 -1.0482941 -1.0466343 3.3182826
000030 40 e0 82 bf bd 42 3e 40 27 7d 85 bf e0 02 89 bf
       -1.0224686 2.9728234 -1.0428818 -1.0704002
000040 ac 78 ee 3c af a9 28 40 10 6b 72 bf a2 51 79 40
       0.029110275 2.6353567 -0.94694614 3.8956075
000050 bf f7 9b bf b2 05 83 bf 29 4a 80 bf ac 65 84 bf
       -1.2184981 -1.0236113 -1.0022632 -1.0343528
000060 b1 33 92 bf 3f b3 86 bf 73 b8 35 3d cf ff 80 bf
       -1.1422025 -1.0523452 0.044365358 -1.0078067
000070 a6 00 84 bf 5f 03 bd bd ca 2e 4e 40 48 1a 53 40
       -1.0312698 -0.092291586 3.2216058 3.298479
