Models/OU_network/tau_0.5theta_0.1/policy_network.pt (torch, 7119 bytes, 5 tensors)

layer1.weight f4 [32, 3]
0	0x3ef0fb4b	0.4706672
1	0x3fc6568f	1.5495166
2	0x3eedb174	0.46424448
3	0xbf7acb30	-0.9796629
4	0xbf9f606c	-1.2451301
5	0xbee487dc	-0.44634902
6	0xbfa8f2a0	-1.3199043
7	0x3f629b2b	0.8851802
8	0xbc448048	-0.011993475
9	0x3e52d796	0.20590052
10	0xbe73eac2	-0.23820022
11	0xbf161cf7	-0.58637947
12	0x3e535f75	0.20641883
13	0xbf832033	-1.0244201
14	0x3c8c9c57	0.017164392
15	0x3dde624c	0.108585924
16	0xbf906af9	-1.1282645
17	0xbdb8995b	-0.09013625
18	0x3ef35e13	0.4753271
19	0x3de6e7a0	0.11274648
20	0xbe950222	-0.2910319
21	0x3f78c572	0.9717628
22	0x3dc79d26	0.097467706
23	0x3f2f839d	0.685602
24	0xbf8736c9	-1.0563594
25	0x3f8742ec	1.0567298
26	0xbdd36ebc	-0.10323855
27	0x3fbea368	1.4893618
28	0x3e27f16b	0.16400687
29	0x3dfe5de2	0.124202505
30	0xbe4f03f9	-0.20216359
31	0x3fb900b1	1.4453336
32	0x3e85b933	0.26117858
33	0x3ea3e2d2	0.32008988
34	0xbf89fe46	-1.0780723
35	0xbe57bf3c	-0.21069044
36	0x3f502753	0.81310004
37	0xbeb81c15	-0.35958925
38	0xbe9f1b24	-0.31075394
39	0x3f70a233	0.93997496
40	0xbecc016b	-0.39844832
41	0x3ee4855e	0.44633
42	0xbef64f60	-0.48107433
43	0x3e29e5b3	0.1659153
44	0x3e2ef567	0.17085801
45	0xbf28d783	-0.65953845
46	0x3f48fbee	0.78509414
47	0x3ea2b257	0.31776688
48	0xbf9971c1	-1.198784
49	0x3df38839	0.11891217
50	0x3d8e02fe	0.069341645
51	0xbf1e2917	-0.6178145
52	0x3f61d0f9	0.8820949
53	0xbeeec92c	-0.46637857
54	0xbecb687f	-0.39728162
55	0xbf18c89d	-0.5968111
56	0x3e9647eb	0.29351744
57	0x3ec71cf7	0.38889286
58	0xbf9fcf7d	-1.2485195
59	0x3e10fb50	0.14158368
60	0xbe53cdf7	-0.20684038
61	0xbf71a361	-0.9438992
62	0xbe440e53	-0.1914609
63	0x3c4d5bce	0.012534095
64	0x3fbce020	1.4755898
65	0x3f2f4b12	0.68473923
66	0xbf46ffb6	-0.77733934
67	0xbed3a873	-0.41339454
68	0xbefb1512	-0.49039513
69	0x3eb417bf	0.35174367
70	0x3ead968b	0.33903918
71	0xbf1832fa	-0.59452784
72	0xbeff9890	-0.49921083
73	0xbfa4904c	-1.2856536
74	0xbe0e8839	-0.13919152
75	0x3f32f39e	0.6990298
76	0xbf495547	-0.7864575
77	0x3f323450	0.6961107
78	0x3e952d8b	0.2913631
79	0xbf3c29fe	-0.73501575
80	0xbc95fce5	-0.018309066
81	0xbddc77bd	-0.10765026
82	0x3f486585	0.78279907
83	0xbea8aaa3	-0.32942685
84	0xbf2402c4	-0.6406672
85	0x3dd6fa4f	0.10496961
86	0x3d84c16c	0.06482205
87	0x3dab317d	0.083590485
88	0x3f7401ee	0.95315444
89	0xbe8fe902	-0.28107458
90	0x3f16ff86	0.5898365
91	0xbebb79fa	-0.36616498
92	0xbd225181	-0.03962851
93	0xbeac5130	-0.3365569
94	0xbecc5a74	-0.3991276
95	0xbe9c7b89	-0.30563

layer1.bias f4 [32]
0	0x3f37263b	0.7154271
1	0x3f0313f0	0.512023
2	0x3edca0cb	0.43091425
3	0xbf4cb05e	-0.79956615
4	0xbe49becb	-0.19701688
5	0x3edc5df9	0.43040445
6	0xbf2f0056	-0.6835989
7	0x3e578752	0.21047714
8	0x3da41de1	0.080135114
9	0x3e2bcbab	0.16776912
10	0x3ea11aed	0.31465855
11	0x3e43d820	0.19125414
12	0xbf00b1e4	-0.5027144
13	0xbeb0750b	-0.34464297
14	0x3ee6dc2c	0.45089853
15	0x3f7323e0	0.94976616
16	0x3efbe596	0.49198598
17	0xbef76ce1	-0.48325256
18	0x3d3ae227	0.045625832
19	0x3e79fbcf	0.24412464
20	0xbf750451	-0.9570971
21	0x3f16489b	0.5870454
22	0xbf319a19	-0.6937576
23	0x3f1aeedc	0.6052072
24	0x3e27135c	0.16315979
25	0xbe4364b4	-0.19081384
26	0xbf035a40	-0.51309586
27	0xbf54a434	-0.83063054
28	0x3f1d3447	0.61407894
29	0x3eab4fc9	0.3345931
30	0x3f2065e7	0.6265549
31	0xbee753ab	-0.4518102

layer2.weight f4 [32, 32]
0	0xbf14ae5c	-0.5807855
1	0x3e1e3d7b	0.1545314
2	0x3e870580	0.26371384
3	0x3df8c8e1	0.121476896
4	0x3da0c780	0.078505516
5	0x3e29f24a	0.16596332
6	0xbc86ac4f	-0.016439585
7	0xbe776f29	-0.24163498
8	0x3e03a204	0.12854773
9	0xbe4d3822	-0.20040944
10	0xbc9081af	-0.017639963
11	0xbd41efb9	-0.047347758
12	0xbe7270a0	-0.23675776
13	0xbd9d2804	-0.07673648
14	0xbdb43a03	-0.08800127
15	0x3e389062	0.18023828
16	0x3dc99810	0.09843457
17	0x3db2d369	0.087317295
18	0xbd055ad8	-0.03255734
19	0x3ee7a5cd	0.45243683
20	0x3f469b77	0.7758097
21	0xbec9ae10	-0.39390612
22	0xbdbd27fc	-0.09236142
23	0xbb901118	-0.004396569
24	0x3e38826f	0.18018506
25	0xbf1185fc	-0.5684507
26	0x3db0b0cd	0.08627472
27	0xbc04fc1d	-0.008116749
28	0x3e6b2cf8	0.22966373
29	0x3f1a8094	0.60352445
30	0xbe38aa1e	-0.18033645
31	0xbd1d1c93	-0.03835733
32	0x3e24cc95	0.16093667
33	0xbdf15f04	-0.11785701
34	0x3e8127c7	0.2522566
35	0x3dc7fa16	0.09764497
36	0x3f14c06f	0.5810613
37	0x3e371d89	0.1788236
38	0x3efe7b01	0.4970322
39	0xbccbbd4a	-0.024870533
40	0x3e34703c	0.17620939
41	0x3eb911d4	0.36146414
42	0x3ddf7892	0.10911669
43	0x3ecdc65e	0.40190405
44	0x3eac7874	0.33685648
45	0xbefeb657	-0.4974849
46	0x3e893e7c	0.26805484
47	0x3dea3216	0.114353344
48	0x3dfb296f	0.12263762
49	0xbd857373	-0.06516161
50	0x3e1180ca	0.14209285
51	0xbe092dce	-0.1339638
52	0xbf2556b9	-0.64585453
53	0x3eb029b2	0.3440681
54	0xbd0f0494	-0.034916475
55	0x3b9302d5	0.0044864216
56	0x3d35ef08	0.04441741
57	0xbd448931	-0.0479824
58	0x3e8984c0	0.26859093
59	0x3bb19164	0.0054189432
60	0x3e59899e	0.21243903
61	0xbe83c6a6	-0.25737494
62	0x3ef3de20	0.47630405
63	0x3debc468	0.11512071
64	0x3e63371e	0.22188994
65	0x3e085034	0.13311845
66	0x3e944851	0.28961423
67	0x3e88758b	0.26652178
68	0x3f2b53e3	0.66924876
69	0x3d81c49a	0.06336327
70	0x3edb4f2f	0.4283385
71	0xbdf9f997	-0.122058086
72	0x3d56cba5	0.052440304
73	0x3eaf4be9	0.34237602
74	0x3d8b465e	0.06800531
75	0x3f117aa4	0.5682776
76	0x3ebe99f3	0.3722683
77	0xbe31b27a	-0.1735324
78	0x3e1032b6	0.14081845
79	0x3e11ead6	0.14249739
80	0x3da72891	0.08162034
81	0xbe19ce8f	-0.15020202
82	0x3e4cd772	0.20004061
83	0xbecbdba8	-0.39816022
84	0xbf1e2e8f	-0.6178979
85	0x3ea86c11	0.32894948
86	0xbc81663f	-0.015795825
87	0xb9304af9	-0.00016812597
88	0x3eb2bf18	0.34911418
89	0xbdd33c16	-0.10314195
90	0x3e80c3eb	0.25149474
91	0x3e1c6c7b	0.15275757
92	0x3da03b26	0.07823782
93	0xbe7d58b1	-0.24740864
94	0x3e5b4d50	0.21416211
95	0x3d29d568	0.041463286
96	0x3ea1052b	0.31449255
97	0xbd021b13	-0.0317641
98	0x3d758bdf	0.059947845
99	0x3e2fcd53	0.17168169
100	0x3ef5e28e	0.4802441
101	0x3e4e0621	0.20119525
102	0x3f0374e1	0.5135022
103	0x3cf96bcf	0.030446915
104	0x3e8b9850	0.27264643
105	0x3ec812c7	0.39076826
106	0x3d9a6048	0.075378954
107	0x3f17beed	0.59275705
108	0x3e6ec837	0.23318563
109	0xbef63612	-0.48088127
110	0x3e883374	0.26601756
111	0x3e5d3510	0.21602273
112	0x3e5f0c88	0.21782124
113	0xbc191470	-0.009343252
114	0x3d97b198	0.0740692
115	0xbe4a33a5	-0.19746263
116	0xbf4931fd	-0.785919
117	0x3df11e66	0.11773376
118	0xbc12999a	-0.008947754
119	0x3df2c847	0.11854606
120	0x3e9227d6	0.28546017
121	0xbe269aaf	-0.16269945
122	0x3ee29c5f	0.44259927
123	0x3e64f0e6	0.2235752
124	0x3eaf720a	0.34266692
125	0xbe0ca83c	-0.13736051
126	0x3e1299e5	0.14316519
127	0x3dc39591	0.09550012
128	0xbffc2ca7	-1.9701127
129	0x3e31a5b7	0.17348371
130	0xbf8d1f66	-1.1025207
131	0x3e1d1a6c	0.1534211
132	0x3e002dec	0.12517518
133	0x3f0e89d8	0.5567908
134	0xbe4c2751	-0.19936873
135	0xbd3769f7	-0.04477879
136	0xbfebe790	-1.8430042
137	0xbe3369c4	-0.17520815
138	0xbfea4ea6	-1.8305252
139	0xbe20ae11	-0.15691401
140	0xbe7296f2	-0.23690394
141	0xbe0e299b	-0.13883059
142	0x3e02a63c	0.12758726
143	0x3ed52c0e	0.41635174
144	0xbece2caf	-0.40268466
145	0xbf11ceed	-0.5695637
146	0x3f1c2308	0.60990953
147	0x3f1f0007	0.62109417
148	0x3f88b544	1.0680318
149	0xbfa8cd20	-1.3187599
150	0xbdd186f0	-0.102308154
151	0xbdeed327	-0.11661368
152	0x3f0329b3	0.512355
153	0xbe944c87	-0.28964636
154	0x3e85175b	0.2599438
155	0xbfb487d5	-1.4103953
156	0x3e4d961f	0.20076798
157	0xbe3d5c91	-0.18492343
158	0x3deaa84b	0.114578806
159	0xbd945128	-0.07242042
160	0x3db3de1b	0.08782598
161	0x3e6d3b1e	0.23167083
162	0xbd87da19	-0.06633396
163	0x3ecbdde3	0.39817724
164	0x3f052b65	0.5201934
165	0x3eadf046	0.33972377
166	0x3e5cae12	0.21550778
167	0x3d9d6dce	0.07686959
168	0xbe26c4fd	-0.16286083
169	0x3eb13596	0.34611195
170	0xbf960d64	-1.1722836
171	0x3f08c18b	0.53420323
172	0x3e9661ca	0.29371482
173	0xbe711897	-0.23544537
174	0x3ef9499c	0.48688972
175	0xbde9e805	-0.11421207
176	0xbd92697b	-0.07149025
177	0x3d427f39	0.04748461
178	0x3f189154	0.59596753
179	0x3efb3f7c	0.49071872
180	0xbf6e3d44	-0.93062234
181	0xbd65e5b7	-0.056127276
182	0x3e0e77fc	0.13912958
183	0x3e8e5f87	0.27807257
184	0x3e8cb8b0	0.27484655
185	0x3c9f6ab1	0.019460054
186	0x3eaf8f56	0.34289044
187	0x3e73142a	0.2373816
188	0x3aeaad88	0.00179045
189	0xbed93720	-0.4242487
190	0x3ee68e56	0.4503047
191	0x3e639d5e	0.22228
192	0xbfe2d881	-1.7722322
193	0x3e321496	0.17390665
194	0xbe24ca96	-0.16092905
195	0x3da0e571	0.078562625
196	0x3b7e35a8	0.0038789306
197	0x3e9ef8f1	0.31049302
198	0xbe646682	-0.22304729
199	0x3d87768d	0.06614409
200	0x3cddfec8	0.027099028
201	0xbec20a3b	-0.3789843
202	0xbff200e5	-1.8906523
203	0xbcfc85ec	-0.030825578
204	0xbe8ee823	-0.2791148
205	0xbeb8edaa	-0.36118823
206	0x3e132565	0.14369734
207	0x3d6f0d58	0.058362335
208	0xbe82e851	-0.25567868
209	0xbe405588	-0.18782628
210	0x3f04c354	0.5186055
211	0x3f61cbd8	0.88201666
212	0x3f6e85a2	0.9317266
213	0xbf6e3e70	-0.9306402
214	0x3e198f73	0.14996128
215	0x3e0e8244	0.1391688
216	0x3db58409	0.08863074
217	0xbe5af7cd	-0.21383591
218	0x3e29d69b	0.16585772
219	0xbe13c34e	-0.14429972
220	0xbbfdb4fb	-0.007742522
221	0x3eaac748	0.33355165
222	0xbe07dff8	-0.13269031
223	0xbd179b1c	-0.03701316
224	0x3d312d33	0.043255996
225	0xbec28ab6	-0.37996453
226	0xbe89562d	-0.2682356
227	0xbe733869	-0.23751988
228	0xbe1b9b33	-0.15195923
229	0xbed32cf7	-0.41245243
230	0xbeeb63b8	-0.45974517
231	0x3e7728d2	0.24136665
232	0xbedf56ba	-0.43620855
233	0x3eb39a18	0.35078502
234	0x3d45e50f	0.04831415
235	0xbec85225	-0.3912517
236	0xbe7bb537	-0.24580847
237	0x3ea7f603	0.3280488
238	0xbdc1c286	-0.094609305
239	0xbc36d3f8	-0.011158936
240	0xbe16a463	-0.14711146
241	0x3ecf5a7f	0.4049873
242	0x3dce6039	0.10076947
243	0xbe8f10ad	-0.2794241
244	0xbf7a12f8	-0.97685194
245	0xbd9cf957	-0.07664745
246	0xbe90bbff	-0.2826843
247	0x3eb236ff	0.34807584
248	0xbf7f7046	-0.9978069
249	0x3ec0eb87	0.37679693
250	0xbf3e7027	-0.7438988
251	0x3ede0408	0.4336245
252	0xbf5c6ae2	-0.8610059
253	0x3e8ecf73	0.27892646
254	0x3cc6bd67	0.024260236
255	0xbf3a6122	-0.7280446

layer2.bias f4 [32]
0	0x3c39bdb9	0.011336737
1	0x3eda7fa7	0.42675516
2	0x3ec1d1fd	0.3785552
3	0x3e94366e	0.28947777
4	0x3e21c7ec	0.1579892
5	0xbddecf74	-0.10879412
6	0x3d2aab3c	0.041667208
7	0x3dd7c72b	0.10536035
8	0x3da3cf79	0.07998557
9	0xbe77dfd1	-0.24206473
10	0xbe2844da	-0.16432515
11	0xbd536974	-0.05161424
12	0x3e869013	0.26281795
13	0x3ddfcdde	0.10927938
14	0x3d83b9cd	0.06431923
15	0x3e2311a9	0.15924706
16	0x3dee9af1	0.116506465
17	0x3eaa2c02	0.332367
18	0x3e6c28c9	0.23062433
19	0x3e487487	0.19575702
20	0xbd0a71a7	-0.033799794
21	0xbd84617c	-0.06463906
22	0x3d790cbd	0.060803164
23	0x3ebc9816	0.36834782
24	0x3edd6d93	0.4324766
25	0x3e9c7caa	0.3056386
26	0x3d805bde	0.06267522
27	0x3ecd819b	0.40137944
28	0x3ea86002	0.32885748
29	0xbe764cf2	-0.2405279
30	0xbe42f1f2	-0.19037607
31	0x3e387c98	0.18016279

output.weight f4 [1, 32]
0	0xbeb69b07	-0.3566515
1	0x3f1b4588	0.6065297
2	0x3edcd612	0.43132073
3	0x3ed1da7e	0.4098701
4	0xbfb12d69	-1.3841983
5	0x3f11992c	0.56874347
6	0xbf6c68c5	-0.92347366
7	0xbfe5ac7c	-1.7943263
8	0xbf1ec722	-0.620226
9	0xbff08ded	-1.8793312
10	0xbc456ef0	-0.012050375
11	0xbfbb8921	-1.4651223
12	0xbfc474c1	-1.534813
13	0xbf38af00	-0.7214203
14	0xbf705e98	-0.9389434
15	0x3f88a371	1.0674878
16	0xbfa86834	-1.31568
17	0x3eb98518	0.36234355
18	0xbf07e079	-0.53076893
19	0x3ebdb61a	0.37052995
20	0x3d6cbd6a	0.057797827
21	0xbfed79fb	-1.855285
22	0xbf254112	-0.64552414
23	0x3f11c3f6	0.5693964
24	0x3ee003ca	0.4375289
25	0xbf17344f	-0.5906419
26	0xbf7747d2	-0.96593964
27	0x3f05b6b9	0.5223194
28	0xbf641041	-0.890873
29	0x3efc06ad	0.49223843
30	0xc05b7fa0	-3.4296646
31	0xbf282cab	-0.6569316
