Models/OU_network/tau_0.5theta_0.1/Q_network.pt (torch, 7207 bytes, 5 tensors)

layer1.weight f4 [32, 4]
000000 51 07 a7 be 91 b5 81 c0 7a 52 6c bf 80 38 92 be
       -0.3262277 -4.053414 -0.9231335 -0.2855873
000010 62 e4 13 3f ff 80 19 be 2b 3b e1 bd 72 ab 23 bd
       0.5777036 -0.14990614 -0.109976135 -0.039958425
000020 87 dc 6f bf 42 24 23 40 00 72 21 3f 92 c5 2e 3e
       -0.93695873 2.549088 0.63064575 0.17067555
000030 8b b9 28 c0 d6 fc bd 3f 48 c0 1d 3f 99 e1 fc 3d
       -2.6363246 1.4842784 0.6162152 0.12347717
000040 82 b6 ab bf 58 48 1e 40 6f a2 93 3e dc df 0b 3e
       -1.3415072 2.4731655 0.28834864 0.13659614
000050 e1 e6 bf be 29 e3 07 40 99 c4 ee bc 0d a1 8a 3c
       -0.37480834 2.1232398 -0.02914648 0.016922498
000060 14 6a 0e c0 34 e4 e7 3f 8f 3e 18 3f 7d c6 20 3e
       -2.2252245 1.8116517 0.59470457 0.15700717
000070 3b cb 53 3e fe 18 32 3f 32 89 46 bd f0 9e 8d 3d
       0.20682995 0.69569385 -0.048470683 0.069150805
000080 27 5f 5d 3f ba b7 6b 3f 44 0d 0b 3e 2a fe f2 3d
       0.86473316 0.9207722 0.13579279 0.11864884
000090 67 4c 22 c0 d3 6d ad 3d ca 40 b3 bf 8c 07 f9 be
       -2.5359132 0.08468213 -1.4004147 -0.4863857
0000a0 2f 2f af bf bb 80 fd 3f c6 a7 f6 bc c6 a8 04 be
       -1.3686274 1.980491 -0.030109297 -0.12955007
0000b0 7e 66 e9 bf cb 0b a3 3e d6 26 0a 3f eb 9a e5 3d
       -1.8234403 0.31844935 0.5396551 0.11211189
0000c0 4c 2e c1 bf 1d 8b 1b c0 42 ec 16 bf 76 09 45 be
       -1.5092254 -2.4303658 -0.5895425 -0.1924189
0000d0 0e f5 0a bf 8f 7c 7c 3e 18 b1 86 3e c6 6c 74 3d
       -0.54280174 0.2465689 0.26306987 0.059674047
0000e0 19 01 13 bf d2 ec ec bf 5a 0a e1 be fd f4 08 be
       -0.5742355 -1.8509772 -0.4395321 -0.13374706
0000f0 3c 6b d3 bf 0b b5 ca bf 0d 72 08 bf b5 7a 11 be
       -1.65171 -1.58365 -0.5329903 -0.14206965
000100 7f 1d e9 bf 0c 80 8d bf d0 5e fa be 0d ad 0a be
       -1.8212126 -1.1054702 -0.4890046 -0.13542576
000110 c5 2b ef bf cd 04 06 40 90 60 07 3f bb 13 77 3e
       -1.8685232 2.094043 0.5288172 0.2412862
000120 fa 6f 8d be 39 49 3c bf 19 57 a3 be 90 45 83 bd
       -0.27624494 -0.7354923 -0.31902388 -0.06409752
000130 b5 c7 01 c0 53 f5 12 40 a2 09 22 3f e3 8e d4 3d
       -2.0278141 2.2962234 0.6329595 0.10378816
000140 02 51 14 3f 7c 6c e4 bf e7 07 8e be db ce d0 bd
       0.5793611 -1.7845607 -0.27740404 -0.101957045
000150 09 5c 31 bf 36 49 ac 3e 0e 91 47 be df a8 8a bd
       -0.6928106 0.33649606 -0.19488928 -0.06770491
000160 ae 81 5a be af ff 8f bf c5 e5 da be 02 cf 08 be
       -0.21338531 -1.1249903 -0.42753425 -0.13360217
000170 70 ea fa bf 3e ea c1 3f e2 82 91 be 7c df 25 be
       -1.9602795 1.514961 -0.28420168 -0.16198534
000180 37 22 58 3f 5f 7e 37 3e d8 01 b3 3c e6 56 66 39
       0.8442721 0.179193 0.021851465 0.00021966881
000190 f2 ab cc bf 18 10 18 40 0c 57 24 3f ee 61 0d 3e
       -1.5989974 2.3759823 0.64195323 0.13806888
0001a0 8f e9 00 c0 d3 37 6f 3f fb 8f c9 3e 0d 15 32 3e
       -2.0142553 0.93444556 0.3936766 0.17390843
0001b0 f8 b1 da 3f 63 11 9c 3f 27 2d c5 bd 77 04 16 be
       1.7085562 1.2192806 -0.09627753 -0.1465014
0001c0 60 82 bb bd 74 ee 9e 3f 8a 03 68 3e 5d f7 14 bd
       -0.091557264 1.241652 0.226576 -0.036368717
0001d0 46 d4 87 3f 1d f9 ce 3f 5c 88 a9 3e 5a 19 ab 3e
       1.0611656 1.6169773 0.33111846 0.3341778
0001e0 f4 0c 29 bf 31 ae e6 3e 1d f0 7e be 5d a5 9f 3c
       -0.6603539 0.45054772 -0.24896283 0.019488031
0001f0 a0 67 76 3f 83 80 f0 3e 8e 5f 35 be c6 e3 2d be
       0.9625187 0.46973047 -0.17712232 -0.1698142

layer1.bias f4 [32]
000000 c7 c2 68 bf 6c a3 85 3f b0 c1 95 3e 7e c1 c0 3f
       -0.90922207 1.0440497 0.29249334 1.5059049
000010 5d 72 41 3f b3 1f 75 3f 0e 17 87 3f 9d b3 8d 3f
       0.7556513 0.95751494 1.0553911 1.1070439
000020 c4 40 87 3f 93 eb aa 3e 9d 73 05 3f 7b f7 05 3f
       1.056664 0.33382854 0.52129537 0.5233075
000030 e4 43 31 3f 3f a6 af 3f 64 d5 9e bc 4d 11 87 3f
       0.6924422 1.3722609 -0.019388862 1.0552155
000040 92 95 af 3f f8 df 9a 3f 93 8e 89 3f 07 aa 3b 3f
       1.371752 1.20996 1.0746635 0.73306316
000050 5b d6 96 be ba 87 97 3f b8 2c c5 3f 84 bb 03 3f
       -0.29460415 1.1838295 1.5404272 0.51458
000060 35 ca 2b 3f d7 9c 60 3f ae 38 a8 3f a5 63 a7 bc
       0.6710542 0.8773932 1.3142297 -0.020433256
000070 15 6c 3c 3f 6d 64 61 3f 3c a0 b6 3f e3 68 69 3f
       0.7360242 0.8804386 1.426765 0.9117567

layer2.weight f4 [32, 32]
000000 19 da 8f 3f cf 4a 53 be 6a 72 b7 3f e3 62 d0 bd
       1.1238433 -0.20634006 1.4331791 -0.10175111
000010 bb 9d ca 3b 4f a9 79 3d 51 45 ca be 20 7b 45 3d
       0.0061833537 0.06095248 -0.3950601 0.048213124
000020 e1 17 61 3f e2 64 77 be 7b d6 ab 3e aa 43 4d 3f
       0.8792706 -0.24159577 0.33562073 0.8018137
000030 fe 75 f2 3d 0d b4 ff 3e 10 75 77 3f 86 f0 2d 3d
       0.118389115 0.49942055 0.96663 0.04246571
000040 80 d3 c1 3d 29 b8 76 3f cf 05 89 be 22 74 82 bb
       0.094641685 0.96374756 -0.26762244 -0.0039811293
000050 4e 3e 00 3f d6 75 3b 3f dc 6f 86 be 98 46 34 3f
       0.5009507 0.7322668 -0.26257217 0.7042022
000060 3a ee 16 3f 56 58 ad 3f 7f e6 68 3c 3e 0a a0 3f
       0.58957255 1.3542583 0.014215111 1.2503126
000070 c0 83 f2 3e dc c7 92 3c e6 ba d8 3e ea 82 bc be
       0.47366142 0.017917566 0.42330092 -0.3681863
000080 d4 96 8a 3f c8 42 77 be 29 66 a0 3f 66 d5 38 be
       1.0827279 -0.24146569 1.2531177 -0.18050155
000090 dc 85 0d be ad 34 4a 3c 84 10 ad be d3 ea 1d 3e
       -0.13820595 0.01234166 -0.33801663 0.1542161
0000a0 55 44 44 3f 46 46 86 be 34 f0 02 3e a6 4f 7b 3f
       0.76666766 -0.2622549 0.12786943 0.9816841
0000b0 ec 83 9e 3e 2c 68 fc 3e 95 d8 3a 3f 39 a2 eb 3d
       0.30960023 0.49298227 0.7298673 0.11505551
0000c0 66 d2 38 3c 76 9a 5c 3f 5f c9 44 be 22 28 95 be
       0.011280632 0.8617319 -0.19217442 -0.2913218
0000d0 cb 7b 29 3f 47 8f 26 3f 2a c2 47 be 99 c9 64 3f
       0.6620452 0.65062374 -0.19507661 0.89370114
0000e0 c1 32 47 3f b2 c8 b7 3f 5f c3 37 3e 9a 12 99 3f
       0.7781182 1.4358122 0.17945622 1.1958802
0000f0 8e 3f 04 3f 45 8a 18 3d 0a a7 9a 3e 39 58 d1 be
       0.51659477 0.03724124 0.30205566 -0.4088762
000100 fc 88 14 c1 a4 0b d2 3e 42 7a 20 be cb 7b a7 3f
       -9.283443 0.41024506 -0.15671638 1.3084654
000110 ef 18 20 3f df 40 81 3d bd 40 ba 3f af 9d 1f 3f
       0.62538046 0.06311201 1.4551007 0.6234998
000120 50 ba 30 3e 64 81 0b c0 a6 79 9a be 6e 34 ce 3e
       0.17258573 -2.1797724 -0.30170935 0.40274376
000130 35 75 15 c0 70 14 88 3f 93 ac c0 c0 fa d6 30 c0
       -2.3352787 1.0631237 -6.021066 -2.7631211
000140 4d 16 2b c0 8d 4d 7e 3f 90 1e 56 3f c4 f6 db 3f
       -2.6732361 0.99337083 0.83640385 1.7184682
000150 db 78 af bf 1f 3d 06 c0 a7 00 78 3f ba 02 2f c0
       -1.3708757 -2.0974805 0.96875995 -2.7345414
000160 e0 13 46 3f bc 35 1d 3f ab 14 87 3f a8 b7 39 3e
       0.77374077 0.6141012 1.0553182 0.18136466
000170 d9 65 12 be c2 0e 35 be 8d c2 8b bf 5f 4b 67 3f
       -0.14296664 -0.17681411 -1.0918747 0.9034938
000180 4c e3 8a 3f 1d 38 5c be f7 49 c5 3f 75 cc 95 be
       1.0850616 -0.2150578 1.5413197 -0.2925755
000190 fe d3 58 3d de 96 87 bd 90 6d 82 be 13 23 f7 3d
       0.052936547 -0.066205725 -0.25474215 0.12067237
0001a0 56 f4 77 3f 54 37 74 be b6 09 c3 3e 51 f0 33 3f
       0.968572 -0.23849231 0.38093346 0.7028857
0001b0 11 5a 2a 3e 9c 4a 18 3f 87 8e 82 3f 46 57 d0 bc
       0.1663592 0.59488845 1.0199746 -0.02543224
0001c0 6a 97 6a 3e 6a ef 72 3f 87 c7 11 be 20 34 89 bd
       0.22909322 0.94896567 -0.1423627 -0.06699395
0001d0 3d a4 b5 3e c3 22 07 3f 44 46 d1 be 87 c8 5a 3f
       0.35476866 0.5278742 -0.4087392 0.8546223
0001e0 57 6d 04 3f d9 f6 b7 3f 83 b2 21 3e 3a 8f 5e 3f
       0.5172934 1.4372207 0.15790753 0.86937296
0001f0 b9 7b 18 3f 1c 69 77 be ba ce 07 3f 74 31 69 be
       0.59563786 -0.2416119 0.53049815 -0.22772771
000200 f7 b0 43 bf a2 1a 38 3f c0 cd 47 c0 0e bc ab 3f
       -0.764419 0.7191564 -3.121933 1.3416765
000210 ef fb a0 bf 8b e3 50 bf 31 e2 be 3f 38 05 47 3f
       -1.2576884 -0.81597203 1.4912778 0.7774234
000220 ae db 91 3b b4 96 ef bf a3 07 5d be 58 d3 fe 3f
       0.0044512367 -1.8717866 -0.21584944 1.9908247
000230 9f d3 b9 bd ea 4f 8b 3f 92 79 6f be a8 a0 a6 be
       -0.09073567 1.0883763 -0.23386219 -0.32544446
000240 6c 5f 0e bf bd 6e 48 bf 11 95 bc 3f 75 f0 d0 3e
       -0.5561435 -0.78293973 1.4732991 0.40808454
000250 3b b0 84 3e 6a 31 a2 be 18 ce d4 3f 83 67 bd bf
       0.25915703 -0.31678325 1.6625395 -1.4797214
000260 65 b9 17 3f 06 05 0b c0 88 36 ad 3f ca 04 9e 3f
       0.59267265 -2.1721816 1.3532267 1.2345212
000270 5a 80 bd bf 3e 54 0d c0 9f a7 98 3f f3 4a 78 3f
       -1.4804795 -2.2082667 1.1926154 0.96989363
000280 b1 b8 93 3f ba 6c a8 be e1 00 85 c0 ab 76 49 c0
       1.1540738 -0.32895452 -4.1563573 -3.147868
000290 41 24 0f 3f 67 06 6b 3e 72 5a 70 c0 f5 00 e7 bd
       0.55914694 0.22951661 -3.7555203 -0.112794794
0002a0 b8 aa 6d bf cc 75 6a 3f ed 27 27 3e 2f f2 10 bf
       -0.9283862 0.91585994 0.16323824 -0.5661954
0002b0 fe 71 ad 3f 8d b6 43 c0 f8 df 9b 3d 53 34 a7 3f
       1.3550413 -3.058017 0.07611078 1.3062843
0002c0 96 08 93 3f 28 25 a2 c0 4f 21 1b 3d 07 2f a5 c0
       1.1486995 -5.0670357 0.037873562 -5.1619906
0002d0 a4 b1 5a 3e 36 fb 1a 3f 61 84 c6 bc b3 35 8e 3f
       0.21356827 0.6053957 -0.024233045 1.1110138
0002e0 bb 1f 35 be 1b 87 b0 c0 a3 3a 25 c0 24 91 10 bf
       -0.17687885 -5.5164924 -2.581704 -0.56471467
0002f0 db 98 56 be 57 fc a6 3f 56 4b 2f 3f 29 1f b1 be
       -0.20956747 1.3045758 0.6847433 -0.34594086
000300 04 1f 61 3f af 4b 17 be f3 56 c2 3f 4d fb 66 be
       0.8793795 -0.14774965 1.5182785 -0.22556801
000310 6d 3b 4c be de a0 2a bc 3d 8f 85 be f2 19 a4 3d
       -0.19944544 -0.01041433 -0.26085845 0.08012761
000320 7e 37 5c 3f 0f eb 25 be 41 c3 27 3e 97 97 71 3f
       0.86022174 -0.16202949 0.16383077 0.9437193
000330 55 c1 59 3d 6d e6 1f 3f 46 6d 87 3f 7d af f2 bd
       0.05316289 0.62460977 1.0580223 -0.11849878
000340 bc 08 62 3e 93 d8 6f 3f 2d d4 86 be 91 ca bf be
       0.22073644 0.9368984 -0.26333752 -0.37459233
000350 dd c5 16 3f ea dc db 3e 30 c5 a3 be 78 f2 6a 3f
       0.58895665 0.42941982 -0.3198638 0.9177623
000360 f0 3e 0f 3f aa e0 b4 3f d0 83 30 3e ac 65 8e 3f
       0.5595541 1.4131062 0.17237782 1.1124778
000370 df bb c7 3e f6 16 78 be 68 aa f1 3e 07 83 cb be
       0.39010522 -0.24227509 0.47200322 -0.39748403
000380 2f 77 37 c1 1c 94 a8 3f 10 cc 8b bf c9 d6 d5 3f
       -11.466598 1.3170199 -1.092165 1.6706172
000390 d6 8b 29 3f 47 29 6c 3f 7c 89 c4 3f 85 fe 63 3f
       0.66229 0.92250484 1.5354457 0.8906024
0003a0 78 b9 8c 3f c9 b2 c5 3f ac 21 35 3f 91 f2 6b bf
       1.09941 1.5445186 0.70754504 -0.92167
0003b0 b8 2b 8a c0 ce e6 9d bd 75 f8 8a c0 09 4c 53 c0
       -4.3178368 -0.07710038 -4.342829 -3.3015158
0003c0 9a 95 0c c0 5b f0 f2 3d e0 16 9b 3e f0 7d e7 3f
       -2.196631 0.118622504 0.3029089 1.8085308
0003d0 ef fb 3a c0 af 11 97 be 82 ba 6f 3d 89 05 aa 3d
       -2.9216268 -0.2950568 0.058527477 0.08301837
0003e0 d3 1a 81 3f 07 8b 87 be 5f a4 77 3f 32 9c dc be
       1.0086311 -0.26473257 0.96735185 -0.43087918
0003f0 fe b2 5b 3e 3c 78 7f 3d c0 11 fe bf 5f 08 b6 3f
       0.21454999 0.062370524 -1.9849167 1.4221305

layer2.bias f4 [32]
000000 77 d9 1a be 2f cb ac bd bb e8 9b 3e 4f 95 c5 3c
       -0.15122019 -0.08437192 0.30450997 0.024119047
000010 1d 7f 8e 3f 3d 1f 0f 3f b6 53 2a bd 8a 0b 1f 3f
       1.1132542 0.5590704 -0.04158374 0.6212698
000020 b7 db 9a ba 0b 7d 8f bd 9d 99 29 bd 80 d0 02 be
       -0.0011814748 -0.07006272 -0.041406263 -0.12774849
000030 0d f2 81 3f 01 01 9a 3d cf 04 19 3f 15 80 18 3e
       1.0151993 0.07519723 0.5977296 0.1489261
000040 b5 0c 64 3d f1 ce 36 be 60 3b c3 bd b6 f7 4e 3b
       0.05567618 -0.1785238 -0.09532809 0.0031580753
000050 f9 b2 c5 3d 99 d3 01 3e 18 a7 43 bb 64 07 30 be
       0.09653277 0.12678374 -0.0029854234 -0.1719032
000060 17 5e 76 bd d7 41 d3 3c 29 4e 1a 3e 89 1b d8 bc
       -0.060148325 0.02578823 0.15068878 -0.026380317
000070 65 32 8f 3e 33 21 f5 bd 87 7a 19 be 10 28 dc bd
       0.27968135 -0.11969223 -0.14988147 -0.10749829

output.weight f4 [1, 32]
000000 fb 8f 5f bf c2 5b 63 bf 7a ed 4e 40 ed 17 70 bf
       -0.8732907 -0.88811886 3.2332444 -0.9378651
000010 e4 d1 89 40 28 4f 4b 40 f1 f3 86 bf 87 fe 89 40
       4.3068714 3.1767063 -1.0543195 4.31232
000020 b8 ee 75 bf 08 6a 5d bf 98 5e 1d 3d 36 da 5c bf
       -0.9606738 -0.86489916 0.03842029 -0.86270463
000030 ac 12 5c 40 5b ff 46 bf 40 81 f6 3f 84 da 47 bf
       3.4386396 -0.7773339 1.9258194 -0.78067803
000040 b9 c6 07 3e e7 e6 76 bf 0c 50 89 bf 4f 34 65 bf
       0.132594 -0.9644608 -1.0727553 -0.8953294
000050 04 e7 6d bf 3b 2c d4 3f 3e bf 7b bf a7 f9 6c bf
       -0.92930627 1.6575998 -0.9833869 -0.9256844
000060 aa 09 e0 bd 7e 6c 55 bf 5b 55 4f bf a1 8f 74 bf
       -0.10939343 -0.8336867 -0.8098962 -0.9553166
000070 c7 49 af 40 21 ab 52 bf d7 0c 8a bf ae 23 65 bf
       5.477756 -0.8229237 -1.0785168 -0.8950757
