Models/OU_network/tau_0.5theta_0.1/target_Q_network.pt (torch, 7263 bytes, 5 tensors)

layer1.weight f4 [32, 4]
000000 18 07 a7 be aa b5 81 c0 7b 50 6c bf fd 36 92 be
       -0.326226 -4.053426 -0.92310303 -0.28557578
000010 8a e3 13 3f be 85 19 be c0 45 e1 bd 8f c9 23 bd
       0.5776907 -0.14992425 -0.10999632 -0.039987143
000020 12 d9 6f bf 78 24 23 40 aa 72 21 3f bd c8 2e 3e
       -0.936906 2.5491009 0.6306559 0.17068763
000030 5e ba 28 c0 16 fc bd 3f c8 bf 1d 3f 0e d5 fc 3d
       -2.636375 1.4842556 0.6162076 0.123453245
000040 1e b7 ab bf 53 48 1e 40 64 a0 93 3e fa df 0b 3e
       -1.3415258 2.4731643 0.28833306 0.13659659
000050 69 e8 bf be 28 e3 07 40 9e ff ee bc 42 77 8a 3c
       -0.37482002 2.1232395 -0.029174622 0.01690257
000060 f2 6a 0e c0 4e e3 e7 3f 16 3e 18 3f 14 c1 20 3e
       -2.2252774 1.8116243 0.59469736 0.15698653
000070 d0 c5 53 3e 85 17 32 3f 96 91 46 bd a4 93 8d 3d
       0.20680928 0.6956714 -0.048478685 0.06912926
000080 64 5f 5d 3f 3e b8 6b 3f f7 11 0b 3e 29 f4 f2 3d
       0.8647368 0.92078006 0.13581072 0.11862976
000090 24 4c 22 c0 a0 79 ad 3d 37 41 b3 bf f1 08 f9 be
       -2.5358973 0.08470464 -1.4004277 -0.48639634
0000a0 84 2f af bf dc 80 fd 3f 85 05 f7 bc 38 b2 04 be
       -1.3686376 1.980495 -0.030154 -0.1295861
0000b0 09 65 e9 bf ea 0e a3 3e a2 27 0a 3f 58 a4 e5 3d
       -1.8233958 0.31847316 0.53966725 0.11212987
0000c0 57 2d c1 bf 8e 8b 1b c0 0a eb 16 bf 64 03 45 be
       -1.5091962 -2.4303927 -0.5895239 -0.19239575
0000d0 95 f4 0a bf 06 84 7c 3e 8a b3 86 3e 28 7a 74 3d
       -0.5427945 0.24659738 0.26308852 0.05968681
0000e0 f0 ff 12 bf bc ec ec bf 42 09 e1 be 56 f1 08 be
       -0.5742178 -1.8509746 -0.43952376 -0.13373312
0000f0 8f 6a d3 bf 9a b5 ca bf cc 71 08 bf 2e 72 11 be
       -1.6516894 -1.583667 -0.5329864 -0.14203712
000100 66 1c e9 bf a6 80 8d bf 58 60 fa be ed a9 0a be
       -1.8211792 -1.1054885 -0.4890163 -0.13541384
000110 c4 2a ef bf de 04 06 40 53 61 07 3f c6 10 77 3e
       -1.8684926 2.094047 0.5288288 0.24127492
000120 f8 71 8d be 9e 4a 3c bf 0e 56 a3 be e7 4a 83 bd
       -0.27626014 -0.73551357 -0.31901592 -0.06410771
000130 65 c8 01 c0 fe f4 12 40 06 09 22 3f 28 86 d4 3d
       -2.027856 2.2962031 0.6329502 0.10377151
000140 46 50 14 3f 48 6c e4 bf e0 06 8e be e6 c3 d0 bd
       0.5793499 -1.7845545 -0.2773962 -0.10193615
000150 0f 5b 31 bf 0d 4f ac 3e 05 90 47 be 6e a3 8a bd
       -0.6927957 0.3365406 -0.19488533 -0.06769453
000160 4b 85 5a be a0 00 90 bf 0d e5 da be 1d d1 08 be
       -0.2133991 -1.1250191 -0.42752877 -0.1336102
000170 42 e9 fa bf 69 eb c1 3f 5c 82 91 be f2 da 25 be
       -1.9602435 1.5149966 -0.2841977 -0.16196802
000180 ea 21 58 3f 95 80 37 3e 28 43 b3 3c 6e ac 74 39
       0.8442675 0.17920144 0.021882609 0.00023333888
000190 26 aa cc bf 51 10 18 40 13 58 24 3f d7 63 0d 3e
       -1.5989425 2.3759959 0.6419689 0.13807617
0001a0 68 ea 00 c0 38 37 6f 3f 1a 8d c9 3e 9c 0b 32 3e
       -2.014307 0.9344363 0.39365464 0.17387241
0001b0 d4 b1 da 3f 64 11 9c 3f b2 1d c5 bd 56 ff 15 be
       1.7085519 1.2192807 -0.096248046 -0.14648184
0001c0 a9 71 bb bd 14 ef 9e 3f 58 04 68 3e 1c e0 14 bd
       -0.09152538 1.2416711 0.22657907 -0.03634654
0001d0 82 d4 87 3f 90 f9 ce 3f 81 85 a9 3e a8 18 ab 3e
       1.0611727 1.616991 0.33109668 0.3341725
0001e0 24 0c 29 bf 95 b0 e6 3e 2c eb 7e be 1a d1 9f 3c
       -0.6603415 0.45056596 -0.24894398 0.019508887
0001f0 03 67 76 3f 10 80 f0 3e 87 68 35 be be e9 2d be
       0.96250933 0.46972704 -0.17715655 -0.16983697

layer1.bias f4 [32]
000000 56 c3 68 bf ef a3 85 3f e1 be 95 3e fd c1 c0 3f
       -0.9092306 1.0440654 0.29247192 1.50592
000010 f2 72 41 3f 44 20 75 3f b0 17 87 3f 1c b4 8d 3f
       0.7556602 0.9575236 1.0554104 1.107059
000020 30 3f 87 3f b8 f0 aa 3e 3a 74 05 3f 40 f6 05 3f
       1.0566158 0.3338678 0.5213047 0.5232887
000030 db 43 31 3f de a4 af 3f fb ff 9e bc 00 11 87 3f
       0.69244164 1.3722188 -0.01940917 1.0552063
000040 f2 94 af 3f 0a df 9a 3f ce 8f 89 3f 85 aa 3b 3f
       1.371733 1.2099316 1.0747011 0.7330707
000050 aa d7 96 be 17 87 97 3f 04 2e c5 3f 42 bb 03 3f
       -0.29461414 1.1838101 1.5404668 0.5145761
000060 26 c6 2b 3f 76 9a 60 3f 32 39 a8 3f fe 73 a7 bc
       0.67099226 0.8773569 1.3142455 -0.020441052
000070 90 6a 3c 3f 6a 65 61 3f d9 9f b6 3f 80 69 69 3f
       0.736001 0.8804537 1.4267532 0.91176605

layer2.weight f4 [32, 32]
000000 48 d9 8f 3f 17 53 53 be 94 72 b7 3f 16 70 d0 bd
       1.1238184 -0.20637165 1.4331841 -0.10177629
000010 46 55 ca 3b bd a6 79 3d ba 47 ca be 66 6b 45 3d
       0.006174716 0.06095003 -0.39507848 0.048198126
000020 a8 17 61 3f 21 67 77 be 4c d5 ab 3e 50 42 4d 3f
       0.8792672 -0.24160434 0.3356117 0.8017931
000030 4a 66 f2 3d e5 af ff 3e 68 73 77 3f d1 d2 2d 3d
       0.11835916 0.49938884 0.9666047 0.04243738
000040 d1 c3 c1 3d 1a b7 76 3f 11 0a 89 be b6 d9 82 bb
       0.09461177 0.9637314 -0.26765493 -0.0039932383
000050 0e 3b 00 3f 3e 74 3b 3f 58 74 86 be e0 45 34 3f
       0.5009011 0.73224247 -0.26260638 0.7041912
000060 38 ed 16 3f 10 58 ad 3f d8 6f 68 3c 12 0a a0 3f
       0.5895572 1.35425 0.014186822 1.2503073
000070 56 83 f2 3e 84 e5 92 3c e6 b7 d8 3e fe 84 bc be
       0.47365826 0.017931707 0.42327803 -0.36820215
000080 04 96 8a 3f 10 4b 77 be 54 66 a0 3f ff db 38 be
       1.0827031 -0.24149728 1.2531228 -0.18052672
000090 20 88 0d be 64 2a 4a 3c ed 12 ad be e4 e6 1d 3e
       -0.13821459 0.012339208 -0.33803502 0.15420109
0000a0 1c 44 44 3f 66 47 86 be d8 ed 02 3e 4c 4e 7b 3f
       0.76666427 -0.26226348 0.12786043 0.98166347
0000b0 ff 7f 9e 3e 04 64 fc 3e ee d6 3a 3f 5f 93 eb 3d
       0.30957028 0.49295056 0.72984207 0.11502718
0000c0 f2 54 38 3c 66 99 5c 3f e2 d1 44 be b8 29 95 be
       0.011250721 0.8617157 -0.19220689 -0.2913339
0000d0 8c 78 29 3f ae 8d 26 3f 22 cb 47 be e2 c8 64 3f
       0.66199565 0.65059936 -0.19511083 0.8936902
0000e0 bf 31 47 3f 6c c8 b7 3f f5 bb 37 3e 6e 12 99 3f
       0.7781028 1.4358039 0.17942794 1.1958749
0000f0 59 3f 04 3f 18 99 18 3d 0b a4 9a 3e 4c 5a d1 be
       0.5165916 0.037255377 0.3020328 -0.40889204
000100 c0 88 14 c1 7c 0a d2 3e a1 7e 20 be d2 7b a7 3f
       -9.283386 0.41023624 -0.15673305 1.3084662
000110 c6 17 20 3f 75 31 81 3d a0 40 ba 3f 3c 9c 1f 3f
       0.62536275 0.06308261 1.4550972 0.6234777
000120 67 b3 30 3e f4 80 0b c0 20 7b 9a be d7 34 ce 3e
       0.17255937 -2.1797457 -0.30172062 0.4027469
000130 a2 74 15 c0 82 14 88 3f 26 ac c0 c0 5c d6 30 c0
       -2.3352437 1.0631258 -6.021014 -2.7630835
000140 a8 15 2b c0 36 4d 7e 3f ba 1e 56 3f 80 f6 db 3f
       -2.6731968 0.99336565 0.83640635 1.7184601
000150 e3 78 af bf 1e 3d 06 c0 b8 00 78 3f 63 02 2f c0
       -1.3708767 -2.0974803 0.96876097 -2.7345207
000160 6a 12 46 3f 1c 35 1d 3f c5 14 87 3f 06 b1 39 3e
       0.7737185 0.61409163 1.0553213 0.18133935
000170 90 6b 12 be c5 16 35 be af c2 8b bf 50 4a 67 3f
       -0.14298844 -0.17684467 -1.0918788 0.90347767
000180 7c e2 8a 3f 66 40 5c be 22 4a c5 3f c2 cf 95 be
       1.0850368 -0.21508941 1.5413249 -0.2926007
000190 ee ca 58 3d 27 98 87 bd f9 6f 82 be 34 1b f7 3d
       0.052927904 -0.06620818 -0.25476053 0.120657355
0001a0 1c f4 77 3f 93 39 74 be 88 08 c3 3e f6 ee 33 3f
       0.96856856 -0.23850088 0.38092446 0.702865
0001b0 36 52 2a 3e 88 48 18 3f b3 8d 82 3f b5 92 d0 bc
       0.16632923 0.59485674 1.0199493 -0.02546058
0001c0 92 8f 6a 3e 5a ee 72 3f 0c d0 11 be 7a 3a 89 bd
       0.2290633 0.94894946 -0.1423952 -0.06700607
0001d0 be 9d b5 3e 2a 21 07 3f c1 4a d1 be d0 c7 5a 3f
       0.3547191 0.5278498 -0.40877345 0.8546114
0001e0 55 6c 04 3f 92 f6 b7 3f 18 ab 21 3e e2 8e 5e 3f
       0.517278 1.4372122 0.15787923 0.8693677
0001f0 84 7b 18 3f 67 65 77 be 3a cd 07 3f 9c 35 69 be
       0.5956347 -0.24159776 0.53047526 -0.22774357
000200 8a ad 43 bf e7 1b 38 3f 6e cd 47 c0 3e bd ab 3f
       -0.76436675 0.71917576 -3.1219134 1.3417127
000210 0e fb a0 bf d2 e3 50 bf 4c e3 be 3f d1 05 47 3f
       -1.2576616 -0.81597626 1.4913116 0.7774325
000220 c0 d9 91 3b b8 95 ef bf ea 00 5d be 52 d4 fe 3f
       0.0044510067 -1.8717566 -0.2158238 1.9908545
000230 fd ad b9 bd 1c 51 8b 3f ba 68 6f be 50 97 a6 be
       -0.09066389 1.0884128 -0.23379794 -0.32537317
000240 fb 5a 0e bf 70 6c 48 bf 8c 96 bc 3f b8 f4 d0 3e
       -0.55607575 -0.7829046 1.4733443 0.40811706
000250 e1 b5 84 3e ac 2c a2 be 88 cf d4 3f 63 66 bd bf
       0.25920013 -0.31674707 1.6625834 -1.4796871
000260 c8 b9 17 3f 8a 04 0b c0 ca 37 ad 3f 61 04 9e 3f
       0.59267855 -2.172152 1.353265 1.2345086
000270 f3 7f bd bf 43 54 0d c0 96 a8 98 3f 14 4b 78 3f
       -1.4804672 -2.208268 1.1926448 0.9698956
000280 5e b9 93 3f 27 69 a8 be 07 01 85 c0 88 76 49 c0
       1.1540945 -0.32892725 -4.1563754 -3.1478596
000290 3c 24 0f 3f a2 05 6b 3e 5c 5a 70 c0 d8 fb e6 bd
       0.55914664 0.22951367 -3.755515 -0.11278504
0002a0 9c a9 6d bf 6d 75 6a 3f a8 24 27 3e 2e f2 10 bf
       -0.9283693 0.9158543 0.16322577 -0.56619537
0002b0 60 72 ad 3f fa b5 43 c0 f3 e7 9b 3d 8f 34 a7 3f
       1.355053 -3.057982 0.076126 1.3062915
0002c0 be 08 93 3f 35 25 a2 c0 20 32 1b 3d f8 2e a5 c0
       1.1487043 -5.067042 0.0378896 -5.1619835
0002d0 ac bf 5a 3e 5e fb 1a 3f 3a 5d c6 bc 27 35 8e 3f
       0.2136218 0.60539806 -0.024214376 1.1109971
0002e0 4a 17 35 be 34 87 b0 c0 90 3a 25 c0 64 90 10 bf
       -0.17684665 -5.5165043 -2.5816994 -0.5647032
0002f0 54 97 56 be 94 fc a6 3f 94 4b 2f 3f 22 1d b1 be
       -0.20956165 1.3045831 0.684747 -0.3459254
000300 64 1d 61 3f f7 53 17 be 1e 57 c2 3f e6 01 67 be
       0.8793547 -0.14778124 1.5182836 -0.22559318
000310 b2 3d 4c be 28 ab 2a bc a6 91 85 be 14 12 a4 3d
       -0.1994541 -0.010416783 -0.26087683 0.08011261
000320 44 37 5c 3f 4e ed 25 be e4 c0 27 3e 3c 96 71 3f
       0.8602183 -0.16203806 0.16382176 0.94369864
000330 ec a1 59 3d 58 e4 1f 3f 72 6c 87 3f 57 be f2 bd
       0.053132936 0.624578 1.057997 -0.11852711
000340 e5 00 62 3e 84 d7 6f 3f 6f d8 86 be 28 cc bf be
       0.22070654 0.93688226 -0.26337 -0.37460446
000350 9e c2 16 3f b9 d9 db 3e ac c9 a3 be c0 f1 6a 3f
       0.5889071 0.42939547 -0.319898 0.9177513
000360 ee 3d 0f 3f 64 e0 b4 3f 66 7c 30 3e 80 65 8e 3f
       0.5595387 1.4130979 0.17234954 1.1124725
000370 76 bb c7 3e 41 13 78 be 68 a7 f1 3e 1a 85 cb be
       0.3901021 -0.24226095 0.47198033 -0.39749986
000380 ea 76 37 c1 7c 94 a8 3f 5e cc 8b bf 10 d7 d5 3f
       -11.466532 1.3170314 -1.0921743 1.6706257
000390 bb 8b 29 3f 5c 29 6c 3f a0 89 c4 3f dc fe 63 3f
       0.66228837 0.9225061 1.53545 0.8906076
0003a0 4a b9 8c 3f 52 b3 c5 3f 5e 22 35 3f 20 f2 6b bf
       1.0994046 1.5445349 0.70755565 -0.9216633
0003b0 70 2b 8a c0 f1 e1 9d bd 4a f8 8a c0 88 4b 53 c0
       -4.3178024 -0.077091105 -4.3428087 -3.301485
0003c0 08 95 0c c0 85 f1 f2 3d 84 19 9b 3e f3 7d e7 3f
       -2.1965961 0.118624724 0.30292904 1.8085312
0003d0 be fb 3a c0 d2 0e 97 be c2 ce 6f 3d bc 13 aa 3d
       -2.9216151 -0.29503495 0.05854679 0.08304545
0003e0 c4 1a 81 3f 38 8b 87 be 0a a5 77 3f be 9b dc be
       1.0086293 -0.26473403 0.96736205 -0.43087572
0003f0 c0 b1 5b 3e a8 67 7f 3d 22 11 fe bf b0 08 b6 3f
       0.21454525 0.062354714 -1.9848979 1.4221401

layer2.bias f4 [32]
000000 92 e3 1a be 66 df ac bd 68 e8 9b 3e 6a 44 c5 3c
       -0.15125874 -0.08441047 0.3045075 0.024080474
000010 41 80 8e 3f de 20 0f 3f 25 7c 2a bd 7f 0c 1f 3f
       1.113289 0.55909526 -0.0416223 0.6212844
000020 b8 e9 9f ba 44 91 8f bd 9c 99 29 bd 9c da 02 be
       -0.0012200391 -0.07010129 -0.04140626 -0.12778705
000030 14 f3 81 3f c9 ec 99 3d da 06 19 3f f8 75 18 3e
       1.0152307 0.07515866 0.5977608 0.14888752
000040 b6 0c 64 3d 0e d9 36 be 96 4f c3 bd 9e 70 4c 3b
       0.055676185 -0.17856237 -0.09536664 0.0031195055
000050 c1 9e c5 3d 3e d4 01 3e 2a 2e 46 bb 80 11 30 be
       0.096494205 0.1267862 -0.0030239918 -0.17194176
000060 16 5e 76 bd f6 f0 d2 3c 0c 44 1a 3e 6a 6c d8 bc
       -0.06014832 0.025749665 0.1506502 -0.026418883
000070 60 32 8f 3e 6b 35 f5 bd a2 84 19 be 46 3c dc bd
       0.2796812 -0.11973079 -0.14992002 -0.10753684

output.weight f4 [1, 32]
000000 c0 8e 5f bf 62 5a 63 bf 32 ed 4e 40 a8 16 70 bf
       -0.87327194 -0.8880979 3.2332273 -0.9378457
000010 26 d2 89 40 27 4f 4b 40 4c f3 86 bf 72 fe 89 40
       4.306903 3.176706 -1.0542998 4.31231
000020 69 ed 75 bf af 68 5d bf 98 5e 1d 3d ed d8 5c bf
       -0.96065384 -0.8648786 0.03842029 -0.862685
000030 ec 12 5c 40 fb fd 46 bf 60 81 f6 3f 46 d9 47 bf
       3.438655 -0.77731293 1.9258232 -0.7806591
000040 ba c6 07 3e b4 e5 76 bf 71 4f 89 bf e8 32 65 bf
       0.13259402 -0.9644425 -1.0727369 -0.895308
000050 cf e5 6d bf 58 2a d4 3f 0a be 7b bf 58 f8 6c bf
       -0.92928785 1.6575422 -0.9833685 -0.9256644
000060 aa 09 e0 bd 3c 6b 55 bf 08 54 4f bf 5e 8e 74 bf
       -0.10939343 -0.8336675 -0.80987597 -0.95529735
000070 96 49 af 40 d8 a9 52 bf 38 0c 8a bf 83 22 65 bf
       5.4777327 -0.8229041 -1.0784979 -0.89505786
