Models/target_network/tau_0.75/policy_network.pt (torch, 7119 bytes, 5 tensors)

layer1.weight f4 [32, 3]
00000000: 68b8 b0bf f567 64bf 9d26 31be f816 28bf
00000010: 83be ad3f 65b9 8d3e 92a0 3c3f 257e c1be
00000020: bc9e d3bd e39a ba3e bab5 5ebf 20d2 2abe
00000030: 588e e63d a6db 98bf d2f1 44bc 06e5 893e
00000040: d0e1 b6bf 8555 e6be 9275 59bf 7585 0b40
00000050: 87c4 e63e d14e 93bf 3cab a5bf e3bb 5bbf
00000060: 00b0 17bf 09aa bcbf f0e2 ddbe 414f 213f
00000070: dd77 de3e 0fdd 373f 77e2 8bbf b01a 873f
00000080: 6e83 c83d eaf4 0e3f f503 b13d 4815 c33d
00000090: 63de 983f ad5d b93d d683 a3be d8c6 433e
000000a0: a597 7c3e 8aaf 183d d448 8f3f 4585 b03e
000000b0: bfe2 ba3e 746c a0bf 595a 3e3f d8fc 493f
000000c0: e459 d8be 47b7 18bf 5a07 953d 3c5e 333d
000000d0: f845 c0bd 756b 48bf bd07 24bf 5c1c 21bf
000000e0: e5be 753e ddde 13bd 1814 bb3e e67b 80bf
000000f0: d0ac 43bf e6fe 0040 7fbe 213f 9154 323f
00000100: 248f 07bf db12 383f ea60 083e a882 c93e
00000110: c965 d0bd ff4c b6be 1ea0 823f 7a38 503e
00000120: 8036 c93f 80e9 84bf c69c 31be ad1e c13e
00000130: 21ca 133e f18e 30be 4324 2b3f 3e54 bebe
00000140: 8513 76bd f20a c93f f955 cabd 1a80 e53e
00000150: 4993 043f 81ca b7bf 8f4e 17be 66a3 643f
00000160: 7ca7 a3be aa21 62bf 9414 a73f 48fb 73be
00000170: 42ee 8d3e 753c 6abb 3090 a03f 9d29 ba3d
-1.3806276 -0.89221126 -0.17299886 -0.6566005 1.3573765 0.27680507 0.7368251 -0.37791553
-0.103330106 0.36446294 -0.8699604 -0.16681719 0.11257619 -1.1942031 -0.012020545 0.26932544
-1.4287663 -0.4498712 -0.84945023 2.1800206 0.45071813 -1.1508428 -1.2942882 -0.8583357
-0.5925293 -1.4739391 -0.43337202 0.63011557 0.43450823 0.71821684 -1.0928487 1.0555019
0.09790693 0.5584246 0.08643333 0.095255435 1.1942867 0.0905107 -0.3193652 0.19118822
0.24667223 0.037276782 1.11941 0.34476677 0.3650112 -1.2533097 0.7435661 0.78901434
-0.4225608 -0.5965466 0.07276793 0.04379104 -0.093883455 -0.78288966 -0.6407431 -0.629339
0.23998602 -0.03610121 0.36538768 -1.0037811 -0.76435566 2.0155578 0.631813 0.6966029
-0.5295279 0.7190377 0.1331822 0.39357495 -0.10175664 -0.35605618 1.0205114 0.20334044
1.5719757 -1.0383759 -0.1734496 0.37718716 0.14432575 -0.17242028 0.66852206 -0.37173647
-0.06007721 1.5706465 -0.09879679 0.44824296 0.5178724 -1.4358674 -0.14776061 0.89311826
-0.31963718 -0.8833262 1.3053155 -0.23826325 0.2772084 -0.0035741602 1.2544003 0.09089968

layer1.bias f4 [32]
00000000: 9fd8 56bc 9bbd c83e 89be 63bf de3b 463f
00000010: 09a6 5bbe e7f9 393e eb5b e43e 793e 313f
00000020: 8afa b33d 70f3 013d 07bb 483f 64f8 6abf
00000030: ccae 69bf f93b 19bf 53ff 00bf ff2c 053f
00000040: 3330 763f 41b6 183f 9d81 bfbe 29a5 49be
00000050: 6e03 ce3e c50d 4e3f 9b97 533f 33a0 f83e
00000060: 1c35 bf3d 3d32 513f 80ed 843f 154c 383e
00000070: 6da7 e83e 4704 ac3e a279 26bf dc27 9ebb
-0.01311317 0.39207157 -0.8896261 0.774351 -0.21450056 0.18161736 0.44601378 0.6923595
0.08788021 0.0317263 0.7841038 -0.91785264 -0.91282344 -0.59857136 -0.50389594 0.52021784
0.96167296 0.596531 -0.37403575 -0.1969191 0.40236992 0.8048976 0.82653207 0.48559722
0.09336302 0.8171728 1.0384979 0.17997773 0.45440236 0.33597013 -0.65029347 -0.004826529

layer2.weight f4 [32, 32]
00000000: 7528 d7be 3f64 6bbe 9c84 933f d765 bb3d
00000010: 2d09 c4be 48f4 873d d902 b2bd 0fda 533e
00000020: 5ec0 bf3e 11cd 073f 36aa 1b3f bedb e03f
00000030: 9156 fdbe d848 8dbe d14f 033e 79d0 e23d
00000040: 5cda ad3d 0639 b03e 5a13 c23e e7e6 023e
00000050: 418d ffbd 5cf4 76bd 87ba 00bc 0819 0d3f
00000060: 542c 8fba e151 463c 8fc9 6a3b 7efb 38bc
00000070: 3a97 d33d 67e8 03bd e333 9fbe d29e 203f
00000080: 3377 ad3e a180 1f3e 2b15 0ebf d27f 083e
00000090: 345a 6d3e e659 b5be 056b fe3e 7ddf 54be
000000a0: 20c2 88be c1c2 44be 3af0 b0be 22e1 f6bf
000000b0: 0d5e 163f a742 783e 749b 85be 06ff 4fbd
000000c0: b0ca 8e3e 3045 b3bc cefb d5be c06a 06bf
000000d0: 1d19 0f3e 9c25 c53d b858 3a3e 9ebe 60be
000000e0: 9538 8e3e b10a 953e 5a2e 813e f2d7 903d
000000f0: 4641 3cbe 7f6c 6e3d e9a8 153f 70a3 96be
00000100: 3834 3bbe 5b5d 0e3e 1deb 29bc df59 00bf
00000110: 9478 ca3c cb73 c8bd 0b87 76bc e686 95be
00000120: 5bda df3d a831 c03d 6c8b 68be 69a2 983e
00000130: 1631 80be a5ca d73e 16ab 3a3e cdb6 05bd
00000140: 63d6 a6be 3c3f 58be e980 30bc 80bc 1dbd
00000150: 5113 f7bd 42da bfbe 1b33 c5bd e57b 403d
00000160: 71ac 28bf 353f 99be 5514 fbbe 6356 093d
00000170: c259 b2bd cd83 64be f15b c7bd 0cfa b53d
00000180: d08c 1dbe 9942 e2bd 8e8c 363d c3eb 0abe
00000190: e56b c23e 6ada 963d d9e9 68bd d21c 38be
000001a0: fc59 163e 0c4e 32be 12c6 9abe 0247 99bc
000001b0: 601a 4cbe 02da cc3d da4c d23d b42a f2bd
000001c0: 632b e13c fed3 2d3d 2dc2 9a3e fbcd 003e
000001d0: 7d1d edbd 4ad2 3e3d 07df 03bf df79 61be
000001e0: 6ff8 c43d 6a68 d9bc c0da 9bbe 0571 15be
000001f0: 4aaf 203e 2a3f 0bbe c2a8 683d d0eb 3c3d
00000200: aa49 a0be 79fe b9bc ed19 273f 770f aa3e
00000210: d10f 16bf fb16 363f 9734 e5be d7c8 813d
00000220: f7b9 143e fd57 c13e d23b a53e f2cd db3f
00000230: 205f 38bf 897d 1b3e 5914 b03e f204 1b3d
00000240: 4b69 a93e c65b 9f3d 9414 aa3e d0f7 883e
00000250: 00a3 58be b939 e63e aba6 703e 0279 8f3e
00000260: 0db1 a73c 7793 1cbe 9fd2 8a3e 319f 43be
00000270: 1c0b 2f3e a89e 35bd c070 1abf 58b7 0f3f
00000280: 9f02 bdbe 8337 22be b659 873f 2669 293e
00000290: 16ef 95be 3795 193e f93e 52be daff 873e
000002a0: 8ef6 453e 8d82 803e 8613 f83e 2951 1440
000002b0: 9ad6 00bf 8d9a 2dbe 8a98 123f a7c8 c03d
000002c0: 3cc5 aa3d bc48 883e e3f6 ed3d 3a25 b1bc
000002d0: 4932 b6bd ed84 043d b42a b53d e622 ae3e
000002e0: 7708 853d e55f 30be f72b 79bd 5090 6d3e
000002f0: 0521 ae3e 4e1b 113e c99e 80be 0990 203f
00000300: 5c10 05bf 4e30 c2bd 5322 0fbf 9d16 bc3d
00000310: eda4 a6bf b7e0 a6bf 7dca 813e e48b 25bf
00000320: 2de1 91bf 88a9 a1be ce89 0d3f 4306 12bf
00000330: 08d4 803e e554 18be 7a58 3dbe a496 a83e
00000340: 036d 40be 0c51 273e 47ea 47be d49e 783e
00000350: 8ee8 f3bc 2f36 e0be 33a8 99bd 0437 543e
00000360: 58eb 403e b1f4 f5bc 8b38 1d3e a489 e23e
00000370: cb65 583e e498 c93e 8ecc 91bd 47e2 c23c
00000380: 13c3 66bf a4b8 b03c 72a5 ae3f b1d5 1cbe
00000390: 8807 ce3e c2c8 f63d dfbb bbbd 6a96 c03d
000003a0: b361 c33e 1f95 293d 7971 973e 9467 1a3e
000003b0: 9333 6c3e 7fcc e03c 5407 d53e e719 7a3e
000003c0: feb4 223e 5237 35be 8abc cd3e c1dd 3d3e
000003d0: 0aed bf3d c7cb 243e 5fbe 89be df54 9bbe
000003e0: 5142 763e aa8e 003e cbde 01bd 842c 5ebd
000003f0: 6255 523e 2f8c 83be fc2e 073f 9d29 3fbe
-0.42023054 -0.2298746 1.1524844 0.09150284 -0.3828825 0.0663839 -0.086919494 0.20688652
0.37451452 0.5304728 0.60806596 1.756706 -0.49480107 -0.27594638 0.12823416 0.11074919
0.08488914 0.34418505 0.3790539 0.12783395 -0.12478114 -0.060291633 -0.007856972 0.5511632
-0.0010923245 0.012104482 0.0035825705 -0.011290429 0.103315786 -0.032204058 -0.31094274 0.6274234
0.33880004 0.15576412 -0.5550105 0.1333001 0.23178941 -0.3542015 0.49691024 -0.20788379
-0.26710606 -0.19214918 -0.34558278 -1.9287455 0.5873726 0.24244176 -0.26095164 -0.05078032
0.27889013 -0.021883577 -0.41793674 -0.5250664 0.13974424 0.09626314 0.18197906 -0.21947715
0.27777544 0.2910972 0.25230676 0.07072438 -0.18384275 0.05820894 0.5846086 -0.29421568
-0.18281639 0.139028 -0.010370997 -0.5013713 0.0247157 -0.09787711 -0.015046845 -0.29204482
0.1093032 0.09384471 -0.22709435 0.2981141 -0.2503745 0.42146793 0.18229327 -0.032645036
-0.3258544 -0.21117872 -0.010772922 -0.038509846 -0.12064231 -0.37471205 -0.09628888 0.046993155
-0.65888125 -0.29931036 -0.4903895 0.03352965 -0.08708526 -0.22315903 -0.09734333 0.08885583
-0.15385747 -0.11047859 0.044567637 -0.13566498 0.37972942 0.07365878 -0.05686364 -0.17979744
0.14682764 -0.17412585 -0.3022924 -0.018710617 -0.19931936 0.10002519 0.102685645 -0.11824551
0.027486509 0.0424385 0.3022627 0.12578575 -0.1157789 0.046587266 -0.5151219 -0.22019146
0.096176974 -0.026539046 -0.3044033 -0.14593895 0.15691867 -0.13598314 0.056801565 0.046123326
-0.313062 -0.02270435 0.65273935 0.33214924 -0.58617884 0.71128815 -0.44766685 0.06337135
0.14524065 0.37762442 0.32272202 1.7172225 -0.7202015 0.15184607 0.34390524 0.037846513
0.33088145 0.07781176 0.33218825 0.26751566 -0.2115593 0.44965914 0.23501079 0.2802201
0.020470167 -0.15290628 0.27113816 -0.19103695 0.17094082 -0.04434076 -0.6032829 0.56139135
-0.36916062 -0.15841489 1.0574253 0.16544017 -0.2928397 0.14998327 -0.20531835 0.26562387
0.19332334 0.25099602 0.48452395 2.3174536 -0.50327456 -0.16953488 0.57264006 0.094132714
0.08338401 0.26617992 0.116193555 -0.021624196 -0.0889631 0.03235333 0.088460356 0.34011
0.06495755 -0.17224081 -0.060832944 0.23199582 0.34009567 0.14170572 -0.25121143 0.6271978
-0.5197809 -0.0948187 -0.5591175 0.09184001 -1.3019081 -1.3037328 0.253498 -0.6466658
-1.1396843 -0.31574655 0.552884 -0.57040805 0.25161767 -0.14876135 -0.18490782 0.3292743
-0.18791585 0.1633951 -0.19522963 0.24279338 -0.029773977 -0.4379134 -0.075027846 0.20724112
0.18839777 -0.030023905 0.153536 0.44245636 0.21132581 0.3937446 -0.07119094 0.023789538
-0.9014141 0.021572419 1.364424 -0.15315892 0.4024012 0.1205001 -0.09166693 0.09403689
0.38160476 0.04140198 0.2957876 0.15078574 0.23066549 0.027441261 0.41607153 0.24423943
0.15889356 -0.17696884 0.40182906 0.18541624 0.093713835 0.1609336 -0.26903054 -0.3033819
0.24048735 0.12554422 -0.031706613 -0.054241672 0.20540383 -0.2569289 0.5280607 -0.18668218

layer2.bias f4 [32]
00000000: a71c 7e3c 673a b53e 37d3 c0be de0b b8be
00000010: 0fab 063e ddfe c5bd 3a16 d5bd 7d6e a6be
00000020: 6dec c33d 03d5 43be ba62 623e 2918 09be
00000030: 08ce 5a3e c022 4cbc 6a85 f13c 7b92 3e3c
00000040: 74bf 233d 6fc7 893e d18f 233e d86b ed3e
00000050: 97e2 fdbd 96eb 3d3e 3bbe d6bd b1cc 213e
00000060: fcda a6bd f7c8 2fbc 0491 253e fad6 c5ba
00000070: 274a 293d 9ffc dcbd 9d80 283d cade 673e
0.015509761 0.3539612 -0.37661144 -0.35946554 0.13151191 -0.09667752 -0.1040463 -0.3250617
0.09566579 -0.19124226 0.22107974 -0.13388123 0.21367657 -0.012459457 0.029482562 0.011631603
0.039977506 0.26909968 0.1597283 0.4637134 -0.12396734 0.185469 -0.10485502 0.1580074
-0.08147237 -0.010729066 0.161686 -0.0015093975 0.041330483 -0.10790371 0.04113828 0.22643581

output.weight f4 [1, 32]
00000000: e254 21bf 345d 043f 981c d83e 7be6 f03e
00000010: 85e5 6cbf cfbb 00bf 85c4 a1bf 3836 b2bf
00000020: ff2d 8a3f 0287 ecbd 640a e8be 232c bf3f
00000030: 3521 5c3f 8867 04be 4fd5 fd3e 9197 cb3f
00000040: f5b8 373f cc4c 2f3f 85d9 57bf 5ceb 943f
00000050: b611 1fbe 6430 cc3e 7d66 b13e fa20 1fbf
00000060: f014 43bf 7064 9ebf 05bb 013f 0cae e4bf
00000070: 02ad 22bf 6092 953f 5f51 c93e beb7 673f
-0.63020146 0.51704717 0.42209315 0.47050843 -0.9253772 -0.50286573 -1.2638098 -1.3922796
1.0795287 -0.11549188 -0.45320427 1.4935344 0.8598817 -0.12930119 0.49576804 1.5905629
0.717666 0.6847656 -0.84316283 1.1634326 -0.155341 0.3988067 0.34648505 -0.62159693
-0.76203823 -1.2374401 0.50675994 -1.7865615 -0.6354524 1.1685295 0.39319894 0.90514743
