Models/target_network/tau_0.75/policy_network.pt (torch, 7119 bytes, 5 tensors)

layer1.weight f4 [32, 3]
0	0x3eb88c08	0.36044335
1	0x3fe564d4	1.7921395
2	0xbed2461e	-0.4106912
3	0x3f5011e6	0.8127731
4	0x3eec55c2	0.46159178
5	0xbd98addd	-0.07455037
6	0xbf937d7c	-1.152267
7	0x3e972413	0.2951971
8	0xbf0b7cfc	-0.54487586
9	0x3f6e0efe	0.92991626
10	0xbefd7061	-0.494998
11	0xbee3fed3	-0.44530353
12	0xbed518b9	-0.41620424
13	0x3f0361ed	0.513213
14	0x3e3211e8	0.17389643
15	0x3ef23998	0.47309566
16	0xbf7447c4	-0.95422006
17	0xbe1e9ab9	-0.1548871
18	0xbebbeb7e	-0.36703104
19	0xbed4870c	-0.41509283
20	0xbefb0d12	-0.4903341
21	0x3f32d537	0.6985659
22	0x3d6ee2c6	0.058321737
23	0x3e87c130	0.26514578
24	0x3ca7852d	0.020449245
25	0x3f0f608e	0.56006706
26	0x3e958c89	0.29208782
27	0xbd4637c3	-0.048393022
28	0x3f8c4fac	1.0961814
29	0x3f5344a6	0.82526624
30	0xbe6a6397	-0.22889553
31	0x3e8634de	0.2621221
32	0x3f0819c8	0.5316434
33	0xbe8ab1c0	-0.27088737
34	0xbecc2205	-0.39869705
35	0xbf4b5965	-0.7943328
36	0x3e9b60cc	0.30347288
37	0x3fefe34d	1.8741242
38	0xbd09807f	-0.03356981
39	0xbe01af6a	-0.12664571
40	0xbfe13be5	-1.7596403
41	0xbe0eda51	-0.13950469
42	0xbfbdcd77	-1.4828328
43	0xbf814d5c	-1.0101733
44	0xbebda01a	-0.3703621
45	0xbf82a6e3	-1.020718
46	0x3ed50502	0.41605383
47	0x3d957c12	0.07299055
48	0xbf0e7192	-0.55642045
49	0x3f3dee61	0.7419186
50	0xbd4d8365	-0.050174136
51	0x3ef5a4f2	0.47977406
52	0x3efcb944	0.49360096
53	0x3e3a9915	0.18222459
54	0xbd5eaee2	-0.054366
55	0x3f98a155	1.1924235
56	0x3e8026c9	0.2502959
57	0x3f50b597	0.81527084
58	0x3eebe7d7	0.46075317
59	0x3eac484f	0.33648917
60	0xbe421a6f	-0.18955396
61	0x3dd323fe	0.10309599
62	0x3eba703b	0.3641375
63	0xbea92830	-0.33038473
64	0xbf9d4c8a	-1.2288983
65	0x3c013d7a	0.007888192
66	0x3c4899e0	0.012243718
67	0xbfb648ef	-1.4241008
68	0xbd151901	-0.0364008
69	0xbf1ffbec	-0.6249378
70	0x3f46e3b6	0.7769121
71	0x3f1f4ba9	0.62224823
72	0xbe3af1cb	-0.18256299
73	0xbf777c9a	-0.966745
74	0xbf10c212	-0.5654613
75	0x3e4fe99d	0.2030396
76	0x3f663bc9	0.89934975
77	0x3dfd613b	0.12372061
78	0xbfa87f72	-1.3163893
79	0xbe907746	-0.28215998
80	0x3e5d6674	0.21621114
81	0xbeb8d3e9	-0.36099175
82	0xbf8210d6	-1.0161388
83	0xbe8504b1	-0.25980142
84	0xbee143ed	-0.43997136
85	0xbedf4870	-0.43609953
86	0x3f0d0f6d	0.5510166
87	0x3eedf480	0.464756
88	0xbf3ac8e5	-0.7296279
89	0xbed8681b	-0.42266926
90	0xbc118e7d	-0.0088840695
91	0x3f9d8cf5	1.2308642
92	0x3e5103e1	0.20411636
93	0x3f33a32c	0.70170856
94	0xbf9d57a2	-1.2292368
95	0xbeb66714	-0.35625517

layer1.bias f4 [32]
0	0x3eedb8c9	0.46430042
1	0xbba3751c	-0.0049883258
2	0x3ea69d01	0.3254166
3	0x3e9137cc	0.28362882
4	0xbe096733	-0.13418274
5	0xbf1763b9	-0.5913654
6	0xbf4c8fe4	-0.7990706
7	0x3e13ee72	0.14446428
8	0xbf012079	-0.50440174
9	0x3f05f3a1	0.52324873
10	0x3ee35cd0	0.44406748
11	0x3f3fe99d	0.7496584
12	0x3e976ebd	0.29576674
13	0xbe8d802f	-0.2763686
14	0x3f1ddad0	0.61662006
15	0x3f4ce1ec	0.8003223
16	0x3f6d81aa	0.92775977
17	0xbe4e088a	-0.20120445
18	0xbe23aaad	-0.15983076
19	0xbf16f538	-0.58967924
20	0xbf638e33	-0.88888854
21	0xbec810f1	-0.39075425
22	0x3f1e70de	0.6189097
23	0xbeaf44c6	-0.34232157
24	0x3f5d48a8	0.8643899
25	0xbd59bdac	-0.0531594
26	0x3e6fb70f	0.23409675
27	0x3f0d1322	0.5510732
28	0x3d8d0c68	0.06887132
29	0xbe99b0d9	-0.30017737
30	0x3f459346	0.77177846
31	0xbe769fee	-0.24084446

layer2.weight f4 [32, 32]
0	0x3e5c7b70	0.21531463
1	0xbe20a4a2	-0.15687802
2	0xbd1cd158	-0.038285583
3	0x3e780a00	0.24222565
4	0xbf302527	-0.6880669
5	0x3e98b6ec	0.29827058
6	0x3e845c87	0.25851843
7	0xbd24fec3	-0.040282022
8	0xbebc5f2c	-0.3679136
9	0x3e8b81a8	0.27247357
10	0x3edc5e5c	0.4304074
11	0x3d9449d7	0.07240646
12	0x3f300acc	0.68766475
13	0xbf1c2306	-0.6099094
14	0xbd805939	-0.06267018
15	0x3ee63091	0.44958928
16	0x3ef08872	0.469791
17	0xbee2e607	-0.44316122
18	0x3ee77646	0.45207423
19	0xba7dbb8f	-0.00096791325
20	0x3de598e0	0.11210799
21	0xbf402f8f	-0.7507257
22	0xbeb47ca8	-0.35251355
23	0x3ebd6f0e	0.3699879
24	0xbd8450a4	-0.064606935
25	0xbdba94fb	-0.09110447
26	0xbc06ca64	-0.008226965
27	0x3d85e6a7	0.06538134
28	0x3eae837f	0.340847
29	0x3e2354e0	0.15950346
30	0xbdcfc59c	-0.10145113
31	0x3e716d88	0.23576939
32	0x3ec6ccec	0.38828218
33	0xbed031ce	-0.40662998
34	0xbc8ab109	-0.01693012
35	0xbe891987	-0.26777288
36	0xbf27ff58	-0.65624
37	0xbe7f6456	-0.24940619
38	0x3dbb3dba	0.09142633
39	0xbed6eb5a	-0.41976434
40	0xbda9e3b2	-0.082953826
41	0x3e6a34be	0.22871682
42	0x3ec9e39e	0.3943147
43	0xbef72f4d	-0.48278275
44	0x3f09775b	0.53697747
45	0xbea1ba52	-0.31587464
46	0x3e4c64bf	0.19960307
47	0x3e16fd0a	0.14744964
48	0x3ec6f385	0.38857666
49	0xbe740d16	-0.23833117
50	0x3e695ac4	0.2278853
51	0xbe371ebc	-0.17882818
52	0xbe2bd46b	-0.1678025
53	0xbe7ed1a3	-0.24884658
54	0xbea15296	-0.3150832
55	0x3e9adc99	0.30246428
56	0xbec52590	-0.3850522
57	0xbca8e792	-0.020618234
58	0x3e98adf4	0.29820216
59	0x3e72cf3a	0.23711863
60	0x3ea66b9d	0.32503977
61	0xbfac3d5d	-1.3456227
62	0x3dcd760b	0.100322805
63	0xbf92a2e9	-1.1455966
64	0x3e085c28	0.13316405
65	0x3d566af1	0.05234808
66	0x3ea2ea1e	0.31819242
67	0xbec4f98b	-0.38471636
68	0x3f0906b9	0.5352588
69	0xbf1ebafc	-0.62004066
70	0xbd38e809	-0.04514316
71	0x3e85e373	0.26150092
72	0x3f5bd48d	0.858712
73	0xbdfaec37	-0.12252086
74	0x3da23b7e	0.079215035
75	0x3b57f48f	0.0032952165
76	0xbee5029c	-0.44728553
77	0x3e9fe4fa	0.31229383
78	0x3efea6d3	0.49736652
79	0x3e558b42	0.20853904
80	0xbde696e1	-0.112592466
81	0x3f1a938d	0.60381395
82	0xbe355b72	-0.17710665
83	0x3ecda247	0.4016287
84	0x3e4e3dd2	0.2014077
85	0xbed72a4f	-0.42024466
86	0x3e96284c	0.2932762
87	0xbc1a14e5	-0.009404396
88	0x3e7413a6	0.2383562
89	0x3dccc42e	0.09998356
90	0x3ec3aee5	0.3821937
91	0x3dffb5d5	0.124858536
92	0x3e157ca4	0.14598328
93	0x3e16c7c7	0.14724647
94	0x3d961ac9	0.073293276
95	0xbc1f0b6c	-0.009707313
96	0xbcde5a4f	-0.027142672
97	0x3edeaa6b	0.43489394
98	0x3e1ed509	0.15510954
99	0x3eba139f	0.36343095
100	0xbed93cb8	-0.42429137
101	0x3f524cfd	0.82148725
102	0x3f14f091	0.58179575
103	0x3e8b2d76	0.2718312
104	0x3c12d82b	0.008962671
105	0x3e3a3ee0	0.18188047
106	0x3d8dda1c	0.06926367
107	0x3e0add8c	0.13561076
108	0xbed8c43a	-0.4233721
109	0x3e5ab8be	0.21359536
110	0xbedaf570	-0.4276538
111	0xbf2393aa	-0.6389719
112	0xbe1890ff	-0.14899062
113	0x3e1b2845	0.1515208
114	0xbf3d675c	-0.7398584
115	0xbeaa5666	-0.33269042
116	0xbece5853	-0.4030176
117	0x3f1dd78d	0.6165703
118	0x3e351572	0.17683962
119	0xbe236785	-0.15957458
120	0x3e7a15ca	0.24422374
121	0xbfc7df6d	-1.5615059
122	0xbf9fe670	-1.2492199
123	0xbce5fac4	-0.028073676
124	0x3d87b4cf	0.066262834
125	0x3ea15392	0.31509072
126	0xbe92344f	-0.28555533
127	0x3ed401d2	0.4140764
128	0xbe3a9910	-0.18222451
129	0x3ea995a9	0.33121994
130	0x3f53543d	0.8255041
131	0xbf6723de	-0.90289104
132	0x3edefe0f	0.43553206
133	0xbeef6b92	-0.46761757
134	0xbe8e1f38	-0.27758193
135	0x3ee17aac	0.44038904
136	0x3f02e673	0.5113289
137	0x3d7e8130	0.06213492
138	0xbcbd608b	-0.023117324
139	0x3ee46524	0.44608414
140	0xbedb93ad	-0.42886105
141	0xbdd07b65	-0.10179786
142	0x3eeeb546	0.46622676
143	0x3d527116	0.05137738
144	0xbe3bdd21	-0.18346073
145	0x3f2de273	0.6792366
146	0x3e672795	0.22573693
147	0x3f2a314c	0.6648147
148	0x3e1b6632	0.15175703
149	0xbfd90137	-1.6953496
150	0x3ea3f276	0.3202092
151	0xbdfbb006	-0.12289433
152	0x3e0f26d2	0.13979653
153	0xbe0dc7c3	-0.13845734
154	0x3ee78772	0.45220524
155	0xbd5a86be	-0.053351156
156	0x3e20ccbb	0.15703098
157	0xbf2fc884	-0.6866534
158	0xbd940288	-0.07227045
159	0xbf7ab5bd	-0.9793356
160	0x3eff4a94	0.49861586
161	0xbebb5573	-0.3658863
162	0xbe3efd38	-0.18651283
163	0x3d8aa48b	0.06769665
164	0xbf2abdfa	-0.6669613
165	0xbe775a99	-0.24155654
166	0x3dda36de	0.10654996
167	0xbe9681b2	-0.29395825
168	0xbec0019c	-0.37501228
169	0xbb413a41	-0.0029484185
170	0x3e9ee0c5	0.3103086
171	0xbf1f2609	-0.6216741
172	0x3f265610	0.6497507
173	0xbcbfd1de	-0.023415502
174	0xbe339e85	-0.17540939
175	0x3ea92aa1	0.33040336
176	0x3ee2a540	0.442667
177	0xbe8f57e1	-0.27996734
178	0x3de1a06b	0.110169254
179	0xbe87dd48	-0.26536012
180	0xbe25250b	-0.16127412
181	0x3d6b67eb	0.05747215
182	0xbe82b4a0	-0.2552843
183	0x3ee04227	0.4380047
184	0xbede512c	-0.43421304
185	0x3e2ddfb5	0.16979869
186	0x3e6bb8cf	0.23019718
187	0x3e5dd68a	0.21663871
188	0x3e9f2767	0.3108475
189	0xbfd4c7df	-1.6623496
190	0x3e023055	0.1271375
191	0xbf91fef7	-1.1405934
192	0x3e6fef21	0.23431064
193	0xbd45e256	-0.048311554
194	0xbe9f63c5	-0.31130806
195	0x3dbc5b64	0.09197119
196	0xbd8d677a	-0.06904502
197	0x3e5c2b60	0.21500921
198	0xbeb99fe6	-0.36254805
199	0xbb447f5c	-0.0029983139
200	0xbe41cac6	-0.18925008
201	0xbe346bc0	-0.17619228
202	0xbe22b80d	-0.15890522
203	0xbf1bf34e	-0.6091813
204	0xbec9ddfc	-0.39427173
205	0x3dea2722	0.11433245
206	0x3e3aaed2	0.18230751
207	0xbf3c83cb	-0.736386
208	0xbeaaec3b	-0.33383355
209	0xbda74f77	-0.081694536
210	0x3c6658d9	0.014059269
211	0x3e560c26	0.20903072
212	0xbbcb3b9a	-0.0062021734
213	0x3ef8883b	0.48541436
214	0x3e5fcd49	0.21855654
215	0xbdd25353	-0.10269799
216	0xbdffb2e0	-0.124852896
217	0x3e198051	0.14990355
218	0xbea4fdd0	-0.32224894
219	0xbe54c3b8	-0.20777786
220	0x3dc88da9	0.097926445
221	0xbe2e0c73	-0.16996937
222	0x3daf9ea9	0.08575184
223	0xbea4fc78	-0.32223868
224	0x3dee4f0e	0.11636172
225	0x3e5cdbd9	0.2156824
226	0x3e11c292	0.14234379
227	0x3dd27d9a	0.10277863
228	0x3f3f7f49	0.74803597
229	0xbf69a7fe	-0.9127196
230	0xbdc19f2f	-0.0945419
231	0x3e9fed1f	0.31235597
232	0x3f1b8d9e	0.60762966
233	0xbd8fa702	-0.07014276
234	0xbd73995d	-0.05947243
235	0x3e452948	0.19254029
236	0x3e21114d	0.15729256
237	0x3df8cd3e	0.12148522
238	0x3e166da5	0.14690264
239	0xbd99c32d	-0.0750793
240	0xbd7f0369	-0.06225911
241	0x3ec86d5e	0.3914594
242	0xbeabde1b	-0.3356789
243	0x3ec41a6e	0.38301414
244	0x3da37030	0.079803824
245	0xbf180934	-0.5938904
246	0x3ea2f176	0.31824845
247	0xbd2f8aeb	-0.042857092
248	0x3e16734c	0.1469242
249	0x3ec7829a	0.3896683
250	0xbd75aa07	-0.059976604
251	0xbe485211	-0.19562556
252	0xbd1d134f	-0.038348492
253	0x3e613c89	0.21995749
254	0x3e710512	0.2353709
255	0x3e6387b5	0.22219737

layer2.bias f4 [32]
0	0x3e974122	0.2954188
1	0xbb585d20	-0.0033014491
2	0x3dc2baf2	0.09508313
3	0xbe17f943	-0.1484118
4	0xbd6cfea0	-0.057860017
5	0x3e59be88	0.21264088
6	0xbea39078	-0.31946158
7	0x3d47cae4	0.048777476
8	0x3e276dd7	0.16350494
9	0x3e49115c	0.19635528
10	0x3db0e4bd	0.08637378
11	0x3e851e22	0.25999552
12	0x3e0ae60f	0.13564323
13	0xbe311610	-0.17293572
14	0x3daf83ec	0.08570084
15	0x3d8566e4	0.065137655
16	0xbcd0f7a1	-0.025508704
17	0x3d1405bc	0.03613828
18	0xbe13a0c7	-0.144168
19	0x3e554477	0.20826899
20	0x3e7da8b8	0.24771392
21	0x3e8467db	0.25860485
22	0x3e58cba2	0.2117143
23	0x3ea6cf0e	0.32579845
24	0x3e224186	0.15845308
25	0x3cbc2268	0.022965625
26	0x3df2c5af	0.118541114
27	0x3e3493db	0.17634527
28	0x3eac3173	0.33631477
29	0x3e8467c6	0.25860423
30	0x3db73691	0.089459546
31	0x3dbfeeb7	0.09371703

output.weight f4 [1, 32]
0	0x3ed7ce1d	0.4214944
1	0x3f0b4169	0.5439668
2	0xbec33925	-0.38129535
3	0x3f8cc121	1.0996438
4	0xbf79c55f	-0.9756679
5	0x3f63e5af	0.89022344
6	0x3f89ac5f	1.0755728
7	0xbe0f6929	-0.14004959
8	0xbe9e2406	-0.3088686
9	0xbee0dba1	-0.43917564
10	0x3f4eb826	0.8074974
11	0xbf6900d2	-0.91016877
12	0x40136df9	2.3035872
13	0x3d5a0e2d	0.053236175
14	0xbecec1a9	-0.40382126
15	0xbfd12de9	-1.6342136
16	0x3efc7656	0.49309033
17	0xbe6dac45	-0.23210247
18	0x3f339a34	0.7015717
19	0xbebd05f3	-0.369186
20	0xbf0b4ace	-0.5441102
21	0x3f43d373	0.7649452
22	0xbe9e9cb7	-0.3097894
23	0xbfad4273	-1.3535904
24	0x3ea2a372	0.31765324
25	0x3f3737b9	0.715694
26	0xbfb70cd6	-1.4300792
27	0x3f08bcbe	0.53413
28	0x3f5e74f5	0.8689721
29	0xbeb4f7ac	-0.3534521
30	0x3f3c8276	0.7363657
31	0x3f3695fb	0.713226
