Models/target_network/tau_0.75/Q_network.pt (torch, 7207 bytes, 5 tensors)

layer1.weight f4 [32, 4]
0	0x3fed9c12	1.8563254
1	0xbf1d1bec	-0.6137073
2	0xbe9361d0	-0.28785563
3	0x3e07685c	0.13223404
4	0x3f683502	0.90705884
5	0x3ff436a1	1.9079171
6	0x3e72bd4e	0.23705027
7	0xbe94f120	-0.29090214
8	0x4048a70e	3.1351962
9	0x3d97a121	0.0740378
10	0xbe446cd4	-0.1918214
11	0xbe67f4f2	-0.22652033
12	0xbf817ffc	-1.0117183
13	0x3fb6e6c8	1.4289179
14	0xbf4b98d8	-0.79530096
15	0x3e0481bd	0.12940116
16	0xbfd05f6b	-1.6279119
17	0xbf8fb2b6	-1.1226413
18	0xbf0a4829	-0.5401636
19	0xbd0324f2	-0.032017656
20	0xc013a6d1	-2.3070567
21	0xbe029a9d	-0.12754293
22	0x3f163061	0.5866757
23	0xbd526a1a	-0.051370718
24	0x3f9e3139	1.2358772
25	0xbf66c8af	-0.9014997
26	0x3e6ce256	0.23133215
27	0xbe53cff3	-0.20684795
28	0xbe924bc4	-0.2857343
29	0x4017c2ba	2.3712602
30	0x3ee82789	0.45342663
31	0x3dc4480a	0.09584053
32	0x3f4c9357	0.7991232
33	0x403a1963	2.9077995
34	0x3f8a972b	1.0827383
35	0x3de94ff4	0.11392203
36	0xbef3e2dd	-0.4763402
37	0x3fcb5bab	1.588735
38	0x3ebd76b8	0.37004638
39	0x3d966d64	0.07345083
40	0x3fafb033	1.3725647
41	0x3ea3976c	0.31951463
42	0x3f8c3d6b	1.0956243
43	0x3f1e66a0	0.61875343
44	0xc00bd6fd	-2.1849968
45	0xc0376e64	-2.8661127
46	0xbf4a333e	-0.7898444
47	0x3d266d44	0.040631548
48	0xbfc1849a	-1.5118592
49	0xbe5cb162	-0.21552041
50	0x3ec5c6b1	0.38628152
51	0x3f754abc	0.9581716
52	0xbf5d5aac	-0.8646648
53	0x3fd044d1	1.6271001
54	0x3edaf6c1	0.42766383
55	0x3e002687	0.12514697
56	0xbfe48b07	-1.7854928
57	0xbfb987aa	-1.4494526
58	0xbf12703b	-0.572025
59	0xbe18de26	-0.14928493
60	0x3f3510b3	0.70728606
61	0xbfb27361	-1.3941461
62	0xbee06469	-0.43826607
63	0xbdcbcb9f	-0.09950947
64	0xbf4df7ed	-0.8045643
65	0xc05202ac	-3.281413
66	0xbf35d0bd	-0.71021634
67	0xbe4ce406	-0.20008859
68	0x3fb7fbfc	1.4373775
69	0xbefb26cc	-0.49053037
70	0x3e98f90b	0.29877505
71	0x3ed4161b	0.41423115
72	0xc01e0e2f	-2.4696157
73	0xbfbb53b9	-1.4634925
74	0xbfa0326a	-1.2515385
75	0xbe41d4d2	-0.18928841
76	0xbe096825	-0.13418634
77	0x3f8c640a	1.096803
78	0x3e9c42e4	0.30519783
79	0x3e0ea6e4	0.13930851
80	0x3fdd8041	1.7304765
81	0x3fab0f25	1.3363997
82	0x3edead9f	0.43491837
83	0x3e703da3	0.23461013
84	0x3d86040a	0.06543739
85	0xc09cda95	-4.9016824
86	0xbf88924d	-1.0669647
87	0xbed2c724	-0.41167557
88	0x3ea3beec	0.319816
89	0x403703ac	2.859599
90	0x3f0ca810	0.54943943
91	0xbe00aab3	-0.12565117
92	0xbe1016aa	-0.14071146
93	0xbe30acc7	-0.1725341
94	0x3ed2e82e	0.41192764
95	0xbce7d52f	-0.028299896
96	0xbfa13bf1	-1.2596418
97	0xc007d8b1	-2.1226008
98	0xbf004229	-0.5010095
99	0xbe2b60dc	-0.16736168
100	0x3f73f0b3	0.9528915
101	0xbfa5fc92	-1.2967703
102	0x3e3c2916	0.18375048
103	0x3e3825c1	0.17983152
104	0xbed2b779	-0.41155604
105	0x40390f00	2.8915405
106	0xbda54459	-0.08069677
107	0x3e057445	0.13032635
108	0xbfff47ac	-1.9943748
109	0x400b88ea	2.1802316
110	0xbf8a8938	-1.0823126
111	0x3e4a5a09	0.19760908
112	0xbfb6769c	-1.4254947
113	0x40347cd3	2.8201187
114	0x3f1f26d3	0.62168616
115	0x3c8565e3	0.016283935
116	0xbf0e887e	-0.5567702
117	0x4005c69b	2.090247
118	0x3edbfbe2	0.4296561
119	0x3e2123c5	0.15736301
120	0xc0776bf5	-3.8659642
121	0xc0085e97	-2.1307733
122	0x3ec74be3	0.38925084
123	0x3f2bfd37	0.6718325
124	0x3ec91bd4	0.39279044
125	0x403589a1	2.8365252
126	0x3f21a371	0.63140017
127	0x3eb4b1ef	0.35292003

layer1.bias f4 [32]
0	0x3fdc8e71	1.723097
1	0x3fb84b1d	1.4397923
2	0x3f93997c	1.1531215
3	0x3f566a76	0.83756196
4	0x3fc9259f	1.5714606
5	0x3ee64e70	0.44981718
6	0x4006a315	2.1037037
7	0x3ea85a17	0.32881233
8	0xbf5bd1c4	-0.8586695
9	0x3f253c39	0.6454502
10	0x3fe111db	1.7583574
11	0x3faca3ff	1.3487548
12	0x3f645a03	0.89199847
13	0xbbdaa6ab	-0.0066727004
14	0x3fc54aeb	1.5413488
15	0x400deb11	2.2174723
16	0x3d22d9e2	0.03975857
17	0xbf96b255	-1.1773173
18	0x3fba4b6d	1.4554268
19	0x3f41baa7	0.75675434
20	0xbf6dc848	-0.9288373
21	0xbf5a9610	-0.8538523
22	0xbe2a4b38	-0.16630256
23	0x3fc1e000	1.5146484
24	0x3f390ca3	0.7228491
25	0xbf8d9514	-1.106112
26	0x3f8533e0	1.0406456
27	0x3efc186f	0.4923739
28	0xbdc30854	-0.09523073
29	0x3f0577c2	0.5213586
30	0x3f68b67d	0.90903455
31	0xbeda104b	-0.42590556

layer2.weight f4 [32, 32]
0	0xbf12acb4	-0.57294774
1	0x3e8971ad	0.2684454
2	0x3e567e5d	0.20946641
3	0x3e205f06	0.15661249
4	0x3ee4c014	0.44677794
5	0x3e91d591	0.2848325
6	0xbe8776b0	-0.2645774
7	0x3f637a72	0.8885871
8	0x3f99a600	1.2003784
9	0x3f49da45	0.7884868
10	0xbe8d6755	-0.276179
11	0x3eff9afa	0.49922925
12	0x3d0fa306	0.03506758
13	0xbf349bbb	-0.70550126
14	0x3f46b084	0.7761309
15	0xbf3bfa65	-0.73428947
16	0x3f987903	1.191193
17	0x3f466887	0.77503246
18	0xbf07ae69	-0.53000504
19	0x3f80ae5f	1.0053214
20	0x400816f7	2.1264017
21	0x3f89d6ae	1.076864
22	0x3f8d7b45	1.1053244
23	0xbe10025b	-0.14063399
24	0x3f5e77be	0.8690146
25	0x3fa7f923	1.3122905
26	0x3cc9d79a	0.02463894
27	0xbe9ba6e0	-0.30400753
28	0xbf8876a5	-1.0661207
29	0x3f4b8256	0.7949575
30	0xbe635180	-0.22199059
31	0x3f695c88	0.91156816
32	0xbf21daf1	-0.63224703
33	0x3e3cabf6	0.18424973
34	0x3e9bab1f	0.30403993
35	0x3e413119	0.18866386
36	0x3f05281b	0.5201432
37	0x3ebea230	0.37233114
38	0xbeb29687	-0.34880468
39	0x3f80fe89	1.0077678
40	0x3f949af0	1.1609783
41	0x3f501138	0.81276274
42	0xbe12b24c	-0.14325827
43	0x3e84d3e0	0.25942898
44	0x3e1d23ae	0.15345642
45	0xbf4acbcc	-0.7921722
46	0x3f3a49a2	0.72768605
47	0xbf41cf51	-0.75706965
48	0x3f6f0d8f	0.93380064
49	0x3f4811c6	0.7815212
50	0xbf005788	-0.5013356
51	0x3f298ebd	0.66233426
52	0x400b8016	2.1796927
53	0x3f9f6c4d	1.2454926
54	0x3f92f055	1.1479594
55	0x3d8d9dec	0.06914887
56	0x3f355229	0.7082849
57	0x3fadd06b	1.3579229
58	0xbdb77513	-0.08957877
59	0xbdf0357a	-0.1172895
60	0xbf782f8a	-0.9694754
61	0x3f3ce226	0.73782575
62	0xbe908076	-0.28223008
63	0x3f77c510	0.9678507
64	0xbf04684c	-0.51721644
65	0x3eb76e67	0.35826418
66	0x3df0406e	0.11731039
67	0x3e8bfab0	0.27339697
68	0x3f13733c	0.5759771
69	0x3ea2d2a2	0.31801325
70	0xbe9203e9	-0.28518608
71	0x3f813f9d	1.0097538
72	0x3f8afea6	1.0858963
73	0x3f4c843d	0.7988928
74	0xbeb7d949	-0.35907963
75	0x3eb97b19	0.3622673
76	0x3e1c64e3	0.1527286
77	0xbf19eb2f	-0.60124487
78	0x3f288586	0.6582874
79	0xbf233c08	-0.63763475
80	0x3f69bf9c	0.91308
81	0x3f54a55f	0.83064836
82	0xbef24e5b	-0.47325405
83	0x3f4b05d8	0.7930579
84	0x4007fd76	2.124845
85	0x3f8c1ea7	1.0946854
86	0x3f9f6c50	1.2454929
87	0x3cda6942	0.026661519
88	0x3f50a3f1	0.81500155
89	0x3f91b0d9	1.1382095
90	0xbda8d21a	-0.08243199
91	0xbcb0f669	-0.021601873
92	0xbf7dd575	-0.99153835
93	0x3f1fc35f	0.6240749
94	0xbe25b87a	-0.16183653
95	0x3f81c0f6	1.0137012
96	0xbeec2593	-0.46122417
97	0x3d75f7b0	0.060050666
98	0x3e5b64ea	0.21425214
99	0x3e82cf39	0.25548723
100	0x3f163e35	0.5868867
101	0x3e26f04c	0.16302603
102	0xbe4b9027	-0.19879209
103	0x3f458bd7	0.77166504
104	0x3f99018e	1.19536
105	0x3f4b2b1d	0.7936266
106	0xbeaf17f7	-0.3419797
107	0x3ed1f4b4	0.41007006
108	0x3d50cd8e	0.050977282
109	0xbf5eda18	-0.87051535
110	0x3f1e63aa	0.61870825
111	0xbf31f375	-0.6951211
112	0x3f8404eb	1.0314001
113	0x3f34aa61	0.7057248
114	0xbf16ae13	-0.58859366
115	0x3f293ad5	0.66105396
116	0x400f6d43	2.2410438
117	0x3fa55f46	1.29197
118	0x3fa040a1	1.2519723
119	0xbe1d3f16	-0.15356097
120	0x3f4177b6	0.7557329
121	0x3fb8ce17	1.4437894
122	0xbe673039	-0.22576989
123	0xbe3fa466	-0.18715057
124	0xbf943684	-1.1579137
125	0x3f6b60b1	0.91944414
126	0xbd41b5c8	-0.0472925
127	0x3f89510b	1.0727857
128	0x3d6e9b8f	0.05825382
129	0xbed92e37	-0.42418072
130	0xbf19abf2	-0.6002799
131	0x3e8b6fca	0.27233726
132	0x3f68c778	0.90929365
133	0xc00af439	-2.1711562
134	0xbf197e42	-0.5995828
135	0x3ec73611	0.38908437
136	0x3fe27af5	1.7693774
137	0xbdadccc9	-0.08486325
138	0x3f3c3232	0.7351409
139	0x3faff5e8	1.374692
140	0xbfe4e04b	-1.7880949
141	0x3f52149e	0.8206271
142	0x3f58d997	0.84707016
143	0xbe614ff0	-0.2200315
144	0x3f9ff40d	1.2496353
145	0x3fb23947	1.392373
146	0x3f912f59	1.1342574
147	0xbeff4c11	-0.49862722
148	0xbfa96f23	-1.3237041
149	0x3f97e089	1.1865398
150	0x3f9510a8	1.1645708
151	0xbf1d0524	-0.6133597
152	0x3f523e7e	0.82126606
153	0x3fddd3d4	1.733027
154	0x3f150cc1	0.58222586
155	0x3ef6bab5	0.4818932
156	0x3fa5e136	1.2959354
157	0x3e8f3206	0.27967852
158	0xbfb6c2bf	-1.4278182
159	0x3fa7a7ca	1.309808
160	0xbf2bf8e2	-0.6717664
161	0x3ea4e451	0.32205442
162	0x3e8ccb20	0.27498722
163	0x3e768fc6	0.24078283
164	0x3f00a8f2	0.5025779
165	0x3f044c10	0.5167856
166	0xbedb4d70	-0.42832518
167	0x3f7f4a7a	0.9972302
168	0x3f82cfd7	1.0219678
169	0x3f1fc1a3	0.6240484
170	0xbeabfd82	-0.3359185
171	0x3ed8743c	0.4227618
172	0x3e6ac655	0.2292722
173	0xbf5ee7e5	-0.8707259
174	0x3f5015e0	0.8128338
175	0xbf0ee898	-0.5582366
176	0x3f4cd76e	0.8001622
177	0x3f6dbadb	0.92863244
178	0xbf2bdf29	-0.6713739
179	0x3f5c7955	0.8612264
180	0x4005e346	2.0919967
181	0x3f9b73df	1.2144736
182	0x3fb44fd4	1.4086862
183	0x3da56d8e	0.080775365
184	0x3f3e5d21	0.74360853
185	0x3face398	1.3506956
186	0xbd96df3f	-0.073667996
187	0xbe165534	-0.1468094
188	0xbf8ac6cb	-1.0841917
189	0x3f591584	0.84798455
190	0xbe0f448f	-0.13990997
191	0x3f8e53a2	1.1119273
192	0xbecd2dd0	-0.40074015
193	0x3ec03014	0.3753668
194	0x3eb3dfc8	0.3513167
195	0x3e8490b8	0.25891662
196	0x3f1fbeca	0.62400496
197	0x3eb6bed0	0.35692453
198	0xbe1fd020	-0.15606737
199	0x3f540194	0.8281491
200	0x3f741d08	0.953568
201	0x3f1b0622	0.6055623
202	0xbeb3c5c0	-0.3511181
203	0x3edb4807	0.4282839
204	0x3e6590ca	0.22418514
205	0xbf5ef3ca	-0.8709074
206	0x3f39b391	0.7253962
207	0xbefbe892	-0.49200875
208	0x3f7e9a2d	0.99454004
209	0x3f5fadfb	0.8737485
210	0xbf0e3de9	-0.5556322
211	0x3f5fe463	0.87457865
212	0x3feb0abe	1.8362653
213	0x3fa37c6a	1.2772343
214	0x3f9bbf1a	1.2167695
215	0xbe20b2fa	-0.15693274
216	0x3f04ceb4	0.51877904
217	0x3fb40d22	1.4066508
218	0xbe973d85	-0.29539123
219	0xbe0a1164	-0.13483196
220	0xbf8da7c2	-1.1066821
221	0x3f5ae951	0.8551226
222	0xbe95efe1	-0.29284576
223	0x3f89c650	1.0763645
224	0xbef37e9f	-0.47557542
225	0x3eb69b62	0.35665423
226	0x3dc132bb	0.09433504
227	0x3e801f9c	0.25024116
228	0x3ef068d2	0.46954972
229	0x3e95bda6	0.29246253
230	0xbe85f06d	-0.26159993
231	0x3f741b36	0.9535402
232	0x3f918c3b	1.137092
233	0x3f3cf804	0.7381594
234	0xbedcdd5f	-0.43137643
235	0x3f01142f	0.5042142
236	0x3e523a2f	0.20530008
237	0xbf488983	-0.78334826
238	0x3f3a93a4	0.7288153
239	0xbf328b32	-0.69743645
240	0x3f840f8e	1.0317247
241	0x3f46e77d	0.77696973
242	0xbf343e3f	-0.7040748
243	0x3f4e4a21	0.8058186
244	0x400ae9e6	2.170526
245	0x3f9dfc81	1.2342683
246	0x3f8dd806	1.108155
247	0x3cf9e059	0.030502485
248	0x3f3c98f2	0.73670876
249	0x3fa5066c	1.2892585
250	0x3dff3825	0.124618806
251	0xbe535bc4	-0.20640475
252	0xbf938cae	-1.1527307
253	0x3f225a2a	0.6341883
254	0xbeaecd4e	-0.3414101
255	0x3f635ba2	0.88811696

layer2.bias f4 [32]
0	0xbf37d9c4	-0.7181666
1	0xbf3415ad	-0.70345575
2	0xbf64425d	-0.8916376
3	0xbf48b93b	-0.7840764
4	0xbe0e16c6	-0.13875875
5	0xbf55a5c3	-0.8345606
6	0xbf620115	-0.882829
7	0xbf2147a0	-0.62999916
8	0xbf2a3e2b	-0.6650111
9	0x3d53974a	0.051657952
10	0xbf5a2467	-0.85211796
11	0x3fe02f39	1.7514411
12	0xbf77066a	-0.9649416
13	0xbf26ab3d	-0.6510504
14	0xbf3cf847	-0.7381634
15	0xbc3c198d	-0.011480701
16	0xbf1e99da	-0.6195351
17	0xbf2f1bec	-0.6840198
18	0xbf6c1725	-0.92222816
19	0x3f9ddbbf	1.2332686
20	0xbf338c5a	-0.70136034
21	0xbf37d2f5	-0.7180627
22	0xbf535300	-0.8254852
23	0xbf442a81	-0.76627356
24	0x3f821b67	1.0164613
25	0xbf3afc0c	-0.73040843
26	0xbf71bafe	-0.9442595
27	0x3fa0c631	1.2560483
28	0xbf797f9c	-0.9746034
29	0x3fe70e68	1.8051271
30	0x3f9b0f03	1.2113956
31	0xbe3bd04e	-0.1834118

output.weight f4 [1, 32]
0	0xbf8ea003	-1.1142582
1	0xbfa430b1	-1.282736
2	0xbf939846	-1.1530845
3	0xbfafe07d	-1.3740383
4	0x40605f04	3.5057993
5	0xbf9a8664	-1.2072263
6	0xbfae2520	-1.360508
7	0xbfa45af2	-1.2840254
8	0xbfa55afc	-1.2918391
9	0x406d66ee	3.7094073
10	0xbfa28c33	-1.2699035
11	0x409d0f0a	4.908086
12	0xbf9ef707	-1.2419137
13	0xbfa5e7e9	-1.2961398
14	0xbf88c41a	-1.0684845
15	0x407f9528	3.9934788
16	0xbf84fa94	-1.038897
17	0xbfa4d51c	-1.2877536
18	0xbf947203	-1.1597294
19	0x41088369	8.532083
20	0xbf959188	-1.1685038
21	0xbf9dadf9	-1.2318717
22	0xbf9f44e4	-1.2442899
23	0xbf7469e9	-0.95474106
24	0x403f3c91	2.9880717
25	0xbfa97152	-1.3237708
26	0xbfa747cc	-1.3068786
27	0x40922711	4.567269
28	0xbf9b9b54	-1.2156777
29	0x40a47471	5.139214
30	0x4062f6d2	3.5463147
31	0xbb43a638	-0.0029853713
