Models/target_network/tau_0.75/target_Q_network.pt (torch, 7263 bytes, 5 tensors)

layer1.weight f4 [32, 4]
00000000: ba17 d8bf e4ad e0bf 6053 873e b27e 30bb
00000010: 448d 043f 1a33 46bf 92f7 cfbe e4a9 65be
00000020: 701e 83bf fcfd 2cbf 6ee1 b73f 89ea 593f
00000030: d1b4 e73e bd32 2ebf bd4e c43e fb2c 80bd
00000040: ee55 963f 2a8e bb3f ce08 08bf 5741 bcbe
00000050: 0680 79bf ae08 133d cc61 e13e 84d8 3e3e
00000060: 46fb aabf b908 ec3f ae42 a7bd 7215 83be
00000070: 0ed0 1ac0 c2fd f93f 8370 5c3f 6858 8f3e
00000080: 2cb8 46c0 3a93 cdbf 41bb 04bf 08b4 15bf
00000090: aa7d c4bf 54dc 4140 1187 453f ab76 653e
000000a0: 0800 c6bf 4693 a840 f2bf a13f e632 1c3f
000000b0: ea86 e83f 25f1 5fbf 4344 de3e f097 383e
000000c0: 0759 cebf bc31 3240 8703 3a3f 675e 2c3e
000000d0: dc3c 40c0 91b5 5b40 f6b4 7e3f 645a 653d
000000e0: b2ef 1140 648a 863e e2e3 5ebe 0e41 10be
000000f0: 2e79 223e 5482 bcbe dea8 8abe 7f6c a33d
00000100: 6e2d 0dbf 9bd6 9fbf c01e 083e eaac 09bf
00000110: e0b5 95bf 418f 13c0 f96f 523e 5051 543e
00000120: af42 ddbf 42d4 9abf ecfa 9e3e 363d 34be
00000130: 1c71 613e ff61 31c0 ac14 22bf 921f 02bc
00000140: c941 f4be 5c1f 54bf 7de4 2d3f a103 1a3e
00000150: 2e83 c83f b89c a1bd 0ea3 c7be a5d3 b0be
00000160: aad1 77be 641e 83c0 5b1c 59bf 1cdd 5dbe
00000170: 6036 90bf 0690 c43f 1a14 8cbd 4393 1bbe
00000180: 9234 293d 953f f8bf 43c4 963e f25d 083d
00000190: b302 29be 7491 3dbf 2455 a43d 41ed 1c3e
000001a0: d2a2 3cbf 8a0a 1040 b86e 0b3f cb42 f43d
000001b0: 3dd8 0dc0 2c9e 3ebe 1e4f 9d3e b005 773d
000001c0: 11bb 043f 608b 6abf 4650 22bf 2511 86bd
000001d0: a742 483f 4096 833e 3d29 0cbf 9a03 0cbe
000001e0: 104b 293f ecbf 10be 4834 1cbf 84ec ee3c
000001f0: 3c69 debf 6468 1dbf f049 ce3e 642d d5be
-1.6882241 -1.7553067 0.26430798 -0.0026930985 0.51778054 -0.77421725 -0.4061857 -0.2242809
-1.0243664 -0.6757505 1.4365671 0.851235 0.4525514 -0.6804617 0.38341323 -0.06258579
1.1744974 1.465276 -0.53138435 -0.367686 -0.97460973 0.03589695 0.44019926 0.18637282
-1.3357933 1.8440162 -0.08167015 -0.256023 -2.4189487 1.9530566 0.8610918 0.27997136
-3.104991 -1.6060555 -0.51848227 -0.5847783 -1.535085 3.0290728 0.7715922 0.2240855
-1.546876 5.2679777 1.2636702 0.61015165 1.8166173 -0.8747733 0.43411455 0.1802671
-1.6120919 2.7842855 0.7266163 0.16832887 -3.0037146 3.432957 0.99494874 0.055994406
2.2802548 0.2627746 -0.21766618 -0.14087316 0.15866539 -0.36818182 -0.2708196 0.07979678
-0.55147445 -1.2487367 0.1329298 -0.5377947 -1.1696129 -2.3056185 0.20550527 0.20734143
-1.7285975 -1.2096026 0.31050813 -0.17601475 0.22015804 -2.7716062 -0.6331279 -0.007942097
-0.4770644 -0.8286035 0.6792677 0.15040447 1.5665033 -0.0789122 -0.38991588 -0.34536472
-0.24201074 -4.09746 -0.8480889 -0.21666378 -1.1266594 1.5356452 -0.068397716 -0.15192895
0.0413099 -1.9394404 0.2944661 0.03329272 -0.16504936 -0.7405007 0.08024052 0.1532488
-0.73685944 2.2506433 0.5446582 0.11926802 -2.2163231 -0.18615025 0.30724424 0.06030816
0.5184794 -0.9161892 -0.6340374 -0.06546239 0.78226703 0.2570057 -0.54750425 -0.13673249
0.6613016 -0.14135712 -0.61017275 0.029165514 -1.7375865 -0.6148741 0.40290785 -0.41636193

layer1.bias f4 [32]
00000000: fe2e d83f 0aeb 0e40 9982 cd3f c4dc 0a40
00000010: ff41 ee3f 66b4 0140 09a7 0e40 678c 2040
00000020: 6cf5 ca3f ba2f 123f b824 3c3e f4cd ad3e
00000030: fd2c 2e3f 8f8f d33f 192e 0a3f 0d31 1940
00000040: f0f9 d53f dad3 c53f e21c da3f e747 423f
00000050: 2e23 af3f 9d7c c73e 30d1 43bb b157 cb3f
00000060: dcd9 b13f b6a0 0440 a80f 0240 ded5 ce3f
00000070: 50fa c13f 054d ef3f edd5 0840 43a9 1c40
1.6889341 2.2330956 1.605548 2.1697245 1.861389 2.0266356 2.228945 2.5085695
1.5856147 0.57104075 0.18373382 0.33946192 0.68037397 1.6528186 0.5397659 2.3936188
1.67169 1.5455277 1.7040064 0.75890964 1.3682611 0.3896226 -0.0029879324 1.5886136
1.389461 2.072309 2.0322056 1.6159017 1.5154514 1.869538 2.138057 2.447831

layer2.weight f4 [32, 32]
00000000: 7c3f 0a3f aa36 bbbd a6ff 02bf 469c c3be
00000010: 46bf ac3e 8316 183f ec7c 4f3f 7e91 813f
00000020: 2ecd ccbe c6ae ce3f 265b ae3f b03f a23f
00000030: 77d7 bb3f 1ac6 333f a13b b93f 3b43 aebe
00000040: 003e b6be 853c 263f 4890 e23e 16d2 9c3f
00000050: c757 f2be f321 3d3f f5ab 1740 bc05 9c3f
00000060: 888e 2b3f 6abc 563c f515 e8be c97f 7a3e
00000070: 0b63 ac3e ca68 3b3e fd63 843d 7194 fc3e
00000080: 890c ce3e 7dfe 1fbe ec74 f4be 08c4 4abe
00000090: f6ea cf3e f311 403f 8ef2 373f 8660 463f
000000a0: 9d7b 17bf baf1 b73f 64ae 993f 7327 963f
000000b0: c473 aa3f d8d5 6d3f 718f a53f 2c0d a7be
000000c0: 7c1b 82be 4eb6 563f d8f0 de3e 086b 753f
000000d0: 1ab7 84be e1a5 7e3f 2070 0540 80b5 913f
000000e0: 32ad f43e a8ed 5dbd 64e1 1abf 08d9 243b
000000f0: 7a37 083d 0f97 4f3e c4db 253e c950 b13e
00000100: fe58 cd3e 3a37 35be 5c3a 9dbe 2cb2 cfbe
00000110: 4028 be3d 13d5 4a3f e26d 273f a722 5a3f
00000120: 2e2e 25bf 2a6a a93f e622 8e3f 387d 943f
00000130: aa5b a33f c153 353f 6a07 a53f afed b7be
00000140: 6d67 33be 1e50 543f e6d4 b23e 0a4f 693f
00000150: 2ab5 c3be 52db 6d3f cb30 0240 2e32 b03f
00000160: 761e 163f 0dc5 b0bb 24c2 cbbe 3ae7 413d
00000170: 1a69 3f3e a226 923e de0a 873e b631 d93e
00000180: 46d7 bb3e 2114 83be eeb7 b2be 2837 31be
00000190: 1fa2 e13e 5cc3 293f b03a 343f 87ca 473f
000001a0: f2b7 17bf 234b a33f 0efc 9d3f d37c 9d3f
000001b0: c8dd a83f 5bb8 763f 3264 c03f 0ad4 98be
000001c0: aa08 98be e9dd 263f 97cb f23e 38d2 883f
000001d0: 4996 80be 22f9 463f 942f 1240 af38 b63f
000001e0: 4bf5 313f 00cf 22be a295 01bf 1d4e a33d
000001f0: 231d 113e b89a 5a3d 49c1 df3d 2698 b53e
00000200: 4802 0d3f 6329 38be daef efbe 5fb0 bcbe
00000210: 8c60 d43e 8e5a 2d3f 5871 2b3f de49 743f
00000220: abc2 92be cf47 c83f a4d0 a93f 2b44 a83f
00000230: 1c9f b93f afe8 563f 00c1 a23f 501a 69be
00000240: 1882 d0be ca87 6f3f 1264 c23e 608d 7b3f
00000250: f2d5 e1be 54b4 583f b9b5 1540 b720 b33f
00000260: 3719 343f f2c0 9b3d e999 1ebf 308f 9e3d
00000270: 657d 5e3e 46e1 4a3e 32ca 7d3e 3d14 d83e
00000280: 087e 163f dccd 83be 6d3f 21bf 4f86 9abe
00000290: eebb ac3e 26e0 403f c83a 5d3f 2397 613f
000002a0: 9eec 0ebf 6b64 c13f a165 af3f 7e30 a83f
000002b0: 9018 b23f 1fa9 3f3f a564 ac3f d3f9 91be
000002c0: e4d8 c5be 2ad7 6a3f a4a2 a63e 2432 713f
000002d0: 42e9 82be 51df 4c3f 1568 ff3f eaf7 923f
000002e0: b429 1b3f 83a2 163d cfb5 00bf 61bf 153e
000002f0: 009a ab3e 863e 813e f870 18bd 48e6 963e
00000300: 15cd f83e f6cd 79be ea00 1cbf f4c8 73be
00000310: cdde 553e 9ffc 593f 7f43 0b3f 58e9 3c3f
00000320: cc46 32bf 5a84 be3f 04f4 883f 8005 953f
00000330: 9314 a33f 6746 363f 3a73 c03f cc63 44be
00000340: aeb8 c5be 4e64 263f 36f0 053f a803 7e3f
00000350: 84f9 05bf d54a 753f bb0b 0240 c8bc 8c3f
00000360: 8b68 423f c309 17bd cea8 10bf b4c6 623e
00000370: 5097 8d3d 6fb3 563e b25f 5a3e dabc a83e
00000380: 4238 c93f 0fab d63e 0377 bc3f d33b df3f
00000390: 92c8 e73e 442f 6e3f c9a3 dc3f 06dc 6b3f
000003a0: 76a1 05c0 0af5 17bf 7860 c6be 3bf4 a4bf
000003b0: f830 5fbe e2ca 733f 5c93 2dbf 6ce2 c83e
000003c0: 5667 e03f eec5 65c0 334b 4cc0 815e 12c0
000003d0: 6492 d33f e0eb a03f f187 b3c0 3499 81bd
000003e0: 610a 5abf aa93 d13f 6868 0ebf 9ad4 e03f
000003f0: e7a8 a03e 7c90 8b3e bba7 863e fc25 da3f
0.5400312 -0.09141286 -0.5117134 -0.38205165 0.3373968 0.5940935 0.8104999 1.0122526
-0.4000029 1.6147087 1.3621566 1.2675686 1.467513 0.70224154 1.4471322 -0.34035668
-0.35594177 0.64936095 0.44250703 1.2251613 -0.47332594 0.7387993 2.3698704 1.218925
0.6701436 0.013106445 -0.45329252 0.24462809 0.33669314 0.18301693 0.06464384 0.49332002
0.4024394 -0.15624423 -0.47745454 -0.19801342 0.40608948 0.7502739 0.71854484 0.77491033
-0.59172994 1.4370644 1.2006345 1.1730789 1.3316579 0.92904425 1.29344 -0.32627237
-0.25411594 0.83871925 0.43543124 0.9586644 -0.25920945 0.9947186 2.0849686 1.1383514
0.47788388 -0.054181725 -0.6050017 0.0025153775 0.03325603 0.20272468 0.16197115 0.34631947
0.40106958 -0.17696849 -0.30708587 -0.40565622 0.09285021 0.79231375 0.6540204 0.85209125
-0.6452359 1.3235524 1.11044 1.1600714 1.2762349 0.70830923 1.2892888 -0.35923526
-0.17519923 0.8293475 0.34928054 0.9113623 -0.38224155 0.9291278 2.034228 1.3765314
0.5864023 -0.005394584 -0.39796555 0.047339655 0.18692437 0.285451 0.26375479 0.4242074
0.36687678 -0.25601295 -0.34905952 -0.17306197 0.44069 0.6631372 0.7040205 0.7804341
-0.59265053 1.2757305 1.2342546 1.2303718 1.3192682 0.96375054 1.5030577 -0.29849273
-0.2969411 0.6518236 0.47420952 1.0689154 -0.25114658 0.77723897 2.284154 1.4236048
0.6951491 -0.15899277 -0.50618947 0.07973883 0.14171271 0.053370208 0.10925538 0.35467643
0.55081606 -0.17984538 -0.4686268 -0.3685331 0.4147991 0.677163 0.66969824 0.9542521
-0.28664145 1.5646914 1.3266797 1.3145803 1.4501681 0.83948797 1.2715149 -0.22763944
-0.40724254 0.9356657 0.37966973 0.98262596 -0.4410854 0.8465016 2.3392165 1.3994359
0.70350975 0.07605161 -0.619536 0.077421546 0.21727522 0.19812497 0.24784163 0.4220294
0.5878606 -0.25742996 -0.62987405 -0.30180594 0.3373713 0.75342023 0.8641782 0.8812124
-0.558298 1.510877 1.370289 1.3139799 1.3913746 0.74867433 1.3468214 -0.28510913
-0.38642037 0.91734564 0.3254596 0.94217134 -0.25568587 0.80028254 1.9953638 1.1481907
0.6061051 0.036776077 -0.5027742 0.14623787 0.3351593 0.25243014 -0.03721711 0.29472566
0.48593965 -0.24394974 -0.60938895 -0.23807126 0.20885773 0.85151094 0.54399866 0.73793554
-0.6963928 1.488414 1.0699468 1.1642303 1.2740654 0.71201175 1.5035164 -0.19178694
-0.38617462 0.649968 0.5231966 0.9922433 -0.52333856 0.9581731 2.031966 1.0995111
0.7594077 -0.036874544 -0.56507576 0.22146112 0.06913626 0.20966886 0.21325567 0.32956582
1.5720294 0.41927382 1.472382 1.7440132 0.4527021 0.9304087 1.7237483 0.92132604
-2.0879798 -0.59358275 -0.38745475 -1.2887033 -0.21796024 0.9523145 -0.6780298 0.39235246
1.7531536 -3.5902057 -3.1920898 -2.287018 1.652905 1.2571983 -5.6103444 -0.06328049
-0.85172087 1.6373188 -0.5562806 1.7564881 0.31378862 0.2725867 0.26299843 1.7042842

layer2.bias f4 [32]
00000000: b404 863c d146 473e 3a7f 9d3d 615d 0e3e
00000010: ba03 a1bd 23fe b4bd b089 dbbd c4d8 8a3f
00000020: ba4e 353e 7454 b03f 974e 843f 6ce2 ea3d
00000030: 160c 46bd 7838 153e 5cd7 a03c e545 223c
00000040: 0a6a 8b3d e622 cebd b79e ac3d b83f c53e
00000050: 5150 733e f57a 033e 6226 103f d1f8 843f
00000060: 6014 853c 3d22 e43e ac3d dc3d be7b 003e
00000070: 28f2 513e 5419 4cbe 4c04 233f 14d0 cf3d
0.016359664 0.19460608 0.07690282 0.13902809 -0.07862039 -0.08837535 -0.10719621 1.0847402
0.17705813 1.3775773 1.0336484 0.11468968 -0.04835137 0.14572322 0.019633941 0.0099043595
0.06807335 -0.1006525 0.0842871 0.38525176 0.23761107 0.12839873 0.5630857 1.0388433
0.016245067 0.44557372 0.107539505 0.12547204 0.20502532 -0.19931537 0.6367843 0.1014711

output.weight f4 [1, 32]
00000000: 0627 76bf c87e 6bbf f563 7bbf 98bb 7dbf
00000010: dae5 5fbf 35b5 83bf fd85 8bbf e64a 7d40
00000020: b802 8abf 5480 c240 346c 5440 7870 4540
00000030: 5b2f 97bf 2f0d 9abf 14e5 97bf eea0 8fbf
00000040: d857 80bf efd4 5abf d2a0 c33d 2a95 0340
00000050: dca6 75bf 064f 883f 50c1 2540 735f 3840
00000060: 36f4 fb3d 4e6a 823f 65ff 9abf 4e47 5640
00000070: f5a1 88bf d496 4640 c694 983f d5f9 88bf
-0.96153295 -0.9199033 -0.981994 -0.9911437 -0.874601 -1.0289675 -1.0900265 3.9576964
-1.078208 6.078165 3.3191042 3.0849895 -1.1811327 -1.2035273 -1.1866784 -1.1220987
-1.0026808 -0.8548116 0.095521584 2.0559793 -0.9595773 1.0649116 2.5899239 2.8808258
0.12302439 1.0188692 -1.210919 3.348102 -1.0674425 3.1029558 1.1920402 -1.0701243
