Models/target_network/tau_0.75/target_Q_network.pt (torch, 7263 bytes, 5 tensors)

layer1.weight f4 [32, 4]
000000 89 44 39 c0 47 2c 3b 3e 91 f7 57 3f b0 4b 91 3e
       -2.894808 0.18278609 0.8436213 0.28378057
000010 a7 17 ef bf 9b 4a 7f c0 33 e4 77 bf ec 58 e0 be
       -1.8679093 -3.9889286 -0.9683258 -0.43817842
000020 9f 82 4c 3f b3 19 a7 3f 5f 14 c2 bd 66 25 4b be
       0.7988681 1.3054718 -0.09476542 -0.19838485
000030 24 1c 33 c0 28 26 b4 3f 01 6c 25 3f 5a cb 68 3e
       -2.7985926 1.4074144 0.64617926 0.22733822
000040 a8 41 27 c0 a2 95 50 c0 70 5a 56 bf 54 61 4a be
       -2.6133823 -3.2591329 -0.83731747 -0.1976369
000050 5a 95 5c bf 3c 79 dd 3f 2e 3a c8 3e ed a6 19 3b
       -0.8616539 1.7302623 0.39106888 0.0023445443
000060 46 26 2c c0 07 4c 3e 40 32 81 6a 3f da 62 26 3e
       -2.689836 2.9733903 0.91603386 0.16248646
000070 22 11 b4 3f 9e b5 fb 3e b6 c6 d0 3c 7c 9c c0 bd
       1.4067729 0.49162 0.025485378 -0.09404847
000080 8f 57 12 bf 8c d0 10 40 6e 52 0b 3f 2c 05 44 bd
       -0.57164854 2.2627287 0.5442265 -0.047856495
000090 e1 84 de 3f 01 ed 9b 3f f0 6a a7 3d 19 53 07 3e
       1.7384301 1.2181703 0.081746936 0.13215293
0000a0 fa 93 42 c0 08 3b 7a 3f a8 2a c8 be 28 bf 58 be
       -3.0402818 0.97746325 -0.39095044 -0.2116667
0000b0 ef 3a 05 40 89 1d 07 3f 67 87 d5 3d 93 b5 b5 3e
       2.081722 0.5277944 0.104262166 0.35490093
0000c0 64 00 05 bf 88 e6 cd 3f 23 ca 0e 3f 52 bf 56 3d
       -0.5195372 1.6085978 0.55777186 0.05242855
0000d0 28 5d 21 be bc 5f 38 3f 08 3a af 3e 76 d4 24 3e
       -0.15758193 0.7202108 0.34223962 0.16096672
0000e0 3f d5 51 3e 57 f0 45 40 58 21 1e 3f 94 ee 01 3e
       0.20491503 3.0927942 0.6176963 0.12688667
0000f0 ea ec 23 c0 26 48 88 be b4 c0 07 3f e9 55 29 3e
       -2.561335 -0.26617545 0.53028417 0.16536678
000100 9b 77 da 3f 16 c7 2b 3f cc 06 3d 3e b0 77 0d be
       1.7067751 0.67100656 0.18459624 -0.13815188
000110 e6 80 a5 3f b4 52 38 3f 66 bf 87 3f 02 87 e8 3e
       1.2929962 0.72001195 1.0605285 0.45415503
000120 ae 1a 97 bf 52 84 a8 bf 8c 5a 98 3e 29 ad dc 3c
       -1.1805017 -1.3165381 0.29756582 0.026938038
000130 3f d5 ba bf 62 cd 9d 3f 6b 61 a0 be 62 f8 08 be
       -1.4596328 1.2328303 -0.31324324 -0.13376
000140 a4 37 d7 bf 1d a4 8d 40 19 f4 43 3f c4 78 86 3e
       -1.6813855 4.4262834 0.7654434 0.26264012
000150 b2 09 fb bf 9e 37 bf 3f 04 77 f4 3d d9 84 57 3d
       -1.9612334 1.4938848 0.11936763 0.052616928
000160 f0 7d 91 3e ab 03 ca bf 92 38 08 be 98 cc 46 bb
       0.28416395 -1.5782369 -0.1330283 -0.003033435
000170 77 cd ca be 93 26 80 c0 cb b1 40 bf a1 40 63 be
       -0.39609882 -4.004709 -0.7527129 -0.22192623
000180 f1 0c ae bf 36 9c e7 3e 0c 02 76 be 98 d5 3c be
       -1.3597699 0.45236367 -0.24024218 -0.18440855
000190 d0 1e d5 3f 1e 1a 02 bf c6 7b 0b 3e 58 09 dd 3d
       1.6650028 -0.508211 0.13621435 0.10792798
0001a0 87 a0 95 bf 60 18 ba bf 78 9f d4 3d f0 7b 74 3e
       -1.1689614 -1.4538689 0.10381979 0.23875403
0001b0 a3 68 25 c0 89 fc eb 3f ea 87 45 3f fe 90 57 3d
       -2.5845115 1.8436443 0.77160513 0.05262851
0001c0 8a 2c a0 3e 8c b8 b2 3e bf 0b 0e 3d ea 62 ee 3d
       0.3128398 0.34906423 0.03467917 0.1163996
0001d0 68 bc 0b c0 7d 98 fd bf 79 81 fa be 00 82 3d be
       -2.1833744 -1.9812161 -0.48926905 -0.18506622
0001e0 10 e7 da bf 3b a2 d1 3f 24 c2 07 3f e4 5d 44 3e
       -1.7101765 1.6377634 0.5303061 0.19176441
0001f0 77 03 64 bf 6d 5c 51 40 a5 c0 4b 3f bc 05 3e 3e
       -0.89067787 3.2712662 0.7959083 0.18556875

layer1.bias f4 [32]
000000 dc 79 9a 3f bb 80 81 3f db ac 97 be c6 84 10 40
       1.2068439 1.011741 -0.29624066 2.2581038
000010 26 0e b9 3f d0 c8 cf 3f 42 cd c1 3f 98 e7 18 3f
       1.4457443 1.6233158 1.5140765 0.59728384
000020 68 fd de 3f 4c be 89 3f 50 37 4a be 06 d2 1d 3f
       1.7421083 1.0761199 -0.19747663 0.61648595
000030 56 96 8f 3e ce a0 cf 3f c8 6e db 3e 93 e9 55 3f
       0.28044385 1.6220949 0.42857957 0.8355953
000040 a2 ce 15 3e 66 a2 60 3f e5 7c 93 3e ee 4e fd 3e
       0.14629605 0.877478 0.28806224 0.4947428
000050 2e 8d 2a 3f 40 57 4d 3f dc 92 6b 3f 17 95 f5 bc
       0.66621673 0.8021126 0.92020965 -0.029978318
000060 c2 f3 d0 3f aa c4 de 3d f9 b0 3b 3f 7a c9 e7 3f
       1.6324389 0.108773544 0.73316914 1.8108361
000070 3d 3e e7 3f 7e b4 c8 3f 6f 96 90 3f ed 64 62 3e
       1.8065869 1.5680082 1.1295909 0.22108813

layer2.weight f4 [32, 32]
000000 dc b6 dc bd a6 d7 87 bd 07 23 9b 3c 16 14 79 3c
       -0.10777065 -0.066329286 0.0189376 0.015202543
000010 ed e2 c1 bd da a6 db 3d 79 bc f4 bd c9 32 cf bd
       -0.09467111 0.10725184 -0.11950011 -0.101171084
000020 d5 1e 28 be 45 07 29 be 80 c1 8f bb e1 15 71 bc
       -0.16418011 -0.1650668 -0.0043870807 -0.014714689
000030 11 41 28 be 42 02 c0 3c 5e d9 63 bd 13 87 e0 3d
       -0.16431071 0.023438577 -0.05562722 0.10963263
000040 0a 43 e4 bd 48 93 21 bd aa 2f 53 bd 20 83 6f 3d
       -0.11145599 -0.0394471 -0.051559128 0.05847466
000050 92 43 a7 bd c0 47 cc bc 9e fc 10 bd 15 aa 8d bd
       -0.08167185 -0.024936557 -0.035397165 -0.06917206
000060 46 92 ab 3d 3a cd 0d bd e2 2f cf 3d c3 27 2e be
       0.08377509 -0.034619547 0.10116555 -0.17007355
000070 68 28 38 bd fa 62 98 bd 90 c0 5d bd 00 37 a3 3a
       -0.04496041 -0.07440753 -0.05413872 0.0012452304
000080 e8 f8 cc bd 6f b4 57 3f 40 d7 94 3e 5a ec 53 3f
       -0.100084126 0.84259695 0.29070473 0.8278252
000090 4f 77 45 3f a6 64 66 bf 19 c1 5c 3f ca 67 99 3d
       0.77135175 -0.8999733 0.86232144 0.07490499
0000a0 54 4b 7b bf 6e e7 27 be 8e d1 8a 3e 98 99 f1 bc
       -0.98161817 -0.16396877 0.27113003 -0.029492185
0000b0 cd 42 91 3f 34 e1 20 bf 47 01 d7 3f 96 61 07 3f
       1.1348511 -0.6284363 1.6797265 0.5288328
0000c0 74 7d 1c 3f 6d 9c d5 be 6c d4 c2 3e 8f 07 c9 3e
       0.61128926 -0.41720906 0.3805269 0.3926358
0000d0 8c 64 7c 3f 30 fd 0a 3f c5 cf f0 3e 4e a7 ce 3f
       0.9859092 0.54292583 0.47033516 1.6144807
0000e0 80 48 ac be 77 e2 44 3f b7 bd 90 3e f6 c0 80 3f
       -0.33649063 0.7690806 0.2826974 1.0058887
0000f0 ee 30 1c bf 6e 1a 2d 3f d4 a2 85 3f c5 b8 ac 3f
       -0.6101216 0.67618454 1.0440316 1.3493887
000100 20 7e a7 bb a4 93 7d 3f 3b 1a da 3e 18 66 2b 3f
       -0.005111471 0.99053407 0.42598137 0.6695266
000110 d4 60 2c 3f a2 ca 8b bf 47 6a 90 3f 21 03 bb 3e
       0.6733525 -1.0921214 1.1282433 0.36525825
000120 09 8f 52 bf 82 a8 a9 3d 0b b6 2b 3e bc c9 0f be
       -0.82249504 0.082840934 0.16768663 -0.140418
000130 52 1b 92 3f be 75 2f bf 15 17 bb 3f 64 75 fb 3e
       1.1414587 -0.68539035 1.4616419 0.49113
000140 fe 89 09 3f cb 52 e8 be 32 47 da 3e db 37 0e 3f
       0.53726184 -0.45375666 0.42632443 0.5555398
000150 03 5a 9f 3f d0 6b 50 3f 34 5e 16 3f 02 cc ce 3f
       1.2449344 0.8141451 0.5873749 1.6156008
000160 4a bf fc 3d 06 f8 27 3f 36 be 90 3e fd a3 82 3f
       0.12341173 0.6561283 0.2827012 1.0206295
000170 e8 e8 20 bf e4 62 4d 3f 4b 4f 95 3f 34 4e ad 3f
       -0.62855387 0.8022902 1.1664823 1.3539491
000180 f0 91 63 be 3c 7b 70 3f 4b a2 b6 3d d0 3d 24 3f
       -0.2222364 0.9393804 0.08917674 0.6415682
000190 e8 41 54 3f fc d6 94 bf b9 b3 7f 3f a0 06 d1 3d
       0.82913065 -1.1628108 0.9988361 0.10206342
0001a0 c3 54 55 bf a4 6e 99 bc ed 71 32 3e 66 34 a5 bd
       -0.8333246 -0.018729515 0.17426272 -0.08066635
0001b0 5f b6 8c 3f 35 9d 26 bf 87 cc df 3f a4 8d e7 3e
       1.0993155 -0.6508363 1.7484292 0.4522525
0001c0 52 6d 28 3f c6 8c b2 be 41 e5 00 3f 8c ff c0 3e
       0.6579181 -0.34873027 0.50349814 0.37694967
0001d0 99 6b 8a 3f e8 b6 1f 3f 90 ca c5 3e 76 0c eb 3f
       1.0814086 0.6238847 0.38631105 1.8363178
0001e0 f0 34 62 be 6a 4d 46 3f 5f 12 1a 3e e6 0b 86 3f
       -0.22090507 0.77461874 0.1504607 1.0472381
0001f0 6f e1 3a bf 72 99 58 3f a8 22 7c 3f 82 4a a9 3f
       -0.73000234 0.8460914 0.9849038 1.3225863
000200 9e 3f 6f be d4 2f 68 3f de 74 09 bf ba 71 96 3f
       -0.23364112 0.9069798 -0.5369395 1.1753457
000210 20 d5 1b bf b2 22 4d 3f da dd a1 3f db 85 32 bf
       -0.6087208 0.80131066 1.2645829 -0.697355
000220 b6 4a a0 3e 8d dc 76 bf 14 5e 06 bf cf 20 5c bf
       0.31307 -0.96430284 -0.524873 -0.8598756
000230 fe 81 2e 3f 6d 0b ef 3e c9 34 67 3f 18 c8 04 3e
       0.681671 0.46688405 0.9031492 0.12966955
000240 99 91 8f bf 14 ba ac 3e 2c 48 08 3e 28 2c ec be
       -1.1216308 0.33735716 0.13308781 -0.4612744
000250 0e 61 81 3f b4 25 a3 3f 28 39 16 bf 36 5e 56 be
       1.0107744 1.2745881 -0.58680964 -0.20934376
000260 1a b5 f2 be 58 a5 8a bf f8 4d 24 be 77 de 8f 3f
       -0.47403795 -1.0831709 -0.16045368 1.1239766
000270 ac b8 af bd 5c 83 e3 be 31 32 74 3f 40 b2 92 3f
       -0.08580145 -0.44436157 0.95389086 1.1460648
000280 b2 ff f4 3f 34 7b 01 40 64 14 1e c0 1a 41 e6 bf
       1.9140532 2.0231447 -2.4699945 -1.7988617
000290 d5 85 13 40 0a b8 c4 bf 5a b5 ed be 8e c7 d3 be
       2.3050435 -1.5368664 -0.46427423 -0.41363186
0002a0 9a 72 88 bf fa 8b 78 bf 0a 45 75 bf 75 ff cd be
       -1.0659974 -0.9708859 -0.9580847 -0.4023396
0002b0 43 53 af 3f 2c 40 41 bf 5e 5c 6b 3f e4 78 82 3f
       1.3697284 -0.75488544 0.91937816 1.0193143
0002c0 de fe 2e bf 16 c8 30 c0 a7 ea b2 3e f3 4e af bf
       -0.68357646 -2.7622123 0.3494465 -1.3695968
0002d0 58 c9 13 40 7a fc c3 bf c2 fd 9a 3f 17 44 29 40
       2.309164 -1.5311425 1.2108691 2.6447809
0002e0 56 5a 83 be f2 7b 16 bf 3a e1 47 3f 3d 93 cd bf
       -0.25654858 -0.58782876 0.78078043 -1.6060559
0002f0 13 7e 83 3e b7 17 02 40 17 cc 9b bf 50 31 37 40
       0.25682124 2.0326974 -1.2171658 2.8623848
000300 dc 9e 32 be ea 3a 83 3f e2 bd 0a 3e d0 a7 03 3f
       -0.17443413 1.0252354 0.13548997 0.51427937
000310 22 6b 41 3f 3e 3f 9a bf 65 6b 87 3f a4 ae 35 3e
       0.75554097 -1.205055 1.0579649 0.17742401
000320 62 d1 68 bf 86 10 04 3e cc 5a 40 3e 6e a1 4c be
       -0.9094449 0.12896928 0.18784636 -0.19983456
000330 fc e1 98 3f da 46 23 bf 40 e8 b1 3f 39 71 06 3f
       1.1943965 -0.63779986 1.3899002 0.52516514
000340 24 7b 10 3f 04 d9 fa be e4 04 ac 3e 6c 0f cf 3d
       0.564379 -0.48993695 0.3359748 0.10110363
000350 1c 57 7a 3f af 82 44 3f 0e 90 d1 3e f1 0e c7 3f
       0.9778917 0.7676191 0.40930218 1.5551435
000360 bc 46 34 be 77 a7 45 3f 39 45 36 3d 00 3d 82 3f
       -0.17605108 0.77208656 0.04449961 1.0174866
000370 72 4d 0c bf 3e c4 4c 3f c8 bf 92 3f 8e 43 83 3f
       -0.5480567 0.7998694 1.1464777 1.0254991
000380 bc 7c a2 bf 0e fa 88 3f 9c 9e 24 bf 40 51 9a bc
       -1.2694316 1.0701311 -0.6430452 -0.018837571
000390 ae a7 f8 3e bb 69 4b 3d 62 cc 34 3f f2 c2 6a bc
       0.4856543 0.04966138 0.70624363 -0.014328705
0003a0 b7 9d ee 3d bc b7 cc be 4a 49 fc 3d a4 6d 25 3e
       0.116511755 -0.39983928 0.12318666 0.16155106
0003b0 b5 05 e3 3e 9c d4 c0 be 82 23 74 3f 40 58 b1 bf
       0.44340292 -0.37662208 0.9536668 -1.3855057
0003c0 20 a5 b8 3d ea 30 6f 3c 6a 02 02 c0 c0 a9 6d 3e
       0.0901587 0.014599064 -2.0313973 0.23209286
0003d0 b9 8e 69 3f 79 d7 27 3f 3a cf ee bf 00 78 9b 3f
       0.912334 0.6556316 -1.865699 1.2145996
0003e0 42 93 8b be 34 e6 c4 3f 28 d1 f1 bf 28 b8 ac 3e
       -0.27260786 1.5382752 -1.8891954 0.3373425
0003f0 61 d3 e5 bd 3b 44 70 3e 40 1a 0b 3f ac 39 5d 3f
       -0.11221958 0.23463528 0.5433693 0.86416125

layer2.bias f4 [32]
000000 56 75 1c bd 1e 23 3e be a8 b5 50 be 66 68 98 be
       -0.038197838 -0.18568084 -0.20381796 -0.2976715
000010 ee 8d 89 3e 69 a8 d2 3e 49 01 a7 be 5e 91 a3 be
       0.26866096 0.41144112 -0.32618168 -0.31946844
000020 57 bb a2 be cc 8b 8c bd 28 70 8f be 36 e8 82 3f
       -0.31783554 -0.06862602 -0.28015256 1.0227115
000030 9d 99 6e be 63 a4 30 be ee 23 8a be c6 69 9e be
       -0.23300786 -0.17250209 -0.26980537 -0.30940074
000040 fc 22 e7 be a6 c5 38 3c 46 c9 eb be 12 ce 09 bf
       -0.45143878 0.011277592 -0.46051997 -0.53830063
000050 1c 15 3c bf f6 1e 05 be 30 b4 89 be 4e c5 67 be
       -0.7346971 -0.13000092 -0.26895285 -0.2263386
000060 db 90 5e 3f 38 0f 99 be 7d 4d 27 3f f0 fe 6f bd
       0.8693978 -0.29894423 0.6535261 -0.058592737
000070 1a 3a cb 3e 58 be c6 3d 63 13 52 be b1 23 f2 be
       0.39692765 0.09704274 -0.20515208 -0.47292855

output.weight f4 [1, 32]
000000 f6 17 38 3d 40 80 87 bf f6 0c 84 bf ca e6 8d bf
       0.044944726 -1.0586014 -1.0316455 -1.1086056
000010 fa 88 f5 3f 3e 49 8b 40 74 9f a2 bf 1a 38 15 40
       1.9182427 4.3526907 -1.2704911 2.3315492
000020 26 43 02 40 d0 b5 14 40 1f 0e cb bf 76 b1 3e 40
       2.0353484 2.323597 -1.5863684 2.9795814
000030 d6 dc 99 bf 31 61 99 bf b4 e3 a0 bf df b2 ad bf
       -1.2020519 -1.1982785 -1.256949 -1.3570212
000040 b1 f1 8e bf 10 03 6c bf ac 6f ab bf 00 11 a2 bf
       -1.1167508 -0.92192173 -1.3393455 -1.2661438
000050 dc 44 4f 40 58 19 1d 3e 4b 7a 89 bf 99 39 93 bf
       3.2385778 0.15341699 -1.0740446 -1.1501952
000060 5a e8 48 40 11 3f a2 bf bf 7c 16 40 c2 44 84 bf
       3.1391816 -1.2675496 2.351364 -1.0333483
000070 21 e0 63 40 66 8d 37 3d a0 77 9a bf 58 22 91 bf
       3.5605547 0.044812582 -1.2067757 -1.1338606
