Models/OU_network/tau_0.5theta_0.75/target_Q_network.pt (torch, 7263 bytes, 5 tensors)

layer1.weight f4 [32, 4]
0	0xbf216b66	-0.630545
1	0x3fa1418b	1.2598127
2	0xbe79795f	-0.24362706
3	0x3d896aa8	0.06709796
4	0x3f2a3b36	0.664966
5	0x3d64486c	0.05573313
6	0x3e484498	0.19557416
7	0x3e3f0497	0.18654095
8	0xbfe52ee4	-1.7904935
9	0xbfdb3474	-1.7125382
10	0xbec63672	-0.38713413
11	0xbcdde0be	-0.027084704
12	0xbfaf0bbc	-1.3675456
13	0xc0209cde	-2.5095744
14	0xbf09095a	-0.53529894
15	0xbe5716a6	-0.21004733
16	0x3f1d8888	0.61536455
17	0x3e5565c2	0.20839599
18	0xbf3b82f0	-0.7324667
19	0xbebcf50e	-0.36905712
20	0xbfbfcdf8	-1.4984732
21	0xbf833b6a	-1.0252507
22	0x3e4a46da	0.1975359
23	0xbc7aa7e6	-0.015298819
24	0xbfe8c1e2	-1.8184168
25	0x3fdb34da	1.7125504
26	0x3e39b361	0.18134834
27	0x3da71568	0.0815838
28	0xc00ac9e8	-2.1685734
29	0x3fed2273	1.8526138
30	0x3f080eed	0.53147775
31	0x3e3d8c76	0.18510613
32	0x3fa2e57e	1.2726285
33	0x3f55f516	0.83577096
34	0xbf13d930	-0.57753277
35	0xbee8ce6e	-0.45469993
36	0x3f154f13	0.5832378
37	0xc028b61e	-2.6361156
38	0xbee9796d	-0.45600453
39	0xbe56e0b3	-0.20984153
40	0xbf8dae40	-1.1068802
41	0xbe59b9e2	-0.21262315
42	0xbf143db4	-0.5790665
43	0xbe9ccc57	-0.3062465
44	0xbfc806c2	-1.5627062
45	0xbfde58b0	-1.7370815
46	0xbf142a24	-0.578768
47	0xbd5ccce1	-0.053906325
48	0x3e9ab672	0.3021732
49	0xbea4e6bf	-0.32207295
50	0x3f6fb88e	0.93640983
51	0x3ef1fb9b	0.47262272
52	0x3fbdb202	1.4819949
53	0xbf21c5fb	-0.6319272
54	0xbe4db238	-0.20087516
55	0x3e156c92	0.14592198
56	0xbffdbfa4	-1.9824109
57	0x3f028842	0.5098916
58	0xbf2e8250	-0.6816759
59	0xbf07ae04	-0.529999
60	0x3f933db6	1.1503208
61	0x3f37ab76	0.71746004
62	0x3ed81032	0.42199856
63	0xbcdf616e	-0.027268138
64	0xbf23b284	-0.6394427
65	0xbec7c778	-0.3901937
66	0xbf1479ae	-0.5799817
67	0xbe7977ba	-0.24362078
68	0x3e529604	0.20565039
69	0xbf322f02	-0.6960298
70	0xbf64dfe5	-0.89404136
71	0xbd93a861	-0.0720985
72	0xc02019cb	-2.5015743
73	0xbef92d83	-0.48667535
74	0xbf17016a	-0.5898653
75	0xbea6371a	-0.32463914
76	0xbf84e982	-1.0383761
77	0xbfd39110	-1.6528645
78	0x3f1066ec	0.56407046
79	0x3f004eb0	0.5012007
80	0xbfb2304c	-1.3920989
81	0x40411fda	3.017569
82	0x3f42d4e6	0.7610611
83	0x3e1524e2	0.14564851
84	0x3f1df16b	0.616965
85	0xc0139510	-2.305973
86	0xbf033f52	-0.51268494
87	0xbd90e7bc	-0.0707545
88	0xc017642c	-2.365489
89	0x401a6c16	2.412847
90	0x3f2e7565	0.6814788
91	0x3e8566e2	0.26055056
92	0xbfa208b4	-1.2658906
93	0xbeeead46	-0.46616572
94	0xbec38fcc	-0.38195646
95	0xbdf10097	-0.11767691
96	0x3e3e5b1c	0.18589443
97	0x3ea2d5be	0.31803697
98	0x3f044db1	0.5168105
99	0x3e9ee0c8	0.3103087
100	0xbd75f102	-0.060044296
101	0xbffa93fa	-1.9576409
102	0x3f4ea93d	0.8072699
103	0xbc9db8a8	-0.01925309
104	0xbf46ead6	-0.7770208
105	0x4080b151	4.021645
106	0x3f626cca	0.8844725
107	0x3e747401	0.23872377
108	0xbfdd47d2	-1.7287543
109	0xbe86ea92	-0.26350838
110	0x3f138e6c	0.57639194
111	0x3eac92e8	0.3370583
112	0xbeebc242	-0.46046644
113	0x401bbae8	2.4332829
114	0xbdd2add6	-0.10287063
115	0xbe369a6d	-0.17832346
116	0xbe8077f8	-0.2509153
117	0xc01a7d66	-2.4139037
118	0xbe552caa	-0.20817819
119	0x3dba62ca	0.09100874
120	0xbf8218e4	-1.0163846
121	0x407bb91a	3.9331727
122	0x3f77d015	0.96801883
123	0x3ea53c7a	0.32272702
124	0x3f91168f	1.1335009
125	0xc0062b9e	-2.0964122
126	0xbedd1f7a	-0.43188077
127	0x3d13c740	0.03607869

layer1.bias f4 [32]
0	0x3f8ebaaa	1.1150715
1	0x3fcabbac	1.5838523
2	0x3f6ef4d8	0.9334235
3	0x3f0b3e2c	0.5439174
4	0x3fc2198e	1.5164049
5	0x3f8f69a0	1.1204109
6	0x3ede71ef	0.434463
7	0x3f62db0e	0.886155
8	0x3dc4b605	0.0960503
9	0x3ce1a236	0.027543169
10	0x3fde6650	1.7374973
11	0x3e6f620d	0.23377247
12	0x3f3a17dc	0.72692657
13	0x3f5f56f8	0.8724208
14	0x3f7488c4	0.9552119
15	0x3f357a94	0.70890164
16	0x3fd130e3	1.6343044
17	0x3f1eb3ae	0.6199292
18	0x3fa2f326	1.2730453
19	0xbf5643d8	-0.8369727
20	0x3ebab107	0.36463186
21	0x3e0b5df6	0.13610062
22	0x3f59e18c	0.8510978
23	0x4005cdaf	2.090679
24	0x3fca0a5b	1.578441
25	0x3eecc7d0	0.46246195
26	0xbee8b758	-0.4545238
27	0x40280744	2.6254435
28	0x3f9cb1ca	1.2241757
29	0x3fd5f97e	1.6716764
30	0xbe2aa669	-0.16665043
31	0x3e651528	0.22371352

layer2.weight f4 [32, 32]
0	0x3eec75ab	0.46183524
1	0xbd799ac2	-0.060938604
2	0xbf224c9a	-0.63398135
3	0x3f057d8f	0.5214471
4	0x3eeef380	0.4667015
5	0xbf9dde72	-1.233351
6	0x3fdfcf33	1.7485107
7	0x3fce2f89	1.6108257
8	0xbfc0eeb8	-1.5072851
9	0x403baae4	2.9323053
10	0xbd411d1a	-0.047146894
11	0xbfde16ab	-1.7350668
12	0xbfaac0c4	-1.3340077
13	0xbff01df0	-1.8759136
14	0x3f89f0c6	1.0776603
15	0x3f3ff3dc	0.74981475
16	0xbe42d87e	-0.19027898
17	0x3f88e5aa	1.0695088
18	0x3ece3871	0.40277436
19	0xbfbbb6b6	-1.4665134
20	0x3fa6f282	1.3042758
21	0x3eb2c79c	0.34917915
22	0x3fb50e4a	1.4144986
23	0xbf95618c	-1.1670394
24	0x3f4775fb	0.779144
25	0xbf885626	-1.065129
26	0x3fc2d768	1.5221987
27	0x3fbaefce	1.4604433
28	0x3f3dadeb	0.740935
29	0xbfbc55b0	-1.471365
30	0x3fe3aaac	1.778646
31	0xc09008de	-4.5010824
32	0xbb7617de	-0.0037550847
33	0xbd2d59dc	-0.042322025
34	0xbddd53ce	-0.10807
35	0x3de3f618	0.11130923
36	0x3de3912e	0.11111675
37	0x3dc72bcc	0.097251505
38	0xbdf7ff5c	-0.12109253
39	0x3dd6f60a	0.10496147
40	0x3d8a3d68	0.067499936
41	0xbd3a16b4	-0.045431808
42	0xbc055e3a	-0.008140141
43	0xbcc5a332	-0.02412567
44	0x3d1dbe10	0.038511336
45	0xbda6af30	-0.08138883
46	0x3df6eaa4	0.12056473
47	0xbd4c70b4	-0.04991217
48	0x3db4b65a	0.08823843
49	0xbe49912a	-0.19684282
50	0xbe2bd5e8	-0.16780818
51	0xbd69a61a	-0.057043172
52	0xbde0b7a6	-0.10972528
53	0xbb16d33e	-0.0023014094
54	0xbd0a9784	-0.033835903
55	0xbe14ece6	-0.14543495
56	0xbe37c49c	-0.17946094
57	0x3de396f6	0.11112778
58	0x3e03fa82	0.1288853
59	0xbd680c52	-0.056652375
60	0xbda65846	-0.081223056
61	0xbdd8b06a	-0.10580523
62	0xbe1227ca	-0.14272991
63	0xbe20fe54	-0.15722018
64	0xbdd389d0	-0.1032902
65	0xbe2f2348	-0.17103302
66	0xbb4beb96	-0.0031115762
67	0xbe03683e	-0.12832734
68	0xbdc4e6ce	-0.09614335
69	0x3d8bacaa	0.068200424
70	0xbe499dc8	-0.19689095
71	0x3d25644e	0.04037886
72	0xbe0728a0	-0.13199091
73	0xbe20818e	-0.15674421
74	0xbd051444	-0.03249003
75	0xbdb96248	-0.09051949
76	0xbded549a	-0.11588402
77	0xbd9396ee	-0.07206522
78	0x3df0a512	0.11750235
79	0xbdb3456a	-0.08753474
80	0xbc20098e	-0.009767903
81	0xbbbec898	-0.0058222525
82	0x3d89fdbc	0.06737849
83	0x3cd85d52	0.026411686
84	0x3d0dc1ce	0.034608655
85	0x3d39b670	0.04534
86	0xbd11d158	-0.035600036
87	0x3dec2b22	0.115316644
88	0x3bcf2294	0.0063212607
89	0xbd7f4b08	-0.062327415
90	0xbd374170	-0.04474014
91	0x3dd4db38	0.10393375
92	0xbe2e68ea	-0.17032209
93	0xbd9fbcac	-0.07799658
94	0x3dd3ad34	0.1033577
95	0x3e02e920	0.12784243
96	0x3f23a514	0.63923764
97	0xbe1d1b80	-0.15342522
98	0x3f6685e4	0.9004805
99	0x3fadaab5	1.3567721
100	0xbf46df43	-0.7768442
101	0x3e61a8aa	0.22036996
102	0x3f40be62	0.752905
103	0x3dc97aba	0.09837861
104	0x3f19fdbf	0.6015281
105	0x3fcf1964	1.6179624
106	0xbf082d20	-0.53193855
107	0xbec284ff	-0.37992093
108	0xbe9ee6e2	-0.31035525
109	0x3ed41626	0.41423148
110	0x3ee70940	0.45124245
111	0xbd0ea0ac	-0.034821197
112	0xbee585b8	-0.44828582
113	0xbf244f06	-0.6418308
114	0xbd4f2972	-0.050576635
115	0xbc24e1d2	-0.010063605
116	0x3ed21936	0.4103486
117	0x3f9566a4	1.1671948
118	0x3eed935e	0.46401495
119	0xbe3dbc10	-0.18528771
120	0xbea32770	-0.31866026
121	0xbe140600	-0.14455414
122	0x3fc44b62	1.5335505
123	0x3ea8f366	0.32998198
124	0x3f353b82	0.70793927
125	0xbf28b03e	-0.65893924
126	0x3f5d430a	0.8643042
127	0x3f3f69fc	0.74771094
128	0x3f56d1fa	0.8391415
129	0xbe3cc5f0	-0.18434882
130	0x3f7b0759	0.98058087
131	0x3fa065a8	1.2531023
132	0xbf2a4f34	-0.66527104
133	0x3eac0092	0.33594185
134	0x3f5e4aa8	0.86832666
135	0x3edbfa82	0.4296456
136	0x3f81adb1	1.0131131
137	0x3fc098d2	1.5046637
138	0xbea61566	-0.324382
139	0xbe8ce9f0	-0.2752223
140	0xbf08a438	-0.5337558
141	0x3f143c8d	0.57904893
142	0x3e7fdfb0	0.24987674
143	0xbdbfcfbc	-0.09365794
144	0xbe42f230	-0.190377
145	0xbf4004ee	-0.7500752
146	0xbe27b01c	-0.16375774
147	0x3ebf372b	0.37346777
148	0x3ed62285	0.4182321
149	0x3f773bfe	0.96575916
150	0x3eb5efac	0.35534418
151	0xbe14ee73	-0.14544086
152	0xbf245610	-0.6419382
153	0xbe84643e	-0.2585773
154	0x3fc9c2a6	1.5762527
155	0x3ef3cefe	0.4761886
156	0x3f5a84ea	0.8535906
157	0xbee58d14	-0.44834197
158	0x3f25b5cc	0.64730525
159	0x3f601796	0.8753599
160	0x3f550cb8	0.8322253
161	0x3f4db105	0.80348235
162	0x3f87be11	1.0604879
163	0x3fac6930	1.3469601
164	0xbe5dd092	-0.21661595
165	0x3dc2c414	0.09510055
166	0x3f5fe4a4	0.8745825
167	0x3ed3a0ca	0.4133361
168	0x3f9df395	1.233996
169	0x3fc11654	1.5084939
170	0xbe5100d8	-0.20410478
171	0xbde96fda	-0.11398287
172	0xbd8f5418	-0.069984615
173	0x3fb29752	1.3952429
174	0x3f009530	0.5022764
175	0x3f4f9720	0.81089973
176	0xbe15b9b4	-0.14621621
177	0xbeb4f2f4	-0.3534161
178	0x3b36b5ef	0.0027879437
179	0x3e6ad33e	0.22932145
180	0x3f2dec0a	0.6793829
181	0x3fa9f0f3	1.3276657
182	0x3ed1a149	0.40943363
183	0x3e5c0710	0.21487069
184	0xbc8519aa	-0.01624759
185	0xbdc80a4d	-0.0976759
186	0x3fbe9fd0	1.4892521
187	0x3ea9055e	0.33011907
188	0x3f8f443c	1.1192698
189	0xbe974ea6	-0.29552191
190	0x3f692db6	0.91085374
191	0x3f6de8b9	0.9293323
192	0x3f77a4ba	0.9673573
193	0x3f533c64	0.82514024
194	0x3f814336	1.0098636
195	0x3fc3cfba	1.5297768
196	0xbe4c7e17	-0.19969974
197	0x3dae0938	0.08497852
198	0x3f7ff024	0.999758
199	0x3eb22af4	0.34798396
200	0x3f93f04e	1.155771
201	0x3fc5ffb0	1.5468655
202	0xbeb0fae7	-0.34566423
203	0xbea70d39	-0.32627276
204	0xbde29554	-0.11063638
205	0x3fa681c2	1.3008349
206	0x3ea10ece	0.31456608
207	0x3f026638	0.50937223
208	0xbd87a8c4	-0.06623986
209	0xbece7328	-0.40322232
210	0xbde669f2	-0.11250676
211	0x3e145a6e	0.14487621
212	0x3f03f87c	0.5155103
213	0x3f8b7073	1.0893692
214	0x3e972a68	0.2952454
215	0x3db7f4f4	0.08982268
216	0x3e20eb87	0.15714847
217	0xbc9b58b8	-0.018963203
218	0x3fb29b40	1.3953629
219	0x3eeaa1bc	0.4582652
220	0x3f886fc5	1.0659109
221	0xbeb4e54c	-0.3533119
222	0x3f8049d8	1.0022535
223	0x3f976c78	1.1829977
224	0x3f399cc6	0.7250484
225	0xbcedd75a	-0.029033352
226	0x3f8f09ae	1.1174829
227	0x3fb155b0	1.3854275
228	0xbf3dcef5	-0.74143916
229	0x3e8eb04e	0.27868885
230	0x3f2a2148	0.66457033
231	0x3ed468ca	0.41486198
232	0x3f87ba39	1.0603706
233	0x3fa84761	1.3146783
234	0xbe54bb0c	-0.20774478
235	0xbe8e93e1	-0.27847198
236	0xbeceed66	-0.40415496
237	0x3ed8dd28	0.4235623
238	0x3ec59342	0.3858891
239	0xbd563ada	-0.05230222
240	0xbbf758eb	-0.0075484416
241	0xbf217cd3	-0.6308109
242	0xbd658433	-0.056034278
243	0x3c79fefa	0.015258545
244	0x3f13a07e	0.57666767
245	0x3f8dab6b	1.1067938
246	0x3ea1d5a4	0.31608307
247	0x3d4ee794	0.05051382
248	0xbeb4aee0	-0.3528967
249	0xbe0f6a4c	-0.14005393
250	0x3fa57c0a	1.2928479
251	0x3eb20ad2	0.3477388
252	0x3f77b1c8	0.9675565
253	0xbf1daafc	-0.61589026
254	0x3f2a73ba	0.66582835
255	0x3ef2a42e	0.47390884

layer2.bias f4 [32]
0	0xbd6ec8bc	-0.058296904
1	0x3b2698d6	0.0025420687
2	0xbe149c20	-0.14512682
3	0xbead3d20	-0.33835697
4	0xbecc3686	-0.39885348
5	0x3df518ac	0.119675964
6	0x3e9a6f88	0.30163217
7	0xbea064d1	-0.31326917
8	0x3d7c28e2	0.061562426
9	0xbec0beeb	-0.3764566
10	0xbed5d4c7	-0.417639
11	0xbf0b32a0	-0.5437412
12	0xbe511e19	-0.20421638
13	0x3e2342ed	0.15943499
14	0xbefdb2aa	-0.49550372
15	0xbf094988	-0.53627825
16	0x3d61570c	0.055014655
17	0x3e8ebb7c	0.27877414
18	0x3e1ba8de	0.15201136
19	0xbf0519e8	-0.51992655
20	0xbeb472ee	-0.35243934
21	0xbede255e	-0.43387884
22	0xbf02e51e	-0.51130855
23	0xbe9a57c6	-0.3014509
24	0xbf0c9dad	-0.54928094
25	0x3cb00f0e	0.021491554
26	0x3f39f91a	0.72645724
27	0xbe02227f	-0.12708472
28	0xbea295f8	-0.31755042
29	0x3e14acac	0.14518994
30	0xbe6b3807	-0.22970591
31	0x3f744c45	0.9542888

output.weight f4 [1, 32]
0	0x404fed70	3.248867
1	0x3d29ce3e	0.041456454
2	0x3e063a66	0.13108215
3	0xbf99bc3c	-1.201057
4	0xbf8c7ecc	-1.0976195
5	0xbf6ae520	-0.91755867
6	0xbf8cad6d	-1.0990425
7	0xbf8406d4	-1.0314584
8	0xbf9be476	-1.2179096
9	0xbf70f45e	-0.94122875
10	0xbf66883c	-0.9005163
11	0xbf43b4dc	-0.76447845
12	0xbfd9a5b2	-1.7003691
13	0x403fa714	2.9945726
14	0xbf7619bf	-0.96133035
15	0xbf7d8b21	-0.9904042
16	0x3e130bb6	0.14359936
17	0xbf865c72	-1.0496962
18	0x4074af44	3.8231974
19	0xbf655040	-0.89575577
20	0xbf87e0f1	-1.0615522
21	0xbf8d1fd8	-1.1025343
22	0xbf663206	-0.8992008
23	0x4035b9bc	2.8394613
24	0xbf7f10f2	-0.9963523
25	0x3d99c086	0.07507424
26	0x40cb3bae	6.351035
27	0xbd088d00	-0.033337593
28	0xbf6e937a	-0.9319378
29	0xbf8a3fb0	-1.0800686
30	0xbf936406	-1.15149
31	0x4083d776	4.1200514
