Models/target_network/tau_0.01/policy_network.pt (torch, 7119 bytes, 5 tensors)

layer1.weight f4 [32, 3]
0.6315605 -1.2165478 -0.71727806 -0.29271868 0.4473486 -0.81608564 -0.94208825 0.5632546
-0.5398719 -0.6273208 1.0485635 0.31694523 0.8232747 -1.2539587 0.19614613 1.2316016
0.30696297 0.053288143 -0.8725004 -0.82695764 -0.7473869 0.6875828 0.19065791 0.35923713
0.7747372 1.0701911 0.741976 -1.2282674 -0.6359527 0.2498776 1.2902169 -0.045542683
-0.652294 0.7138567 0.042502 0.17493218 -1.3828216 1.457779 0.28815824 -0.5395729
-0.58542156 -0.15448366 0.46345854 1.6962161 -0.21453828 -0.91998726 -0.14757155 0.021262018
0.7629856 -1.1437043 -0.13875686 1.1400234 -0.8440499 -0.8023563 0.52326334 -0.12545215
0.036842026 -0.41891846 0.7526584 -0.23209824 -0.82601273 1.7997875 0.39533922 0.03854678
0.9172424 -0.87355524 -1.1325376 0.30507812 0.15165374 0.33686808 -0.13678178 -0.43736708
-0.33305195 -1.098762 -0.04122272 -0.23996344 -1.0805094 0.48512635 -0.93256754 1.84766
-0.13894717 -0.47872978 -1.4249425 -0.5087388 0.18268844 -0.70047593 -0.44081765 -0.8535668
-1.0220908 -0.74475515 -0.53267914 -0.7297569 0.016287249 -0.36413282 0.5895712 0.63673395
00000000: f3ad 213f d7b7 9bbf 899f 37bf 39df 95be
00000010: e00a e53e fdea 50bf b22c 71bf 7431 103f
00000020: 0b35 0abf 1998 20bf 5437 863f a546 a23e
00000030: 21c2 523f b881 a0bf 88da 483e 1fa5 9d3f
00000040: 402a 9d3e ab44 5a3d 305c 5fbf 7fb3 53bf
00000050: bf54 3fbf 6d05 303f d43b 433e eeed b73e
00000060: 2d55 463f 06fc 883f 24f2 3d3f de37 9dbf
00000070: cccd 22bf eadf 7f3e d425 a53f f78a 3abd
00000080: bdfc 26bf 50bf 363f 9416 2e3d 6c21 333e
00000090: 4c00 b1bf 8198 ba3f 7a89 933e 7321 0abf
000000a0: 30de 15bf f730 1ebe 704a ed3e 9c1d d93f
000000b0: ecaf 5bbe 4984 6bbf ff1c 17be af2d ae3c
000000c0: 0653 433f e764 92bf 4716 0ebe 49ec 913f
000000d0: a713 58bf 3967 4dbf 96f4 053f 8776 00be
000000e0: aae7 163d 7b7c d6be 39ae 403f 29ab 6dbe
000000f0: 9275 53bf 705f e63f e769 ca3e 3ae3 1d3d
00000100: 66d0 6a3f 51a1 5fbf fef6 90bf 3333 9c3e
00000110: 1e4b 1b3e f979 ac3e 8610 0cbe 94ee dfbe
00000120: c985 aabe 3ca4 8cbf 28d9 28bd fab8 75be
00000130: 224e 8abf 7b62 f83e bfbc 6ebf 1f80 ec3f
00000140: 2b48 0ebe 121c f5be 8464 b6bf b53c 02bf
00000150: ae12 3b3e 6452 33bf dab2 e1be 5b83 5abf
00000160: dfd3 82bf 46a8 3ebf a95d 08bf 59d1 3abf
00000170: d66c 853c 9e6f babe 23ee 163f ff00 233f

layer1.bias f4 [32]
0.40164512 -0.14299175 -0.18039726 0.6116672 0.5434527 -0.020785656 0.15619193 -0.55145735
-0.107901074 -0.449552 -0.15568063 0.50935084 -0.6299854 -0.2799868 -0.28303555 0.35795408
-0.42565417 -0.122883484 -0.76462746 0.7716435 0.73102915 0.35147023 1.1970367 -0.4653489
0.64967245 0.89288485 0.93959117 -0.085652925 -0.8024583 0.80473435 0.64196473 0.63171417
00000000: 6ea4 cd3e 6e6c 12be 0fba 38be 3996 1c3f
00000010: b71f 0b3f ae46 aabc c7f0 1f3e 4f2c 0dbf
00000020: 3dfb dcbd ae2b e6be be6a 1fbe d164 023f
00000030: b946 21bf 6e5a 8fbe 09ea 90be c245 b73e
00000040: 58ef d9be 56aa fbbd a0be 43bf 6e8a 453f
00000050: ba24 3b3f e8f3 b33e 8038 993f 3642 eebe
00000060: ef50 263f 1a94 643f 0c89 703f cd6a afbd
00000070: e86d 4dbf 1203 4e3f cd57 243f 05b8 213f

layer2.weight f4 [32, 32]
-0.2046171 0.027467713 -0.124738336 0.0096585695 -0.07477411 0.39933112 -0.109118834 -0.90704644
-0.44601977 -1.0942574 0.4896577 0.015201766 0.047537293 -0.5580841 -0.2476176 0.49115917
-3.4268465 0.42269492 -0.32146922 0.3865084 0.14887112 0.065768905 -0.5411832 -0.42680132
-1.017682 -0.0036889273 0.4418806 -0.87965053 -0.9398805 -0.5997451 -0.057004336 -0.09064529
0.009182197 0.3016822 0.10663224 -0.43351293 0.06044153 -0.34157574 0.0036115875 -1.5226581
0.071308315 -0.31857246 -0.05585425 -0.025706671 0.24382973 -0.19268799 -0.5665206 0.42033908
0.43206593 0.16429862 -0.056261495 0.1941666 -0.42171147 0.37258834 -0.0025502848 0.16955651
0.19761738 -0.18723549 0.46303123 0.41034722 -0.14166984 0.3513969 0.30270404 -0.9627222
0.26939774 0.18531305 0.2598233 0.036443405 0.1739258 -0.41866183 0.24126983 0.07470116
-0.08054151 -0.17253643 -0.16364802 0.0970904 0.070681594 -0.2571172 -0.6554816 0.18940057
-0.1687813 0.124554425 -0.3571104 0.13291736 0.032108456 0.040718302 0.2759801 -0.022905432
0.3848719 0.14702001 0.061374355 0.23267396 -0.09080315 0.22887722 0.286898 0.07615387
0.19701067 0.18815356 0.13092054 -0.1248001 0.015548705 -0.3238052 0.0012821313 -1.2139018
-0.17732932 -0.72711605 0.044443436 0.04600762 -0.18792689 -0.11758726 -0.3877125 0.03540054
0.14514495 0.1686699 -0.057066344 0.43916383 0.043610238 0.31013757 -0.09740373 -0.089035735
0.27340278 -0.43367743 0.36669335 0.24212252 -0.041267984 0.28261065 0.27832475 -0.3091553
-0.03708406 -0.02130081 -1.2601569 0.1736119 0.31724474 0.048972916 -0.22234444 0.5392742
-0.027007166 -0.38726246 0.07996695 0.31250685 0.24129155 -0.09654745 0.07372657 -0.032662652
-3.1189537 0.07050957 -0.49272522 0.11697237 0.1323163 -0.46104017 -0.28513488 -0.93043715
-0.5358394 0.27223757 0.11689747 -1.8853186 -0.93935937 -0.9360098 -0.0618345 0.13945168
-0.060349785 0.33314195 0.32658798 0.08868994 0.063257776 -0.20499706 0.2933625 0.009455056
0.088876165 -0.17173532 0.13019678 0.14634648 0.28030884 -0.14138047 -0.5132578 0.111783944
0.33912262 -0.013508601 -0.02000499 0.10379773 0.2939359 0.25979325 0.32411245 -0.04570718
0.0033808472 0.012710011 0.24744 0.38655058 -0.064194925 0.096777394 -0.015791634 -0.048349205
0.00084386853 0.11713609 0.12531288 0.0018374131 0.21835667 -0.4206382 0.048609205 -0.15457903
0.061714884 -0.20920433 -0.028974617 0.010986192 0.22398679 -0.06208018 -0.4369545 0.028580312
-0.36321756 0.03691037 -0.24715585 0.15585308 0.07451516 0.30220574 0.31210542 -0.1103233
0.35554796 0.26929665 0.44657314 0.3987094 -0.1684574 0.28342 0.2637972 -0.038894556
0.048364837 0.2662451 0.4510936 0.22300139 0.07277538 -0.41056827 0.20910592 -0.22051667
-0.020957211 -0.36644396 -0.12965918 0.20507732 0.20127065 -0.0053152065 -0.25486934 0.24958709
0.11593477 0.16272372 -0.16908497 0.0105336085 0.19575673 0.16444226 -0.04553969 0.27516067
0.12262776 0.27813804 0.3839137 0.34362468 0.13053071 0.18943058 -0.12099558 0.06112249
00000000: 2587 51be f803 e13c d076 ffbd fa3e 1e3c
00000010: 2b23 99bd 2175 cc3e b279 dfbd 3234 68bf
00000020: b45c e4be a010 8cbf 6ab4 fa3e d410 793c
00000030: 77b6 423d 99de 0ebf 788f 7dbe 3779 fb3e
00000040: 7451 5bc0 786b d83e 9d97 a4be 6ee4 c53e
00000050: ac71 183e d9b1 863d fb8a 0abf b485 dabe
00000060: 6743 82bf eec1 71bb 2d3e e23e c730 61bf
00000070: 029c 70bf e588 19bf 617d 69bd 3da4 b9bd
00000080: ed70 163c 1776 9a3e 0162 da3d 68f5 ddbe
00000090: 8a91 773d 04e3 aebe 62b0 6c3b 76e6 c2bf
000000a0: 180a 923d ee1b a3be 6dc7 64bd cc96 d2bc
000000b0: 80ae 793e 0050 45be 7e07 11bf af36 d73e
000000c0: bf37 dd3e e63d 283e 7472 66bd 9cd3 463e
000000d0: 91ea d7be e6c3 be3e ae22 27bb 39a0 2d3e
000000e0: 365c 4a3e a9ba 3fbe 6e12 ed3e 0819 d23e
000000f0: e611 11be 4bea b33e 06fc 9a3e f674 76bf
00000100: 80ee 893e b4c2 3d3e 8f07 853e ae45 153d
00000110: 9b19 323e d85a d6be 700f 773e ecfc 983d
00000120: f2f2 a4bd 64ad 30be 5993 27be 55d7 c63d
00000130: 83c1 903d dea4 83be a4cd 27bf 39f2 413e
00000140: 01d5 2cbe 6416 ff3d 2dd7 b6be 7d1b 083e
00000150: 2884 033d 3cc8 263d 434d 8d3e 2ca4 bbbc
00000160: ee0d c53e 6a8c 163e ad63 7b3d 1542 6e3e
00000170: 00f7 b9bd ca5e 6a3e 4be4 923e 8ff6 9b3d
00000180: 2abd 493e 54ab 403e 0910 063e 3297 ffbd
00000190: ffbf 7e3c ccc9 a5be 300d a83a 2261 9bbf
000001a0: d195 35be 4724 3abf 520a 363d 7c72 3c3d
000001b0: e86f 40be 97d1 f0bd 4182 c6be 2800 113d
000001c0: e1a0 143e cdb7 2c3e 66be 69bd 15da e03e
000001d0: a6a0 323d 5aca 9e3e 9b7b c7bd 5e58 b6bd
000001e0: 73fb 8b3e f80a debe 3bbf bb3e f7ee 773e
000001f0: 9e08 29bd 58b2 903e 9580 8e3e 9a49 9ebe
00000200: 75e5 17bd 097f aebc d24c a1bf 51c7 313e
00000210: e76d a23e d397 483d 43ae 63be e00d 0a3f
00000220: 223e ddbc 4447 c6be b6c5 a33d e600 a03e
00000230: 2215 773e abba c5bd f5fd 963d 46c9 05bd
00000240: f09c 47c0 5267 903d 7b46 fcbe 368f ef3d
00000250: ed7d 073e 750d ecbe 33fd 91be 2131 6ebf
00000260: c52c 09bf b962 8b3e f167 ef3d 1f52 f1bf
00000270: db79 70bf 579e 6fbf 2c46 7dbd 6ccc 0e3e
00000280: 5631 77bd 9591 aa3e 8a36 a73e 12a3 b53d
00000290: 4b8d 813d c0ea 51be 9c33 963e 61e9 1a3c
000002a0: b504 b63d 62db 2fbe 4e52 053e dadb 153e
000002b0: a484 8f3e 0bc6 10be dd64 03bf fbee e43d
000002c0: 7ba1 ad3e 2e53 5dbc 81e1 a3bc e793 d43d
000002d0: c47e 963e 9f03 853e 11f2 a53e 7437 3bbd
000002e0: 3491 5d3b a63d 503c e960 7d3e f5e9 c53e
000002f0: a178 83bd 3a33 c63d 755d 81bc d109 46bd
00000300: 0f37 5d3a 0ce5 ef3d 0552 003e 5ad5 f03a
00000310: e498 5f3e e45d d7be 721a 473d f749 1ebe
00000320: bfc8 7c3d a939 56be 2d5c edbc 6eff 333c
00000330: cb5c 653e c947 7ebd 80b8 dfbe 4221 ea3c
00000340: a7f7 b9be 542f 173d 6c16 7dbe f397 1f3e
00000350: 679b 983d b6ba 9a3e 48cc 9f3e 2ff1 e1bd
00000360: 620a b63e 40e1 893e 3ca5 e43e a323 cc3e
00000370: 1980 2cbe 6d1c 913e 6d10 873e e64f 1fbd
00000380: 351a 463d 4751 883e bef5 e63e 7a5a 643e
00000390: 420b 953d 0136 d2be dd1f 563e 1fcf 61be
000003a0: 75ae abbc 8b9e bbbe 60c5 04be caff 513e
000003b0: e519 4e3e 2f2b aebb 3c7e 82be c293 7f3e
000003c0: 356f ed3d 0ca1 263e 9c24 2dbe 2895 2c3c
000003d0: 7474 483e 8d63 283e d387 3abd dce1 8c3e
000003e0: 4324 fb3d 1c68 8e3e 5690 c43e 93ef af3e
000003f0: d8a9 053e 17fa 413e 88cc f7bd 935b 7a3d

layer2.bias f4 [32]
0.24804538 0.2956032 0.04537962 0.037352737 0.067301475 -0.059458025 0.0842951 -0.07608191
-0.01804061 0.089831606 -0.3792439 0.10970872 -0.08863454 -0.05092353 -0.17086603 0.2213144
-0.4299199 0.41470492 0.12205828 0.325949 -0.022982912 0.07311027 0.42237103 0.14277332
-0.034014888 0.21717328 0.045306496 0.07730854 -0.16228451 -0.16471316 -0.047026433 -0.12725356
00000000: 9cff 7d3e 4d59 973e fbdf 393d 2fff 183d
00000010: 5bd5 893d 428a 73bd e9a2 ac3d d5d0 9bbd
00000020: e7c9 93bc a2f9 b73d 422c c2be f7ae e03d
00000030: 0786 b5bd 3195 50bd 81f7 2ebe 3ea0 623e
00000040: 761e dcbe 3454 d43e b1f9 f93d cae2 a63e
00000050: a946 bcbc d6ba 953d 0441 d83e 2b33 123e
00000060: 3253 0bbd ac62 5e3e 4e93 393d f153 9e3d
00000070: e92d 26be 91aa 28be ca9e 40bd c24e 02be

output.weight f4 [1, 32]
-1.4601773 -0.77243775 -0.44522858 -0.5011168 -0.7627539 -0.44021156 -0.48865426 -0.6653313
-0.62301135 -1.1929601 1.1362132 -0.29095554 1.1417447 0.84421945 0.52529943 1.1896001
0.8908709 0.6097505 -0.34917575 1.0494051 0.6824245 1.9798889 1.1384779 -0.65003264
0.19735661 -1.2110202 1.0166415 0.91466415 -0.14457832 0.5220351 0.8812105 -0.66224337
00000000: 17e7 babf 7bbe 45bf 00f5 e3be 3149 00bf
00000010: d743 43bf 6963 e1be e430 fabe 2753 2abf
00000020: ac7d 1fbf ebb2 98bf 6f6f 913f 20f8 94be
00000030: b124 923f c41e 583f 067a 063f d144 983f
00000040: 1e10 643f 9c18 1c3f 2ac7 b2be e852 863f
00000050: 5fb3 2e3f 006d fd3f a5b9 913f 8a68 26bf
00000060: da17 4a3e b602 9bbf 4f21 823f 6e27 6a3f
00000070: 570c 14be 18a4 053f 0397 613f c888 29bf
