Models/target_network/tau_0.01/Q_network.pt (torch, 7207 bytes, 5 tensors)

layer1.weight f4 [32, 4]
00000000: 502c 72bf 183e 89c0 a0f7 83bf 7591 a8be
00000010: a341 a6bf 2cc5 6640 22ba 513f dfc4 713e
00000020: cb72 51be 5ecb 6ac0 f043 e1be d9c6 98be
00000030: b20f b8bf fdfa b1bf 00d6 d6be 4c3e 13be
00000040: 80d2 8bbf 1d32 d7bf df3b 8b3e f070 5abb
00000050: 5636 0c3f 61ac a83d c72d a53c aa49 593c
00000060: 6c2b fb3f 62ee 8a3e 30b0 a63e 21e7 963e
00000070: 40d7 2c3f f3f9 cabf ec29 953e 35d0 143e
00000080: 713d 223f 9805 cc3f 2ace d23e 2f11 04bd
00000090: c14d d5bf cdfe ae3e 0d1b 27bd 7128 ecbd
000000a0: 0e69 903f d948 b23c d672 0c3f 810d 5b3e
000000b0: cf6a 62be 3bd8 10be 512a 263c 4bc0 f2bd
000000c0: c8ed 82bf f56b 6840 188f 513f a7e1 853e
000000d0: e8a1 f3bf 0318 35c0 06ce 35bf cab1 dcbd
000000e0: ed91 c03e 73d5 ecbf 9a8b 863e 31b5 e53e
000000f0: ed39 b03e 3aeb 163e dab3 85be 1373 60be
00000100: cee3 1bbf 282d 403d cf8d b8be 01c5 2d3e
00000110: 9f00 f7bf 1020 1040 7c85 293f 2e4b 033e
00000120: e245 f23f 66bb 883f 8f9a 08be 0c4c 70be
00000130: d691 4ebf 7617 04be aedb 953e 20ef 8f3e
00000140: 8b78 e7bc 2a61 60be b5d0 d43e 4fee 403e
00000150: 4377 073e 1f66 183f db06 e7be b5f0 a9bc
00000160: bf0c d93f 6c63 27bf 3f68 b13e 1431 4dbe
00000170: 2a97 72bf de8d 783f 457c 3dbf 50c7 d7be
00000180: 1f69 dbbf d33f b4c0 9095 acbf cf64 bcbe
00000190: b1df acbf ff8b 113f bf89 a2be 1da6 f2bd
000001a0: d552 72c0 fbde cabf b5a5 a8be 92cd 08bc
000001b0: 126a d0be abe3 f63e 70c0 4f3d 42ba 443e
000001c0: c423 87bf fb5a 6f3f a20a ce3e 4603 e53d
000001d0: efa3 173e 571a ffbf c46f 1d3e 159d fe3d
000001e0: 19c4 c6bf 0497 1f40 c759 0dbf 4d73 53bf
000001f0: ab34 3dc0 3b6b 8abf eceb 533f b018 1cbe
-0.94598866 -4.28883 -1.0309944 -0.32923475 -1.2988781 3.6057844 0.8192464 0.23610257
-0.20453946 -3.6686625 -0.43997145 -0.2983921 -1.437979 -1.390472 -0.41960144 -0.14379233
-1.0923615 -1.6812168 0.27194116 -0.0033331476 0.5477041 0.08236004 0.02016343 0.013262192
1.9622626 0.27134997 0.32556295 0.29473212 0.67515945 -1.5857528 0.29133546 0.1453255
0.63375 1.5939207 0.41172916 -0.03224295 -1.6664354 0.34178773 -0.040797282 -0.11531151
1.128206 0.021763252 0.54862726 0.2139187 -0.22111057 -0.14144985 0.010141925 -0.11853083
-1.0228815 3.6315892 0.8185897 0.26148722 -1.9033785 -2.8295906 -0.7101749 -0.10776098
0.37611333 -1.850264 0.26278383 0.448648 0.34419194 0.1473817 -0.26113778 -0.21918897
-0.6089448 0.046918064 -0.3604569 0.16969682 -1.9297065 2.251957 0.66219306 0.12821648
1.8927577 1.068219 -0.1334021 -0.2346651 -0.8069128 -0.12899575 0.29269165 0.28112125
-0.028255722 -0.21912065 0.4156548 0.18840908 0.13229088 0.59530824 -0.45122418 -0.02074466
1.6957015 -0.6538608 0.34649846 -0.20038253 -0.9476191 0.9709147 -0.74017745 -0.4214425
-1.7141455 -5.632791 -1.3483143 -0.3679566 -1.3505765 0.5685424 -0.31745717 -0.1184809
-3.7863057 -1.5849298 -0.32938924 -0.008349793 -0.40705925 0.48220572 0.050720632 0.19211677
-1.055779 0.934982 0.40242487 0.11182265 0.1480863 -1.9929913 0.15374666 0.12432305
-1.5528594 2.4935923 -0.55215114 -0.8259781 -2.9563396 -1.0813974 0.82781863 -0.15243793

layer1.bias f4 [32]
00000000: e18d 3fbe c4ad 2a3e 0beb 9a3f 52dc 803f
00000010: e236 5a3f e4e7 c43f 026d 413f 5539 873f
00000020: 0b32 813f c769 b13f ae9a a63f 6aa3 fdbe
00000030: 18cc 93bd ce95 783f 56c0 7a3f ec3b 923f
00000040: 4b77 d03f 328c 913f dd97 0cbf c715 aa3f
00000050: 64fc 6b3f 305d b83f 5e30 b93e dfb6 863f
00000060: e44a 523e 9034 d63f 74d8 0540 b07e 933f
00000070: e172 a03f 8fb4 633f 4804 c83f 49ff 9d3d
-0.18706466 0.16667849 1.210298 1.0067236 0.85239995 1.5383267 0.7555696 1.0564371
1.0093397 1.3860406 1.3015954 -0.49538738 -0.07216662 0.97103584 0.9794973 1.1424537
1.6286405 1.1370909 -0.54919225 1.3287896 0.9218199 1.4403439 0.36169714 1.0524558
0.20536381 1.6734791 2.0913363 1.1523037 1.2535058 0.88947386 1.5626307 0.077147074

layer2.weight f4 [32, 32]
00000000: 8374 61bf 91c7 8cbf 2f75 e03e b1e4 adbd
00000010: 2c36 5b3e fbbc e33d 7ebd 3b3e 5c1d a33d
00000020: eadc 62bd b196 ac3e 4d1e 40bd da25 f13d
00000030: 4d11 a5bf 3396 a1be ff4e 6d3c d08b 1cbe
00000040: 10f0 13be 6538 d4be 9dd5 50be ecf9 a03d
00000050: 9cbd 813e 1661 7abe bd5a 163e c341 15bf
00000060: 120d 30bf 2af7 463e b43a bb3e 3730 3c3d
00000070: 0828 3f3d 6ff8 8c3e 9649 9abe faf3 b13e
00000080: 74ef 253f 4a83 bebf 9bc3 4f3f bb49 953f
00000090: 44b4 d3be d057 2dbe 640d 08bf dd42 f73e
000000a0: ed05 28bf fe6c c0bf 6f82 22bf 3258 0bbd
000000b0: 94ec 76be 459d cd3f 92c5 52bf 4a18 0f3f
000000c0: 995e f53d 720b 07c0 7eb1 02c0 6744 09c0
000000d0: f70d 36bf 3c84 d2be 836e 30be e82e c33e
000000e0: 7db7 413f 73d9 ac3f e890 c83f dfd8 5bbf
000000f0: 85ff 85bf e3ed d83e d99b e73f 0059 593c
00000100: 5536 d13f d4a7 553f 8dbf a93f 4c4e 973f
00000110: 1c12 953e 9dec e3bd 79a2 273f b420 63be
00000120: 9417 adbe ec76 073e 2ce7 973d cd33 25be
00000130: 9dbd 9c3f 6eef 9b3f 451d c4bd 6d9c 8fbd
00000140: 804c 183e ef69 073f d53d 0b3e a152 903d
00000150: 1ba3 123f 1850 5bbe a252 dd3e b0e8 a9be
00000160: c234 013f 758c 6f3f d3bb 70be c8bd 843e
00000170: bf4e 6d3d 5d4f dd3d 966b 6e3e 41fb 1c3d
00000180: 1ded c53f b59c 993e 45f6 c43f 9d1c 9c3f
00000190: 2478 9ebb f63d 443e 6acf 2d3f 5888 29bf
000001a0: 058e 79bf b0cb c1be 07b0 06bf 7d02 07be
000001b0: dc79 e23e ab37 843f fc82 8bbe b20c 163e
000001c0: e553 b1bd 47eb debd 2c04 ec3e 1195 b3be
000001d0: 623b a63e 106a 9cbe 22d7 483e b75d e8bd
000001e0: 27fc 413f bf8a 513f bca3 a1be 35a3 b3be
000001f0: a3a0 16bf 0538 953e 19ed 773e 8949 12bf
00000200: 4be8 a83f cb99 b63f a047 933f c35a 58bc
00000210: 70a2 40c0 6f5d cf3e 61ce 49bf d8ce aebf
00000220: 0e66 883f 6927 ce3f 75c6 083f adc8 1dbe
00000230: c082 7e3f 0e81 7ebf 0e0a cbbe 8b15 ab3d
00000240: 2c61 233f c504 ce3f 90c6 3cc0 b293 623f
00000250: f824 d2bf 88db ed3e 4fd7 febe 915c 733f
00000260: d24b 1a40 eda3 84bf 81a5 d5bf 5078 8a3e
00000270: 94bc a23f 0019 29c0 9b70 913f 7ee7 6cbf
00000280: c672 cdbe 1594 093f 8d75 8dbf 2447 50bc
00000290: 22f5 b2bd 4661 0ebd a062 643e 5e9e 9abe
000002a0: 897f e33d 7ab1 b83d 0806 1c3e c86c ac3c
000002b0: f8e8 fa3e 4d3c 2fbe 2c86 b2be 352a 52bd
000002c0: af6e 383e 197b 513e d71f 66be 9304 92bd
000002d0: ca1d 2dbd 6ea6 29be 88ac f83d 0f96 893e
000002e0: fdd1 4abe 310e 223e 99d4 14be 7288 2f3e
000002f0: b853 a03e 5dd2 0bbf 18d6 0a3f 07fb 763d
00000300: db21 c03f a1cf 393f 58b8 8c3f 39e4 933f
00000310: ad09 353d e43a c33d 52d2 163f 6244 02bf
00000320: 88e1 a5bd 4314 8c3e 8c57 01be 9b2a 793d
00000330: 5cd4 ae3f df08 a03f cb7d 5abe 911f c4bd
00000340: 60a0 b4bd 7e7c e93e 6961 953e ee5d 18bd
00000350: c257 1d3f d430 a2bc c514 023f ff03 80bd
00000360: 8ab4 4c3f a125 813f 5a34 143d ecb0 053e
00000370: 5a4e 153e 00cc 13bd 8cb8 0d3f fb5b 633e
00000380: 529d b0bf 7359 bc3e 3947 503e 0ebb 16c0
00000390: 94dd 283f 8a12 bc3c 931a 1fbd 9de9 403f
000003a0: bcf2 d1bd 2f6f b73e 93c0 20be b671 fbbd
000003b0: 4b5f c23e fdda bcbf 6336 cb3e a60b 35be
000003c0: a3f3 07bf 94a8 003f cd17 883e ee72 a63e
000003d0: 4bc6 aa3e 5bae 3bbe ddd1 5bbe c54a afbe
000003e0: 5d5a 03c0 048c 88bf f530 e8bf d52c b83d
000003f0: 04dc c0bd 81a8 5d3f 0116 aebd 1071 353f
-0.8806841 -1.0998403 0.43839404 -0.08490885 0.21407384 0.111200295 0.18334004 0.07964584
-0.05538646 0.33708718 -0.046903897 0.11774798 -1.2895905 -0.31559905 0.014484166 -0.15287709
-0.14447045 -0.41449276 -0.20393987 0.07860169 0.25339973 -0.24451098 0.14683051 -0.5830347
-0.68769944 0.19430223 0.36568224 0.04594442 0.046669036 0.2753329 -0.30134267 0.34756452
0.648185 -1.4883816 0.81157845 1.1663126 -0.4134847 -0.16928029 -0.5314543 0.482932
-0.6563404 -1.5033262 -0.63480276 -0.034019656 -0.24113685 1.606362 -0.8233272 0.5589644
0.11980934 -2.1100736 -2.0420833 -2.1448 -0.7111506 -0.41116512 -0.17229657 0.38121724
0.75670606 1.350386 1.5669222 -0.85877794 -1.0468603 0.42368993 1.8094436 0.013265848
1.6344706 0.8345921 1.3261582 1.1820769 0.2911538 -0.11129115 0.6548229 -0.22180444
-0.3380705 0.13228959 0.074171394 -0.16133042 1.2245365 1.2182443 -0.09575895 -0.07012258
0.14872932 0.52896017 0.13597806 0.0704701 0.5728013 -0.21417272 0.43227106 -0.3318534
0.5047113 0.93573695 -0.23509149 0.25926042 0.057936426 0.10806153 0.23283228 0.038325552
1.5462986 0.3000237 1.5387655 1.2196232 -0.004836099 0.19164261 0.67894614 -0.6622367
-0.9748233 -0.37850714 -0.52612346 -0.13184543 0.44233596 1.0329489 -0.2724837 0.1465328
-0.0865858 -0.10884719 0.46096933 -0.35074666 0.3246718 -0.3054967 0.19613317 -0.11346
0.7577538 0.81852335 -0.31570232 -0.35085455 -0.5883886 0.29144302 0.2421154 -0.57143456
1.319589 1.4265684 1.1506233 -0.013205233 -3.0099144 0.40500972 -0.78830534 -1.3656874
1.0656145 1.6105777 0.5342782 -0.15408583 0.9941826 -0.9941567 -0.3965611 0.08353718
0.6382015 1.6095206 -2.9496193 0.88506615 -1.6417532 0.46456552 -0.49773642 0.9506312
2.4108777 -1.0362526 -1.6691133 0.27044916 1.27138 -2.6421509 1.136249 -0.9254073
-0.40126628 0.5374158 -1.1051499 -0.012712274 -0.087381616 -0.034760736 0.22303247 -0.3019895
0.1110831 0.09018226 0.15236676 0.021047965 0.49005866 -0.17112847 -0.3486799 -0.051309783
0.18010972 0.20457114 -0.22473083 -0.07129779 -0.042264737 -0.16567394 0.12142283 0.26872298
-0.19806667 0.15825726 -0.14534225 0.17141894 0.31313872 -0.54617864 0.5423293 0.060297992
1.5010332 0.7258244 1.0993757 1.1554023 0.04419868 0.09532717 0.58914673 -0.50885594
-0.08099657 0.27359208 -0.12631053 0.060831647 1.3658557 1.2502707 -0.21337049 -0.09576333
-0.088196516 0.45602793 0.2917588 -0.037198953 0.6146203 -0.019798674 0.5081294 -0.06250762
0.7996298 1.0089608 0.03618274 0.13055772 0.1458067 -0.03608322 0.5535972 0.22203057
-1.379801 0.36786994 0.2033967 -2.355167 0.659631 0.022958059 -0.038843703 0.75356466
-0.10251376 0.35827014 -0.15698461 -0.12277548 0.37963328 -1.475433 0.3968993 -0.17680225
-0.53106135 0.5025723 0.2658066 0.3250956 0.3335441 -0.1832823 -0.21466775 -0.34236732
-2.0523903 -1.0667729 -1.813994 0.08992926 -0.09416965 0.8658524 -0.08500291 0.70875645

layer2.bias f4 [32]
00000000: d0be 9dbd 4285 9a3e b2b9 173e 3463 6abe
00000010: cd25 4fbe 2c41 983b 2a88 8bbd 45ed 903e
00000020: b35d 22bd 93ec 913e 7aa5 b73a 6dc6 563d
00000030: 5edf bc3d d35c b33e ce43 ea3d b952 eb3d
00000040: 9c45 a5bd d28b 113f ff1e 5c3d 808f aebd
00000050: 2371 c33c 68b8 953e dfc2 b63e ed4a e33e
00000060: 5ab7 19be 01c2 7f3c 8935 8c3e 2db4 ab3e
00000070: f660 c33c a2f0 91bd 60b1 83bd a8f6 933d
-0.0770241 0.30179793 0.14816931 -0.22889405 -0.20229264 0.004646441 -0.068130806 0.28306022
-0.03964014 0.28500804 0.0014011108 0.052435327 0.092222914 0.35031757 0.11438714 0.114903875
-0.080699176 0.56853974 0.053740498 -0.08523464 0.023857659 0.29242253 0.3569555 0.443931
-0.1501135 0.015610219 0.27384594 0.335359 0.023849946 -0.07125975 -0.06430316 0.0722478

output.weight f4 [1, 32]
00000000: 9103 9a3f d2e4 1740 9207 84bf faf8 94bf
00000010: e10a 6940 90c8 243f 3aca 70bf ef2b d33f
00000020: 53df 91bf 8359 3440 7e5c 1e40 8993 89bf
00000030: 3512 843f 7620 90bf 835b 71bf a61a 273d
00000040: c718 1040 9e1b 4840 e592 77bf 77ed 81bf
00000050: 7ebb 6dbf b4e4 92bf a202 8dbf 445f 2740
00000060: fd2c 70bf 18e5 85bf cfc6 8440 c934 9fbf
00000070: f9a2 70bf 6c30 1e40 bcb4 193e 2acf d13c
1.2032338 2.373341 -1.031481 -1.1638482 3.641289 0.64368534 -0.94058573 1.6497782
-1.1396278 2.8179634 2.4743953 -1.0748149 1.0318056 -1.1259906 -0.9428026 0.0407969
2.2515123 3.1266856 -0.9670852 -1.0150594 -0.92864215 -1.1476045 -1.1016428 2.6151896
-0.93818647 -1.0460539 4.1492686 -1.2437984 -0.93998677 2.4717054 0.15010351 0.025611479
