Models/target_network/tau_0.01/target_policy_network.pt (torch, 7175 bytes, 5 tensors)

layer1.weight f4 [32, 3]
000000 01 fd 06 3f cf c7 77 bf b2 94 69 3e 71 d9 5d be
       0.52729803 -0.9678926 0.22810629 -0.21664979
000010 bd 14 55 3e 58 a9 da 3e 5b a0 dc 3e a7 a4 7a bf
       0.20808692 0.42707324 0.43091092 -0.9790749
000020 4a f4 9e be 43 5a 81 be 77 74 7d be dc 07 35 bf
       -0.31045753 -0.25264177 -0.24751459 -0.7071512
000030 01 61 7f 3e c3 aa c5 bf 79 ae c6 be 11 a1 08 3f
       0.24939348 -1.5442737 -0.38804987 0.5337077
000040 2f 63 ba 3f f5 7e 0e bf a2 ae 40 bf e2 62 af be
       1.4561518 -0.5566247 -0.7526647 -0.3425513
000050 af 6e fc be be 56 94 bf 44 3c c3 3f c1 70 92 3d
       -0.49303195 -1.1588972 1.5252767 0.07150412
000060 44 01 e3 be 88 63 d9 bf 57 c0 a1 be 96 5e 86 3f
       -0.44336903 -1.69835 -0.31592056 1.0497615
000070 34 16 b5 3f f4 c5 ad 3e cf 7f 0f 3f c7 c5 38 3f
       1.4147401 0.3394009 0.56054395 0.72176784
000080 3d 6e 7c 3e 0c fb 1d 3e 0a 14 e2 bd c7 3c 31 3f
       0.24651428 0.15427798 -0.110389784 0.69233364
000090 b4 79 6c 3f 88 6b bd bf 7d 9b 48 3e 63 0c f5 bd
       0.92373204 -1.4798441 0.19590564 -0.11965253
0000a0 0d 8c c1 bf 22 d4 e9 be ec c5 38 3e dd 93 ad 3f
       -1.5120865 -0.45669657 0.18044251 1.3560749
0000b0 ef 1c aa 3e d6 38 16 bf 52 a4 97 3f 14 77 0f 3e
       0.332252 -0.58680475 1.1847022 0.14010268
0000c0 3b cb aa 3e 3d 47 b7 3f ce 8a 2a 3f 45 e6 fd be
       0.33358178 1.4318615 0.6661805 -0.49589744
0000d0 23 82 bb 3f dd 82 93 3e 83 3f ef 3e dc e7 c6 be
       1.464909 0.28810778 0.46728143 -0.3884877
0000e0 26 d8 8a 3e 49 18 06 3f c0 03 f1 bd 53 9a b8 3e
       0.27118033 0.52380806 -0.117682934 0.3605524
0000f0 5a 28 a7 3e 5c df 9a bf 32 29 81 bf d7 d3 d0 3e
       0.32647973 -1.2099414 -1.0090697 0.4078662
000100 dc d5 ab 3f f7 77 91 3e ba be 43 bf 84 89 ad bf
       1.342464 0.28411838 -0.764629 -1.3557591
000110 31 37 3d 3f 82 83 b3 be da e8 77 bf 1b d7 08 3e
       0.7391234 -0.3506127 -0.9683968 0.13363306
000120 27 11 24 bf 6b 96 2a 3f bc 4c 4d 3f 09 d0 2e be
       -0.6408867 0.6663577 0.8019521 -0.17071547
000130 8e 67 a7 bf fe 63 18 bf 94 32 14 bf 48 fc 86 3d
       -1.3078477 -0.59527576 -0.57889676 0.065910876
000140 a4 34 8d bf e7 df 01 3f 42 c1 98 bf 01 55 0c bf
       -1.103169 0.5073227 -1.1933978 -0.54817206
000150 05 15 99 bf b7 e1 b0 3c a1 a2 11 be 69 1f 8f be
       -1.195954 0.021592004 -0.14222194 -0.27953652
000160 5e cc 06 3f 35 88 b7 3e 0a 4b dc bd 6d f0 46 3e
       0.5265559 0.35846105 -0.107565 0.19427653
000170 23 94 1f 3f aa 75 9b be 72 4d 0b 3f d5 54 0b 3f
       0.62335414 -0.30363208 0.5441505 0.5442632

layer1.bias f4 [32]
000000 67 b9 20 bf 0a 68 28 3e 87 14 03 3e 62 e3 28 bf
       -0.627829 0.16445938 0.128008 -0.6597196
000010 e5 d7 10 3f 1b c0 02 bc 1f 09 23 3f 02 ea 59 3f
       0.5657943 -0.007980372 0.6368579 0.8512269
000020 f9 2b d1 be e6 70 36 3f 3c a1 ed 3e 1a 7f f0 be
       -0.4085386 0.7126602 0.46412075 -0.4697197
000030 a6 ce 52 3f 0b 00 16 bf dd 37 96 3e 19 75 21 3f
       0.8234657 -0.58593816 0.29339495 0.630693
000040 1d 6f 0e 3f 5c 12 ae 3e 08 04 f5 be a8 c1 0d 3f
       0.55638295 0.33998382 -0.47854638 0.5537362
000050 29 07 12 3f e5 1c 22 3e 99 e5 9d 3f 92 3a 35 3d
       0.57042176 0.15831335 1.2335693 0.04424531
000060 0d 9e e3 3e 56 16 1a bf 6e 09 65 3e 93 98 92 3e
       0.4445652 -0.6019033 0.22366878 0.2863203
000070 2b 36 77 3f c6 a9 04 bf ce 2c c8 3e b4 95 93 3e
       0.9656703 -0.51821554 0.39096683 0.28825152

layer2.weight f4 [32, 32]
000000 c3 bb f2 3e d5 1d 7f bc fa 5e fc 3d 50 73 f8 bd
       0.47408876 -0.015571077 0.12322803 -0.12131369
000010 24 b4 0d 3e 35 4c 26 bd e0 c8 33 3e 54 af d1 3c
       0.1383825 -0.04060002 0.17557096 0.025596298
000020 70 65 c0 3e 7b c7 89 3d 1e 34 ae 3e 8c e6 16 3e
       0.3757739 0.06727501 0.34024137 0.14736384
000030 ed d7 b4 3d 12 c7 cf 3d b9 f6 d2 3d 44 b8 26 3e
       0.08830247 0.101453915 0.10300965 0.1628123
000040 07 3c 04 3e 58 e3 72 3e 91 0e a9 3e 09 cf e7 bd
       0.12913524 0.23719537 0.33018926 -0.11318786
000050 d2 c7 15 be c0 dc c6 3d dd 53 96 3e 1d ac b3 be
       -0.14627007 0.097100735 0.29360858 -0.3509225
000060 4a 69 1f be 24 41 c9 3c aa 25 7c 3e f2 2b 3c be
       -0.15567508 0.024567194 0.24623743 -0.18376139
000070 71 80 14 3e de 52 b3 3e da a6 13 3e 00 b5 06 be
       0.14502122 0.3502416 0.14419118 -0.13154984
000080 e5 24 79 be ba 17 2c 3e 29 fd 35 be 29 b9 a3 3e
       -0.2433048 0.16805926 -0.17772354 0.31977203
000090 2f b4 fe bc 70 5a 7a be 28 a0 af 3e 71 78 ea 3d
       -0.031091778 -0.24448562 0.34301877 0.114487536
0000a0 ac 3f 31 bc a7 03 f2 bd 94 8f f8 3d cc 18 66 3d
       -0.010818403 -0.11817103 0.1213676 0.056175992
0000b0 37 e8 00 bf 48 30 5e 3e 09 d1 92 bc 0d e0 3f bd
       -0.5035433 0.21698105 -0.017921941 -0.04684453
0000c0 e4 ea 23 3e b0 64 d0 3d f7 92 eb bd cc 13 a9 3d
       0.16007572 0.101754546 -0.11502641 0.08255729
0000d0 7b 2c 33 3d b3 e4 51 3e 13 16 30 3e 34 e7 b0 3e
       0.04374359 0.20497398 0.1719592 0.34551394
0000e0 f6 07 5f 3e 50 7d 17 3f ed 59 da bd c8 23 fe bb
       0.2178038 0.59175587 -0.10661683 -0.0077557303
0000f0 ba 10 66 3e 7f 5e d2 be 7a 02 a6 3e c2 74 2a 3e
       0.22467318 -0.4108772 0.32423764 0.16646102
000100 0c 61 0d 3f 80 39 7c 3e 01 90 bc be 33 8b a2 3c
       0.55226207 0.2463131 -0.36828616 0.019841766
000110 1d 1e 9d bd 77 05 42 3e ac 12 0e 3e a3 f8 b2 3e
       -0.07671759 0.18947397 0.1387431 0.3495532
000120 1f ec 0f bb 7e 2d b5 3e 68 eb a8 3e 3e 41 61 3e
       -0.0021960807 0.3538627 0.329921 0.21997544
000130 40 4a 39 bd df d1 00 be fb a2 cc 3d 79 61 2e 3e
       -0.045236826 -0.1258006 0.099920236 0.1702937
000140 21 4e 48 3e 34 b1 f0 3e c1 32 5b 3e 70 dc 37 be
       0.19561054 0.47010195 0.2140608 -0.17955184
000150 ff 3d 5d 3d 22 b0 8e 3d da 8f ba 3e cc bf ba be
       0.054014202 0.069671884 0.36437875 -0.36474454
000160 82 57 05 bd dd 2e 49 be 27 dc 84 3e e1 be 48 be
       -0.032554157 -0.19646783 0.25949213 -0.19604065
000170 e9 51 a5 3e 89 bf 04 3e 75 55 87 bc ae 38 e2 3c
       0.32289055 0.1296369 -0.016520241 0.027614918
000180 4e ef b5 be 28 32 55 3e f8 5d 1b c0 51 c5 6b bf
       -0.35534137 0.20819914 -2.4276104 -0.92097956
000190 a0 5e 01 bf 07 e8 95 3e e9 4c 2b be 10 b2 f8 3e
       -0.5053501 0.29278585 -0.16728558 0.4857335
0001a0 ce 1e 46 bd e1 bf 1a 3e 98 86 e7 bc da d8 52 3c
       -0.04836922 0.15112258 -0.028262421 0.012869084
0001b0 fc 04 53 be 13 62 dd bf 55 d0 ca 3d c4 c3 97 3e
       -0.2060737 -1.7295555 0.099030174 0.29641545
0001c0 bd fb 61 3d 9c 87 98 3e f8 15 8c be 2c 75 60 3e
       0.055171717 0.29790962 -0.2736051 0.21919698
0001d0 24 2f c5 bf 1a 9c b1 3c 60 f1 41 3c 6b e9 ab 3d
       -1.5405011 0.02168088 0.011837333 0.0839413
0001e0 a1 1d 36 3d 34 1d 50 be bb 03 64 bf f2 f9 66 c0
       0.04446185 -0.2032364 -0.8906819 -3.6090055
0001f0 89 c4 ec 3d 00 83 8e be b5 ce 30 3e 80 2a 03 3e
       0.115609236 -0.2783432 0.17266352 0.12809181
000200 c3 db c2 3e 9e 7d 88 3c 35 69 a3 be 2d 28 f1 bd
       0.3805829 0.016661461 -0.31916204 -0.11775241
000210 20 9a 26 bf 14 d5 90 3e 64 5a 6f 3d d5 14 01 3f
       -0.65078926 0.28287566 0.058435813 0.5042241
000220 b8 23 94 bf 8a 18 c9 3e 80 78 92 3e fc 0e c5 3d
       -1.15734 0.39276534 0.2860756 0.09621999
000230 7e 98 32 3d da 34 6f bf 34 79 77 3d 42 1b bd 3e
       0.04360246 -0.9344002 0.060418323 0.3693486
000240 7f 17 25 3e e9 b2 0a 3f 31 9f 53 3e bd e8 3e bb
       0.16122244 0.54179245 0.20666195 -0.0029130422
000250 fc ba 82 be 5f 84 9b 3e e2 c6 b4 3e 2d 5d b4 be
       -0.25533283 0.3037443 0.35307986 -0.35227337
000260 48 31 4d 3e 89 bf 8d bf 8e b8 ec 3e cc bf e2 bd
       0.2003833 -1.1074077 0.46234554 -0.110717386
000270 a7 f2 b8 3d 41 2a ec 3e 37 2b fe 3d b0 1c 88 3e
       0.09030657 0.46125987 0.12410586 0.26584387
000280 af 0f 76 be 10 ed 0e be 29 7a cf 3d b8 9c 84 3e
       -0.2402942 -0.1395762 0.10130722 0.25900817
000290 46 92 0b 3e 41 18 b0 bd ba 5d 08 3e 6a ce 15 3e
       0.13630018 -0.08598376 0.13317004 0.14629522
0002a0 f5 0c 10 3d 86 98 21 3d 61 7f 8c bd 42 01 cb 3d
       0.035168607 0.0394521 -0.06860233 0.09912349
0002b0 fd 5f 9c bd 31 eb 84 be 93 88 82 be 22 e0 ac bb
       -0.07635496 -0.25960687 -0.25494823 -0.005275742
0002c0 a5 8c df bd e1 37 99 be f4 34 c1 be dd 42 6a 3e
       -0.10915498 -0.29925445 -0.37735713 0.22877069
0002d0 fb 25 45 3e dc 55 45 3d 58 d8 3f 3e 89 8d c2 3e
       0.1925277 0.048177585 0.18734872 0.37998608
0002e0 52 20 c4 bd 8e 66 ed 3d 21 58 5e 3d b3 28 50 3e
       -0.09576477 0.115918264 0.054283265 0.20328026
0002f0 5e de be 37 ed 1c 4c 3e d9 14 05 3e be 09 52 3e
       2.2753313e-05 0.1993291 0.12996234 0.20511529
000300 3b 35 66 3e ab 03 5e 3e 54 a3 a7 3e 72 0d 4c bd
       0.22481243 0.21681087 0.32741797 -0.04981751
000310 f2 39 3a 3e 70 a0 09 bf 34 0e e5 3e 18 ac a5 3e
       0.18186167 -0.53760433 0.447374 0.3235786
000320 a6 96 1b bf 2c b8 2b bf f3 44 9e be 3d 3f 14 bd
       -0.60776746 -0.670779 -0.3091198 -0.03619312
000330 7d 0c 8b 3d ff e8 d3 bf 92 96 e6 be db da 17 3d
       0.06789491 -1.655548 -0.4503675 0.03707395
000340 97 ea ae be 80 a0 b2 3c 13 65 7b be ae 12 4e 3e
       -0.34163353 0.021805048 -0.24550276 0.20124313
000350 57 0e 32 bf 71 c2 26 bf ee d2 08 3f 6a c8 f2 3e
       -0.6955313 -0.65140444 0.53446853 0.4741853
000360 b6 5c a6 3e de 57 2e bf d4 5d 45 bf ee 4f 3d bf
       0.32492608 -0.68102825 -0.77096295 -0.7395009
000370 82 99 16 3f 4e f0 55 be 49 e4 c4 3e ca 2a a4 3e
       0.58827984 -0.2089245 0.38455418 0.32063895
000380 8b 3d d7 3e c9 89 4a 3e cb 83 ec be 50 8d fb bc
       0.4203914 0.19779123 -0.461943 -0.030707031
000390 ed dd ea bd 7e bb 78 3e 1d ca a1 3e 6f c9 bb 3e
       -0.1146811 0.24290273 0.31599513 0.3667712
0003a0 b6 93 92 3e 44 97 76 3e e8 f6 ad 3e 09 20 85 3d
       0.2862832 0.24081141 0.33977437 0.06500251
0003b0 c5 04 8a 3e 1b 7b 77 bc 22 78 53 3e 8f 61 50 3e
       0.26956764 -0.015105034 0.20651296 0.20349716
0003c0 25 d2 22 3e 8a b4 00 3f 26 89 e3 3e 1e 27 14 3e
       0.15900476 0.5027548 0.44440573 0.14468047
0003d0 c2 b8 55 be 06 b9 4d 3e b0 aa 03 3f bf 75 17 be
       -0.20871261 0.20090112 0.51432323 -0.1479101
0003e0 06 15 bb bd 4d 4b 45 be 7e f7 a2 3d f5 47 18 bd
       -0.09134869 -0.19267006 0.07957362 -0.037178
0003f0 41 da 13 3f 8e f4 d7 3e c4 02 1b 3e fe ff fb bd
       0.57754904 0.42178768 0.15137774 -0.12304686

layer2.bias f4 [32]
000000 dd 3e 83 3e 4d d3 2c 3e ca 61 0a 3d 60 6a f8 3e
       0.25633898 0.1687748 0.033784665 0.48518658
000010 d6 b7 66 3e 41 d9 b0 3d 4b aa 6f 3e dd bd db 3e
       0.22531065 0.08635188 0.23404805 0.42918292
000020 cf ac 35 3e f2 10 a2 3e 94 d9 74 bd 17 98 aa 3d
       0.17741702 0.31653553 -0.05977781 0.0832979
000030 e2 b7 bc 3e 2d a2 35 3e 5f 96 08 3d fc e5 dc 3d
       0.3685904 0.17737646 0.03334653 0.107860535
000040 5e 4f 89 3e bc ee 21 3e c8 df c8 3e 89 89 00 3e
       0.26818365 0.15813726 0.39233232 0.12552465
000050 bd 3a 00 3e 52 dd 3d be 8d 4c 4f 3d d5 38 46 3e
       0.12522407 -0.18541458 0.050610114 0.19357617
000060 f3 ea 93 3c db af b1 bc 9e 8f 4d 3e fa 92 b0 bd
       0.018056368 -0.0216903 0.20074317 -0.086217836
000070 95 b2 c7 3d 66 63 35 be b7 29 ef 3d 80 46 7c 3e
       0.09750859 -0.17713699 0.11677878 0.24636269

output.weight f4 [1, 32]
000000 c2 e2 df be e8 ec 13 3f fd 99 eb be fc 87 96 3f
       -0.4372769 0.57783365 -0.4601592 1.1760249
000010 a6 66 2b bf bc 04 b3 3e 15 f4 fc 3f 35 7f f2 be
       -0.66953504 0.3496455 1.9761988 -0.47362676
000020 e4 ce 55 3f bf 0c 57 3f 69 76 8d 3f ef 3e bc be
       0.83518815 0.84003824 1.1051761 -0.36766765
000030 1c 02 59 3f f9 c6 74 3f f3 42 12 3f 79 d6 52 3f
       0.84768844 0.9561611 0.57133406 0.8235851
000040 bb 27 14 bf 37 fd b2 3e 9b 2f e4 be 4e e8 6d 3f
       -0.57873124 0.34958813 -0.4456757 0.92932594
000050 08 7a 8f be 93 97 d2 be c8 2e 25 3f 38 63 d2 3e
       -0.2802279 -0.41131267 0.6452451 0.41091323
000060 8b b6 11 3f 96 d9 20 3f af 59 b6 3f 2e 5b b8 be
       0.56919163 0.6283201 1.4246119 -0.36007065
000070 c1 40 c9 3e 2c 5b ea 3d 9e 43 df 3f e9 3e 07 c0
       0.39307216 0.11443171 1.744251 -2.1132147
