Models/target_network/tau_0.01/target_policy_network.pt (torch, 7175 bytes, 5 tensors)

layer1.weight f4 [32, 3]
0	0xbee1f737	-0.44133922
1	0x3e34ada7	0.17644368
2	0xbf184edc	-0.5949533
3	0x3f805c04	1.0028081
4	0x3f9679da	1.1755936
5	0x3eb23594	0.34806502
6	0xbe061a81	-0.13096048
7	0x3fe12070	1.7588024
8	0xbf0e9c01	-0.55706793
9	0xbf4d0ad2	-0.80094635
10	0xbf2868a2	-0.65784657
11	0xbefd8be4	-0.4952079
12	0xbd921fc8	-0.07134968
13	0x3fdea015	1.7392603
14	0xbe4d86e5	-0.2007099
15	0xbe26d851	-0.16293456
16	0xbf81ab2b	-1.0130361
17	0xbe7524ed	-0.23939867
18	0x3f817991	1.0115224
19	0x3e8ec75b	0.2788647
20	0xbe1b1184	-0.151434
21	0xbf7985fa	-0.97470057
22	0x3f34f1ce	0.70681465
23	0xbece35ab	-0.4027532
24	0x3f18cb3a	0.596851
25	0xbf150b30	-0.58220196
26	0xbe1ccfc4	-0.15313631
27	0x3f4365a0	0.7632694
28	0xbff3289f	-1.8996772
29	0x3f449312	0.7678691
30	0xbe94beb8	-0.29051757
31	0xbff55978	-1.9167929
32	0xbca84262	-0.020539466
33	0xbf4063ab	-0.7515208
34	0xbf6423d4	-0.8911717
35	0xbe300afd	-0.17191692
36	0x3f3e711d	0.7439135
37	0x3f745b42	0.9545175
38	0x3eb69887	0.35663244
39	0xbef17cdf	-0.47165582
40	0xbf5120a2	-0.8169042
41	0xbdd827a3	-0.10554435
42	0x3f0e4670	0.5557623
43	0x3ff71ff2	1.9306624
44	0x3ebe79a4	0.3720218
45	0xbf970fe4	-1.1801724
46	0x3eccb8c6	0.3998472
47	0xbd9f1ebd	-0.07769535
48	0x3e917d95	0.28416124
49	0x3f80b353	1.0054725
50	0x3ee681c4	0.45020878
51	0xbe8ec1bc	-0.27882183
52	0xbf7081b9	-0.9394794
53	0xbf3fb2d4	-0.74882245
54	0xbf8e0ca8	-1.1097612
55	0xbe72849c	-0.23683399
56	0x3e8b15ce	0.27165073
57	0xbe2a914a	-0.16656986
58	0xbf980b50	-1.1878452
59	0xbe837946	-0.25678462
60	0xbf62dbbb	-0.8861653
61	0xbf617492	-0.880685
62	0xbed4ad23	-0.41538343
63	0xbd5971f1	-0.05308718
64	0x3f5f9b9c	0.87346816
65	0xbf3c8154	-0.7363484
66	0xbf86a2e8	-1.0518465
67	0x3e97501c	0.29553306
68	0x3d663470	0.056202352
69	0xbf1d5f5a	-0.6147362
70	0xbf961934	-1.1726441
71	0x3efde690	0.49589968
72	0x3d2e6991	0.042581145
73	0x3fccb550	1.5992832
74	0x3e75e601	0.24013521
75	0xbfaccfd2	-1.3500922
76	0xbf8aa5e2	-1.0831873
77	0x3ea6e310	0.3259511
78	0x3f92be87	1.1464394
79	0x3ea2af2d	0.31774274
80	0xbf4947c4	-0.7862513
81	0xbf4ab468	-0.7918153
82	0x3e6917d4	0.22762996
83	0xbf2c5b6a	-0.67326987
84	0xbf4df9d0	-0.8045931
85	0xbefe431c	-0.49660575
86	0xbd499cbc	-0.04922174
87	0x3e6b202a	0.22961488
88	0x3f8caad1	1.0989629
89	0xbf327dcb	-0.69723195
90	0xbec980fc	-0.3935622
91	0xbe22e00f	-0.15905784
92	0x3ec33287	0.38124487
93	0x3f322be3	0.69598216
94	0x3f331b83	0.69963855
95	0xbe471498	-0.1944145

layer1.bias f4 [32]
0	0x3f4443b3	0.766658
1	0x3e187aab	0.14890544
2	0x3e265a50	0.16245389
3	0x3e31e34a	0.1737186
4	0x3f25ba5c	0.64737487
5	0xbf3ea623	-0.74472255
6	0xbd2779ce	-0.040887646
7	0xbed41583	-0.41422662
8	0xbec7de77	-0.39036915
9	0xbe3747b0	-0.1789844
10	0x3f3e41f0	0.7431936
11	0x3e11c0e7	0.14233743
12	0xbe6071fd	-0.21918483
13	0x3f08cc40	0.5343666
14	0xbf005714	-0.5013287
15	0x3f87085f	1.054943
16	0x3f87e8da	1.0617936
17	0x3d95458d	0.072886564
18	0x3f091cc9	0.5355955
19	0x3efaa634	0.48954928
20	0xbf1799d0	-0.59219074
21	0xbf3844ea	-0.71980155
22	0xbe5ba075	-0.21447928
23	0xbedaa425	-0.42703357
24	0xbd466d3c	-0.048444018
25	0x3e72e519	0.23720206
26	0x3da44300	0.08020592
27	0xbf3b9091	-0.73267466
28	0x3ea7b07c	0.32751834
29	0x3f8b882b	1.090093
30	0xbf270c02	-0.652527
31	0xbf2a63c6	-0.6655849

layer2.weight f4 [32, 32]
0	0x3d52845e	0.051395766
1	0xbcc73de1	-0.024321498
2	0xbea76848	-0.32696748
3	0xbe649ee7	-0.22326241
4	0xbc9f0ca5	-0.01941521
5	0x3fe733d2	1.8062689
6	0x3efe97a0	0.49725056
7	0xbcd6a76f	-0.026202885
8	0x3f05931d	0.521776
9	0x3dbfe948	0.09370667
10	0x3e3ad6a4	0.18245941
11	0xbd3272f1	-0.043566648
12	0xbd6cba97	-0.057795133
13	0xbe24c661	-0.160913
14	0x3eb99526	0.36246604
15	0x3d4016b0	0.046896636
16	0x3e8e659e	0.27811903
17	0x3dbb7bcb	0.09154471
18	0xbdd83039	-0.10556073
19	0xbdc5beb7	-0.096555166
20	0x3e725d28	0.23668349
21	0x3e697fbf	0.22802638
22	0x3e5cc155	0.21558125
23	0x3e27c02e	0.16381904
24	0xbeb56b02	-0.35433203
25	0xbdf61456	-0.120155975
26	0x3e45be97	0.19310986
27	0x3e3fbd3b	0.1872453
28	0x3ec11e16	0.37718266
29	0x3cdcf77e	0.026973482
30	0xbe94eea9	-0.29088333
31	0x3e9ed7e3	0.31024083
32	0x3e1f5ff9	0.15563954
33	0x3d58aa85	0.052896995
34	0xbf9199b6	-1.1375034
35	0x3ec89b03	0.39180765
36	0xbef72b7a	-0.48275357
37	0x4026251c	2.596015
38	0x3de53e0c	0.11193475
39	0xbe4ee56c	-0.20204705
40	0x3f9023c7	1.1260918
41	0xbd0e6217	-0.034761515
42	0x3d8e101d	0.06936667
43	0x3eb27318	0.34853435
44	0xbe1bb05a	-0.15203992
45	0x3eedbdc5	0.46433845
46	0xbdf1180f	-0.11772167
47	0x3e9c9176	0.30579728
48	0x3e8b5a13	0.2721716
49	0x3e8d3f00	0.27587128
50	0x3df16ebc	0.11788699
51	0x3eb47ac8	0.35249925
52	0x3ecc1b5f	0.39864632
53	0x3c656729	0.014001646
54	0xbba3862a	-0.004990359
55	0x3e5c3d4f	0.21507762
56	0xbf07aba6	-0.5299629
57	0xbe132055	-0.14367802
58	0xbccc877a	-0.024966944
59	0xbdbed757	-0.093184166
60	0x3e805a31	0.2506881
61	0xbe849d14	-0.2590109
62	0xbe4e7325	-0.20161112
63	0x3e18a0ab	0.1490504
64	0xbfba3a8b	-1.4549116
65	0xbccc4d96	-0.02493934
66	0xbf9174a4	-1.1363721
67	0xc017b021	-2.370125
68	0x3e4219b1	0.18955113
69	0xbfe1ebb2	-1.7650054
70	0x3eb9d696	0.3629653
71	0xbeedb0dd	-0.46423998
72	0xbcc2f74e	-0.023799565
73	0x3eeb670b	0.45977053
74	0x3e95b80d	0.29241982
75	0x3dc62783	0.09675505
76	0x3c759163	0.014988276
77	0x3de0eb91	0.10982431
78	0xbe34da86	-0.17661485
79	0xbef7f0cd	-0.48425904
80	0xbe577cd3	-0.2104371
81	0xbf55390c	-0.8329017
82	0x3ea11035	0.31457677
83	0xbe3eaf60	-0.18621588
84	0xbd6c2edf	-0.057661887
85	0xbe032568	-0.12807238
86	0xbca0e3e7	-0.019639922
87	0x3f1dc196	0.61623514
88	0x3e87bca1	0.265111
89	0x3eac9be0	0.33712673
90	0xbc7eae9e	-0.015544562
91	0xbf1f239b	-0.62163705
92	0xbc90c115	-0.017670194
93	0xbedba5f8	-0.42900062
94	0x3f11981b	0.5687272
95	0xbe161b5c	-0.14658874
96	0xbe1e7c17	-0.15477024
97	0xbd9f205b	-0.07769843
98	0xc03a1bb0	-2.90794
99	0x3e6e9554	0.23299152
100	0xbf81c128	-1.0137072
101	0x40a419c2	5.1281443
102	0xbe268892	-0.16263035
103	0xbe914444	-0.28372395
104	0x3ed31c41	0.41232494
105	0xbdef888b	-0.116959654
106	0x3edab72b	0.4271787
107	0x3e94191e	0.28925413
108	0xbc81d7a2	-0.015849892
109	0x3e5b09c4	0.21390444
110	0xbd20cafd	-0.039256085
111	0x3e39f4bb	0.18159764
112	0x3df1ceba	0.11807008
113	0x3dcc2fa2	0.09970023
114	0x3e7d4e80	0.24736977
115	0x3e833e7d	0.25633612
116	0x3e09f6ab	0.13473003
117	0xbbb2fd98	-0.0054623596
118	0x3e9e4b5a	0.30916864
119	0x3e38c7ef	0.18045019
120	0x3dcdbc0e	0.10045634
121	0x3e165ded	0.14684267
122	0x3f288178	0.65822554
123	0xbf2a6be0	-0.66570854
124	0x3edd79cc	0.43256986
125	0xbf31983e	-0.6937293
126	0xbdec5404	-0.11539462
127	0xbf3afb04	-0.7303927
128	0xbc715cd2	-0.014731603
129	0xbe233bb1	-0.15940739
130	0x3d48a57f	0.048985954
131	0xbda1cdba	-0.07900567
132	0x3e7276be	0.23678109
133	0xc03007ad	-2.7504685
134	0x3ee74f2c	0.4517759
135	0x3eaec908	0.3413775
136	0x3e9876e8	0.29778218
137	0xbfb7b2a3	-1.4351391
138	0xc0073f56	-2.1132407
139	0xbd990acd	-0.07472763
140	0x3e3334a0	0.17500544
141	0xbf4a9ada	-0.79142535
142	0x3e88d5cd	0.26725617
143	0x3e7f55ec	0.2493512
144	0x3df20cf8	0.1181888
145	0xbe0b4b78	-0.13603008
146	0xbfa6013e	-1.2969129
147	0xbe5148d3	-0.20437936
148	0x3ecb0b2b	0.39656958
149	0x3e250b55	0.16117604
150	0x3e921f72	0.28539616
151	0xbfd4ade0	-1.6615562
152	0xbee7e095	-0.4528853
153	0xbe03242f	-0.12806772
154	0xbd937ed5	-0.07201926
155	0x3e5ef10c	0.2177164
156	0x3dfbdde0	0.12298179
157	0xbba1ce80	-0.004937947
158	0xc0143c0b	-2.3161647
159	0x3e437211	0.19086482
160	0x3ea795d1	0.32731488
161	0x3e21b61a	0.15792122
162	0x3ebeb8c2	0.37250334
163	0x3ead284e	0.33819813
164	0x3d9260a7	0.07147341
165	0xbf881c2d	-1.0633599
166	0xbf036ca0	-0.51337624
167	0x3dac2990	0.08406365
168	0xbf33fe68	-0.7031007
169	0xbeb28666	-0.34868163
170	0xbec3cf68	-0.38244176
171	0x3dbac9e7	0.09120541
172	0xbd4ef4f0	-0.05052656
173	0xbd3ba3cd	-0.04581051
174	0xbe5af7e1	-0.21383621
175	0xbcfe7e70	-0.03106615
176	0xbe964210	-0.29347277
177	0x3dbf8a97	0.09352606
178	0x3e16f4d0	0.14741826
179	0x3df906ab	0.12159475
180	0xbe13cfe2	-0.1443477
181	0xbd9ec68b	-0.07752713
182	0xbd71fdea	-0.059080042
183	0xbf8c40f0	-1.0957317
184	0x3f27307b	0.6530835
185	0x3d7c6dd0	0.061628163
186	0x3c0c4fd5	0.008563955
187	0xbd9a04b5	-0.07520429
188	0xbe577041	-0.21038915
189	0x3ecbd7af	0.3981299
190	0x3dfcdda8	0.12346965
191	0xbe922042	-0.28540236
192	0x3beb88e3	0.007187949
193	0x3df24ee7	0.11831456
194	0xbeb155a5	-0.34635654
195	0xbe3058f5	-0.17221434
196	0xbdb0162d	-0.0859798
197	0x3fe73217	1.8062161
198	0x3eefce64	0.4683715
199	0x3d004c7a	0.031322934
200	0x3f11064d	0.5665024
201	0xbe60cf30	-0.21954036
202	0x3dbedf45	0.09319929
203	0xbe5e8602	-0.21730807
204	0x3c93e541	0.018053653
205	0x3d236913	0.03989513
206	0x3e24dc69	0.16099705
207	0xbc68005c	-0.014160242
208	0x3e810345	0.25197807
209	0xbcf996fe	-0.030467506
210	0xbc012c14	-0.007884044
211	0x3db1d61d	0.08683417
212	0x3ea2eed3	0.31822833
213	0x3e9104bf	0.28323933
214	0x3eb1ebcd	0.34750214
215	0x3e850239	0.25978258
216	0xbeb0347c	-0.34415042
217	0x3e2f9439	0.17146386
218	0x3d9687c4	0.07350114
219	0x3d88d60b	0.066814505
220	0x3eac2a14	0.33625853
221	0x3c10a3ef	0.008828147
222	0xbe80e503	-0.25174722
223	0x3f164acd	0.58707887
224	0x3d9b403a	0.075806096
225	0xbe1eb451	-0.15498473
226	0xbdd658db	-0.104661666
227	0xbe44c7ce	-0.19216844
228	0xbdfb0aa5	-0.1225789
229	0x3feb6f41	1.8393327
230	0x3f0d2a77	0.5514292
231	0x3d39806a	0.04528848
232	0x3ee21acf	0.44161078
233	0xbc2339dc	-0.009962525
234	0x3e800c8d	0.25009575
235	0xbe2245dd	-0.15846963
236	0x3d894b6b	0.06703838
237	0x3d2c882c	0.04212205
238	0x3e8235c3	0.25431642
239	0x3e5f5b7c	0.21812242
240	0x3e27df52	0.16393784
241	0x3d6c01ec	0.05761902
242	0xbe0cfb07	-0.13767634
243	0xbdf9b659	-0.12192983
244	0x3dd419b3	0.10356464
245	0x3e721a57	0.2364286
246	0x3e94c17e	0.29053873
247	0x3dd89ae6	0.105764195
248	0xbebfe49d	-0.37479106
249	0x3e1ce3be	0.15321252
250	0x3e3a010c	0.18164462
251	0xbe00d430	-0.12580943
252	0x3e910f85	0.28332153
253	0xbe495780	-0.19662285
254	0xbe1faa47	-0.155923
255	0x3eee87ec	0.46588075

layer2.bias f4 [32]
0	0x3d8737e4	0.06602457
1	0x3ed02abc	0.40657604
2	0xbe93bf02	-0.28856665
3	0x3e42ab43	0.19010644
4	0x3e1377d8	0.14401186
5	0x3ddfee8c	0.10934171
6	0x3e0e47e9	0.13894619
7	0x3e5f8356	0.21827444
8	0x3d1ee66a	0.03879396
9	0xbec028b4	-0.37531054
10	0xbd2866e4	-0.04111375
11	0x3e268588	0.16261876
12	0x3e20e2c9	0.15711512
13	0xbeaaaaee	-0.33333534
14	0x3e707076	0.234804
15	0xbd84b5f9	-0.06480021
16	0xbe870276	-0.26369065
17	0x3e154fa5	0.14581163
18	0x3e3f4735	0.18679507
19	0x3e50add2	0.20378807
20	0x3dfee87c	0.124466866
21	0xbbcd2187	-0.0062601003
22	0xbcef0964	-0.029179282
23	0x3e8b7527	0.27237818
24	0xbde9616b	-0.11395534
25	0x3e830acf	0.25594184
26	0xbd6bbac4	-0.05755116
27	0x3d62fcdc	0.055416927
28	0xbd728b1f	-0.059214707
29	0xbd3255a2	-0.043538697
30	0x3e4a60e2	0.1976352
31	0x3ceca53e	0.028887387

output.weight f4 [1, 32]
0	0x3ea12048	0.3146994
1	0x3f07766c	0.5291507
2	0xbf85510e	-1.0415361
3	0x3fbd1ba5	1.4774061
4	0x3f861351	1.0474645
5	0xbf283276	-0.65702
6	0x3ed534c0	0.41641808
7	0x3e9d3ab9	0.30708864
8	0x3fd34bb0	1.6507473
9	0xc0131543	-2.2981727
10	0x3f47b7f9	0.78015095
11	0xbf37a748	-0.71739626
12	0x3f071ca4	0.5277808
13	0xbf6fe6ae	-0.93711364
14	0x3e97c9d2	0.29646164
15	0xbf774b66	-0.96599424
16	0xbfe47bd8	-1.7850294
17	0x3f262d21	0.6491261
18	0xbf266dd8	-0.6501136
19	0x3fc2df3f	1.5224379
20	0x3fea7aa7	1.831868
21	0xbac70100	-0.0015182793
22	0xbec41e99	-0.38304594
23	0xbf7d23f2	-0.98882973
24	0x3ecb6b9b	0.39730534
25	0x3e937290	0.28798342
26	0x3dede7ee	0.11616503
27	0xbf0e1e82	-0.555153
28	0xbf6062ea	-0.8765093
29	0xbeccced7	-0.40001556
30	0xbfeed0e2	-1.8657496
31	0x3f93672f	1.1515864
