Models/OU_network/tau_0.1theta_0.5/Q_network.pt (torch, 7207 bytes, 5 tensors)

layer1.weight f4 [32, 4]
-1.5500857 1.2190596 -0.26656938 -0.37554014 -0.7616612 4.4630375 1.0565388 0.29546773
-1.3370416 1.5715388 -0.20362368 0.1940913 1.9710028 -0.8608374 -0.3519527 0.009284613
-1.6972663 1.9152894 0.58892375 0.17095396 -0.18797071 -2.5596852 -0.3573018 -0.13337179
-0.1050997 -2.3883255 -0.039258786 0.25162435 -1.6677427 -2.8948023 -0.6092673 -0.041112103
-0.3807475 1.6482867 0.4752011 0.21286154 2.214467 0.85576135 0.37850532 0.40901616
-0.71274793 -0.6997514 0.39757648 0.22342761 -1.6718405 0.58720446 0.5163972 0.110676765
0.61976933 -1.5394838 0.1251941 0.10941372 0.35727802 1.3924835 0.21861969 -0.0064907153
-0.50295657 -3.2365448 -0.66654974 -0.15916385 -1.3285904 4.2656546 1.0012705 0.32411987
-1.0137808 1.3404673 0.02900127 -0.17999387 -1.3980119 -1.7446693 -0.46566212 -0.09825491
1.9851401 0.88060683 -0.025341008 -0.11224448 -1.7475384 2.6413414 0.7527499 0.24422741
-1.6456238 2.603392 0.49850684 0.14538705 1.0863892 -0.32957184 0.50598216 0.19298431
-1.6602598 -0.43734676 -0.4305867 -0.05111639 -0.37495998 -1.84849 -0.37471306 -0.14153631
-0.9691679 1.0438856 -0.21882209 -0.20086215 -1.7829516 1.4931198 0.5838528 0.18068185
-0.6438267 2.5777233 0.6077434 0.18983087 1.7376447 -0.46364626 -0.14330837 0.023257198
0.27998388 2.2993152 -0.16941823 -0.57839996 -1.7943525 -0.93446434 -0.36540762 -0.24205616
0.7597172 0.044056892 -0.818631 -0.06350647 -1.3741715 1.2937125 -0.18032038 -0.040553764
00000000: 3569 c6bf 250a 9c3f c87b 88be cc46 c0be
00000010: 3afc 42bf 34d1 8e40 aa3c 873f 8c47 973e
00000020: 2e24 abbf 2f28 c93f ba82 50be dfbf 463e
00000030: d249 fc3f d75f 5cbf 2533 b4be 7d1e 183c
00000040: 0640 d9bf 3428 f53f b5c3 163f 8e0e 2f3e
00000050: 657b 40be e2d1 23c0 43f0 b6be 9d92 08be
00000060: 833e d7bd 53da 18c0 d2cd 20bd e8d4 803e
00000070: 9878 d5bf 7144 39c0 f1f8 1bbf 2a65 28bd
00000080: 56f1 c2be 0ffb d23f 8f4d f33e 60f8 593e
00000090: d4b9 0d40 2d13 5b3f 73cb c13e 916a d13e
000000a0: a676 36bf e822 33bf 258f cb3e 35ca 643e
000000b0: dffe d5bf 0853 163f 9b32 043f 80aa e23d
000000c0: 34a9 1e3f ce0d c5bf e232 003e 4d14 e03d
000000d0: 25ed b63e e63c b23f d7dd 5f3e 11b0 d4bb
000000e0: c3c1 00bf 8d23 4fc0 01a3 2abf d9fb 22be
000000f0: 400f aabf 3e80 8840 a229 803f 0af3 a53e
00000100: 92c3 81bf 6f94 ab3f 1294 ed3c 5050 38be
00000110: 0ef2 b2bf 5351 dfbf 446b eebe df39 c9bd
00000120: 1219 fe3f 736f 613f f297 cfbc 6fe0 e5bd
00000130: 57af dfbf bd0b 2940 38b4 403f c016 7a3e
00000140: cda3 d2bf f99d 2640 4a3c ff3e 58e0 143e
00000150: cd0e 8b3f a4bd a8be 0c88 013f ae9d 453e
00000160: 6583 d4bf eaeb dfbe dc75 dcbe 6b5f 51bd
00000170: c1fa bfbe 529b ecbf 64da bfbe e5ee 10be
00000180: 631b 78bf 0b9e 853f e612 60be cfae 4dbe
00000190: c237 e4bf 8d1e bf3f 6177 153f aa04 393e
000001a0: d4d1 24bf 6bf9 2440 1295 1b3f 0663 423e
000001b0: 246b de3f 0b63 edbe 6ebf 12be e185 be3c
000001c0: 0c5a 8f3e fb27 1340 f97b 2dbe 0512 14bf
000001d0: 58ad e5bf 0e39 6fbf b516 bbbe 92dd 77be
000001e0: d47c 423f 0075 343d cd91 51bf ae0f 82bd
000001f0: dae4 afbf 5f98 a53f e8a5 38be b41b 26bd

layer1.bias f4 [32]
0.7977515 -0.6884054 0.7648237 -0.06873257 1.0001284 -0.49332514 0.89544547 0.25989836
2.3900917 0.5361196 1.5635755 1.695858 0.8271081 0.4128456 -0.35124072 -0.06869699
0.6479021 0.775536 0.34996465 0.83930314 0.84661216 1.5712191 1.5388285 1.37519
0.6600635 1.2423285 -0.19463502 0.5296685 1.3348175 1.2166142 0.842177 0.870213
00000000: 7139 4c3f 563b 30bf 7ccb 433f a9c3 8cbd
00000010: 3504 803f 1d95 fcbe ea3b 653f 6611 853e
00000020: 43f7 1840 223f 093f 3e23 c83f e011 d93f
00000030: 5bbd 533f 8060 d33e d3d5 b3be 02b1 8cbd
00000040: e9dc 253f 8789 463f 912e b33e 92dc 563f
00000050: 93bb 583f b51d c93f 55f8 c43f 3a06 b03f
00000060: ecf9 283f 9f04 9f3f 674e 47be 5b98 073f
00000070: 4ddb aa3f 04ba 9b3f e998 573f 47c6 5e3f

layer2.weight f4 [32, 32]
0.09567523 0.68860817 0.12285719 1.3401988 0.349483 1.1378163 0.4275996 0.5613926
-0.77138233 0.6047112 0.4732192 0.5052295 -0.403694 0.4431626 0.889869 0.6949878
0.3552712 0.63081104 1.1118177 0.31336924 0.49015704 -0.73034674 0.27239278 -0.14043215
0.30014035 0.2692537 0.34737137 0.9747845 -0.35228175 0.47367302 -0.577185 0.2137805
0.12962715 0.95443696 0.1950966 0.9327522 0.43903303 0.91863686 0.33024916 0.3705701
-1.0518891 0.3452642 0.7152583 0.57947046 -0.4985341 0.289064 0.9500596 0.5236331
0.25832745 0.6165054 1.050852 0.2683934 0.46767005 -0.66358024 0.21933211 -0.44038635
0.5976369 0.3358441 0.5048439 0.82433236 -0.2641383 0.44506058 -0.7504749 0.24664062
0.26455912 0.75271016 0.4276944 1.0300983 0.5494281 0.89039147 0.17244151 0.6015556
-0.88493013 0.6101188 0.7011669 0.4752314 -0.55819607 0.5605946 0.8751353 0.61056316
0.42603683 0.43141273 1.0589014 0.3053356 0.50538224 -0.4294064 0.42410424 -0.30813682
0.49626228 0.28775156 0.48027778 0.9335764 -0.39182743 0.3317721 -0.7164066 0.255306
0.40087774 0.3021187 -0.713376 -1.1883081 -0.5739251 1.6146222 0.9664311 2.1546018
-1.4126335 -2.6471708 -1.6917392 -1.6652257 1.5187585 -2.6421318 2.266697 1.3048435
0.01826266 2.0988853 -2.1304016 0.10843077 1.1708856 1.4533414 1.7501136 1.6088012
-0.70996904 -0.99850553 1.0314534 -1.075508 -1.5646893 1.691368 1.3085994 -1.6343952
-0.80288714 0.94379455 -0.575892 -1.3549552 1.4834961 -2.2403615 -0.16735663 -1.5985411
0.8156059 -0.90910846 1.2785645 1.2996943 0.20507331 -0.12577266 -1.3229907 1.0788978
-0.7431591 -1.6131594 -0.49867746 1.1597505 1.346764 -0.22465284 -1.4203675 0.014147632
-0.63602954 1.4732622 0.7352711 -0.86327994 0.68656 -1.0160818 0.5957401 0.044916127
0.23710287 0.849769 0.15654579 0.9744798 0.32006449 0.85468 0.37263808 0.44128588
-1.0293435 0.3011774 0.72697407 0.48064077 -0.5631842 0.40001673 0.93515104 0.5403068
0.44736 0.6174924 1.2320838 0.28452355 0.57919884 -0.63557154 0.31283027 -0.27026638
0.5006158 0.38311443 0.50672686 0.8600176 -0.42900336 0.4644749 -0.8107258 0.37839106
0.07575297 0.74613595 0.19471444 0.9999757 0.51427066 0.9315187 0.32428187 0.49973285
-1.0767027 0.44706503 0.56622297 0.35740837 -0.41676304 0.37011245 0.73619086 0.64558846
0.31514648 0.43640867 1.3052806 0.15864314 0.18407065 -0.48009372 0.49084303 -0.40500388
0.553705 0.50429904 0.49360391 1.1826128 -0.30995694 0.3002734 -0.7474225 0.12520908
0.28568372 0.7035404 0.23077771 1.2654725 0.6016981 0.9505762 0.3850175 0.5511007
-0.9329995 0.44368616 0.49419004 0.38881865 -0.46275362 0.5047472 0.8809343 0.58248985
0.2922768 0.63176656 1.0921661 0.13612814 0.40927476 -0.729718 0.36790597 -0.32358092
0.400015 0.48479235 0.5206881 1.1995187 -0.30576134 0.44650275 -0.7371088 0.08809284
00000000: 60f1 c33d a048 303f 8d9c fb3d a28b ab3f
00000010: 70ef b23e f7a3 913f 56ee da3e 6db7 0f3f
00000020: 5079 45bf 5ace 1a3f c949 f23e b856 013f
00000030: fbb0 cebe 35e6 e23e 74ce 633f b8ea 313f
00000040: 1be6 b53e d57c 213f 0b50 8e3f ef71 a03e
00000050: ddf5 fa3e 01f8 3abf 1177 8b3e 72cd 0fbe
00000060: ffab 993e 9fdb 893e a9da b13e 7a8b 793f
00000070: 465e b4be 4585 f23e 65c2 13bf 47e9 5a3e
00000080: fbbc 043e fb55 743f 67c7 473e d9c8 6e3f
00000090: f0c8 e03e c92b 6b3f 6b16 a93e 5dbb bd3e
000000a0: 4da4 86bf 78c6 b03e 2b1b 373f 2d58 143f
000000b0: dd3f ffbe 3200 943e 1b37 733f d20c 063f
000000c0: 7f43 843e 4cd3 1d3f 5182 863f dc6a 893e
000000d0: 7372 ef3e 65e0 29bf 9998 603e 527a e1be
000000e0: bbfe 183f c2f3 ab3e 733d 013f 7207 533f
000000f0: 233d 87be fbde e33e 1f1f 40bf 5c8f 7c3e
00000100: 4b74 873e 9db1 403f c3fa da3e 43da 833f
00000110: 52a7 0c3f b2f0 633f 8294 303e 8cff 193f
00000120: c88a 62bf bf30 1c3f ad7f 333f 8851 f33e
00000130: f0e5 0ebf 2183 0f3f de08 603f de4d 1c3f
00000140: 8021 da3e 21e2 dc3e 158a 873f f354 9c3e
00000150: bb60 013f 28db dbbe 3124 d93e 1cc4 9dbe
00000160: 1716 fe3e 2c54 933e f8e6 f53e ddfe 6e3f
00000170: 9b9d c8be 08de a93e 6c66 37bf 78b7 823e
00000180: d93f cd3e 4daf 9a3e cf9f 36bf 7b1a 98bf
00000190: c1ec 12bf f1ab ce3f 0768 773f ffe4 0940
000001a0: 2dd1 b4bf 3f6b 29c0 e98a d8bf 1e26 d5bf
000001b0: ae66 c23f b018 29c0 9011 1140 1d05 a73f
000001c0: 939b 953c 2354 0640 8058 08c0 f410 de3d
000001d0: 94df 953f 1707 ba3f b903 e03f 33ed cd3f
000001e0: 88c0 35bf 0f9e 7fbf aa06 843f 3faa 89bf
000001f0: bd47 c8bf bf7e d83f 2f80 a73f dd33 d1bf
00000200: 038a 4dbf 859c 713f a86d 13bf 2c6f adbf
00000210: 33e3 bd3f 1562 0fc0 895f 2bbe ff9c ccbf
00000220: 8ccb 503f 55bb 68bf 00a8 a33f 625c a63f
00000230: bdfe 513e 8cca 00be c257 a9bf 5319 8a3f
00000240: ad3f 3ebf 027c cebf a752 ffbe b472 943f
00000250: c362 ac3f 650b 66be 9ace b5bf 78cb 673c
00000260: d5d2 22bf db93 bc3f ba3a 3c3f eaff 5cbf
00000270: 65c2 2f3f f80e 82bf 6c82 183f f9f9 373d
00000280: 18cb 723e 768a 593f 8a4d 203e 8277 793f
00000290: 7edf a33e 4fcc 5a3f 6bca be3e 39f0 e13e
000002a0: 87c1 83bf ed33 9a3e f91a 3a3f 8c16 f63e
000002b0: d72c 10bf fece cc3e 0f66 6f3f 8c51 0a3f
000002c0: 5f0c e53e fb13 1e3f ecb4 9d3f 12ad 913e
000002d0: 6046 143f d1b4 22bf 4a2b a03e 5b60 8abe
000002e0: 5b28 003f 9327 c43e dab8 013f 1d2a 5c3f
000002f0: 54a6 dbbe a7cf ed3e ba8b 4fbf 79bc c13e
00000300: 6024 9b3d c402 3f3f 3963 473e 68fe 7f3f
00000310: 3ea7 033f 0278 6e3f 4608 a63e fcdc ff3e
00000320: 65d1 89bf b5e5 e43e fdf3 103f 3bfe b63e
00000330: f761 d5be 617f bd3e 0177 3c3f 4945 253f
00000340: e15a a13e f570 df3e 6f13 a73f 5973 223e
00000350: 047d 3c3e d8ce f5be c74f fb3e ab5c cfbe
00000360: 9cbf 0d3f be19 013f a7b9 fc3e db5f 973f
00000370: adb2 9ebe 6fbd 993e 1557 3fbf cf36 003e
00000380: 2345 923e 391b 343f fe50 6c3e 01fb a13f
00000390: e308 1a3f f658 733f 0421 c53e ef14 0d3f
000003a0: 0ed9 6ebf d52a e33e 7a06 fd3e 3d13 c73e
000003b0: 0bee ecbe 1d37 013f e984 613f 0e1e 153f
000003c0: 4ea5 953e 74bb 213f 19cc 8b3f 2d65 0b3e
000003d0: 768c d13e cdce 3abf 2c5e bc3e 66ac a5be
000003e0: c4ce cc3e b436 f83e d14b 053f d489 993f
000003f0: c08c 9cbe 029c e43e 2ab3 3cbf 056a b43d

layer2.bias f4 [32]
-0.16446102 -0.31423822 -0.24032144 0.3876302 0.5626156 -0.38169754 -0.263716 -0.12854728
0.10014395 -0.046733107 -0.19492042 -0.55289906 0.8901542 -0.24051598 -0.18892713 -0.28796127
0.7671909 -0.27763024 -0.38791054 -0.40141782 -0.30523193 0.742191 -0.07095053 -0.2574295
-0.264187 -0.50185055 -0.12101259 -0.29218137 -0.3864379 -0.4285733 0.06726331 -0.14666039
00000000: 7868 28be d5e3 a0be d316 76be 7777 c63e
00000010: 9307 103f dc6d c3be c905 87be e6a1 03be
00000020: 4518 cd3d 376b 3fbd 3899 47be cb8a 0dbf
00000030: 25e1 633f d249 76be 1d76 41be a96f 93be
00000040: 9f66 443f 8d25 8ebe 369c c6be a386 cdbe
00000050: 5c47 9cbe 3b00 3e3f 834e 91bd cdcd 83be
00000060: 8543 87be 4779 00bf 73d5 f7bd cc98 95be
00000070: 30db c5be f66d dbbe 59c1 893d 242e 16be

output.weight f4 [1, 32]
-0.80379975 -0.97072023 -0.7626763 3.2686949 2.149041 -1.0224571 -1.0736808 -0.9429966
0.095171645 0.1013817 -0.84251606 -0.95890343 7.322594 -0.7632601 -0.95730746 -0.83117235
4.084107 -1.0743088 -1.0297244 -0.8543381 -0.7319695 2.1289523 0.11691754 -0.90910405
-0.83501947 -0.95120513 -1.0871118 -0.7150061 -0.9277853 -0.90605605 2.9740644 -0.8786723
00000000: d2c5 4dbf 1f81 78bf c13e 43bf 4c32 5140
00000010: e389 0940 e0df 82bf 5f6e 89bf 3a68 71bf
00000020: 5ae9 c23d 35a1 cf3d 22af 57bf b27a 75bf
00000030: b152 ea40 0465 43bf 1a12 75bf b6c7 54bf
00000040: 01b1 8240 f382 89bf 02ce 83bf e7b5 5abf
00000050: 5a62 3bbf c140 0840 7772 ef3d 0bbb 68bf
00000060: d6c3 55bf 2e82 73bf 7b26 8bbf a40a 37bf
00000070: 5683 6dbf 4af3 67bf 1257 3e40 abf0 60bf
