Models/target_network/tau_0.25/policy_network.pt (torch, 7119 bytes, 5 tensors)

layer1.weight f4 [32, 3]
00000000: 1f22 aebd 2b97 9a3f 163c 963e 1c49 d13f
00000010: 2568 4b3d 567f 2cbf 56d6 55bf c9b3 81be
00000020: 2888 b33e bb43 c43e 8ae9 513f 1825 febc
00000030: 1a0f 5b3e 8e50 e33e 055d d83d 10f9 fd3e
00000040: bfde 333f 1451 0a3e 9be1 163f 20b5 b83d
00000050: a83e 913e cacf ac3f b247 493f 1cfa 5bbe
00000060: 1977 33bd 32c4 a23f 5e03 0f3e 827b 72bf
00000070: e5dd 5ebf aff3 00bf 70f7 9b3f 84f0 d63d
00000080: d8b4 113e a8d3 59be fe0e 683f 68cf d53e
00000090: 049d 2e3f 79b1 54bf 7830 c13d 3ef1 debd
000000a0: da15 933f 2c9c 863d bf68 0f3f 73b6 133f
000000b0: 0efd 85bf e46f 753f 7338 553d a458 213f
000000c0: 578c 04be 4bce 743f 81c5 283f f5c3 46bf
000000d0: 3f54 2e3f 0c0d 683f f808 9ebe 0b46 91bd
000000e0: 9894 123e 3f7c c53d 24c4 943f 3446 1f3b
000000f0: 6889 e53d e176 a03f f526 af3d 98e2 8dbf
00000100: 29dc 953f a541 3dbf e9f9 4ebf 9ea0 79bf
00000110: c11d 723f 827a dfbe 2dad c6bf 9bab 1dbe
00000120: 0940 55bf b1e5 8cbf 6256 0fbe 1aec c4be
00000130: 0080 a2bf 6931 d2be 667e 373e 0f4b fc3e
00000140: 3d23 673e 4960 233d d356 973f 4509 183d
00000150: 73db bf3d a74e b0bf ef0c 67bd f1f5 193d
00000160: 8085 383f 3c07 483e 5ca7 3dbd eb4b 7f3f
00000170: 6706 88be 0005 48bf 46f4 9dbe 3fc8 5a3e
-0.08502602 1.2077383 0.29342717 1.6350436 0.049659867 -0.673818 -0.83530176 -0.25332478
0.35064816 0.38332924 0.8199698 -0.031023547 0.2139248 0.44397396 0.10564617 0.49604082
0.7026176 0.13507491 0.58937997 0.09018922 0.28368115 1.3500912 0.78625023 -0.21482128
-0.043814752 1.2716124 0.13966128 -0.9471971 -0.87057334 -0.5037183 1.2184887 0.104950935
0.14229143 -0.21272147 0.90647876 0.417598 0.68208337 -0.830833 0.09433073 -0.10885857
1.1491044 0.06572756 0.56019205 0.5770027 -1.0467851 0.95873857 0.052055787 0.6302588
-0.1294416 0.9562728 0.6592637 -0.77642757 0.680973 0.9064491 -0.30866218 -0.07093438
0.14314497 0.09642839 1.1622357 0.002430332 0.11207849 1.2536279 0.08552352 -1.1084776
1.1707813 -0.7392829 -0.8085008 -0.9751071 0.9457665 -0.43648154 -1.5521599 -0.15397494
-0.83300835 -1.1007596 -0.13997796 -0.3846138 -1.2695312 -0.41053322 0.17919311 0.49276015
0.22572036 0.039886747 1.1823372 0.037118215 0.093680285 -1.3774003 -0.05640882 0.037588064
0.72078705 0.1953401 -0.046302184 0.99725217 -0.26567385 -0.7813263 -0.30850428 0.2136545

layer1.bias f4 [32]
00000000: e520 49bf 7d54 80be e10e 2d3f 00c0 823e
00000010: 625e b5be 372f 793d 41d3 893f f246 7f3e
00000020: 00c9 bf3d cfc5 b03e 1367 9e3e fae0 16bf
00000030: cf10 f5be 3f44 24bf be36 8a3e e336 683f
00000040: efcb 973d c7fc 463f bcdf 413f 4016 423f
00000050: 85bf 1d3f 99d1 fb3e 2def 8bbe a722 693e
00000060: 301f f03d 5601 883e c08b b1be 7094 cf3e
00000070: e56d 563f 2953 3abf d70d d83e ba28 d03d
-0.7856582 -0.2506446 0.6760083 0.2553711 -0.3542357 0.060836043 1.0767595 0.24929407
0.093645096 0.34525916 0.30938014 -0.58937037 -0.47864386 -0.64166635 0.2699489 0.9070875
0.07411944 0.7772946 0.75732017 0.758152 0.6162036 0.49183348 -0.27330914 0.22767125
0.117246985 0.2656352 -0.34676933 0.40542936 0.83761436 -0.7278314 0.4219806 0.10164018

layer2.weight f4 [32, 32]
00000000: 1c95 c53e 6e14 0e3e 3898 da3e 44fd 083e
00000010: e05e 6c3e dba0 08be cb7d bc3c d8a5 30be
00000020: 9a45 b33e 437c 04bd cd8a f7bc c1e7 1b3f
00000030: 9240 57bf a2da d2bd 25f5 73be be46 a23d
00000040: 6ab4 843e aaba 3b3e 2918 8c3e 6f90 6ebe
00000050: 542c 9bbe 2365 61be be44 2a3e c669 203e
00000060: 22a7 d03d 6785 bfbd 308d a8bd 3a13 10bd
00000070: 4ca5 3f3d c397 573f 6657 85be bea3 803d
00000080: bc86 20c0 7f25 933e 4b9a 933e dcb7 05c0
00000090: aab4 30bf 7d39 82bf ef00 a13e 346b 48be
000000a0: c1e6 80bf 320b 7a3d c34a 273f 5f49 cbbf
000000b0: 48f3 76bf 62a7 00c0 26d4 bc3d 0802 343f
000000c0: 091a cfbe 5fb2 9a3e 1273 d03d 2da1 19bd
000000d0: e149 2c3e 61a8 053f 507b b73d 67fe 0a3e
000000e0: 685c 4ebe 9cd4 c73e 7bc5 efbe b4e6 a53e
000000f0: 27b2 163f d25e c1bf 76a4 4a3e 1bf3 9c3e
00000100: 4273 50bd d76e b0bd 5ea4 73bd 50cb 5ebe
00000110: 056f 2a3e 0f9f 153e 46a1 8a3d 36ec 203e
00000120: b62c 643e 4dff b93e f400 f73e f244 95be
00000130: 71a5 8a3f fa8a 3abb 99bb ee3e 870b 113e
00000140: 3bba 8f3d e805 68bc 5786 803e ff4a 973e
00000150: 8ea2 d23e ba84 3f3f 9a16 a6be 045f 1ebd
00000160: de95 8fba af86 ed3e d5e1 d53e 038d 863e
00000170: aa11 8b3d 8fbe 49bf 1a08 123f d565 853e
00000180: 71ac 54bf 2fef 193d 4c85 bebd d868 99bd
00000190: 8285 82bd 292f 1c3f 3693 813e 78a1 143e
000001a0: 4364 49bf 2a05 7e3d 507d bf3e 6f1f e2bf
000001b0: 68c7 713f 0e45 80bd 46db cf3e c272 a53e
000001c0: 5663 45bd 546e 473d 2f2d a93e 9bfe 233f
000001d0: e91f 7b3f f861 f93e e308 8ebe e47d 203e
000001e0: c149 4cbe 8a4d 853e 7f38 d33e f5e3 b83e
000001f0: 903f e13d 2e03 bdbf ca03 b13e aeaf 48be
00000200: 9fcc e93e 19e5 09be 739f f63e 3814 3c3e
00000210: 487f 3e3d 19bc d4bd 7a84 d4bd 0e40 89be
00000220: 33be c13e 378b 7c3d 40d2 0bbe e51c 173f
00000230: f526 6bbf c982 42be 8fcf c6be 63a4 10be
00000240: 847a 5d3e 071e 9b3e 88b5 093e e4e7 9abe
00000250: 0adf 8cbe 89e4 88be 3051 eb3e 3d38 3fbc
00000260: e88c ca3b 914b ebbc 8a61 41be e92d a5ba
00000270: 25cb c43c 35ca 813f 407d 3abd 3c44 0a3d
00000280: c3b4 473e e96c a63e 7a2e b6be 52c6 1d3f
00000290: 5c70 c93a 27a6 9e3e e302 0c3d ffc9 3d3f
000002a0: 0b8d a73e 7249 a9be 7fdf f83e 2f0b b1bd
000002b0: 1fbb 0e3f eaf3 0d3f a1db f23e 8786 8ebd
000002c0: 72a9 843d 7e32 e4bd d568 b2be f7d3 143f
000002d0: 324a 013f 95cd b63e 0f93 82bd 046b d5bf
000002e0: 720b 88bf 34a8 5cbf 7401 bc3e 1aa9 89be
000002f0: 7bb3 35be 0852 0abf b2ee a23b f222 e7bd
00000300: a260 c33e b161 493e cc3d d13e e54b 543e
00000310: fa42 21bd 3169 02be 1e5c 863e de45 d9bd
00000320: 779f c23e 7bc1 983c 5981 90bd f6a4 293f
00000330: fae5 79bf 4f70 afbd 9c96 d2be 3351 433e
00000340: d984 123e 878e a03e 0825 833e a0ec c0be
00000350: b84b aebe 4d02 6abe 225a d63e f499 e1bc
00000360: fdb6 363e caa2 9ebd e044 84be 53e8 0c3e
00000370: 10f6 09be ee63 563f f218 bcbe 80db 3c3e
00000380: 8c2f a93e d656 f4bd 3465 8cbb 0beb 1dbe
00000390: e6c8 cf3d 115d 4cbe c4fa b1bd bfb8 21be
000003a0: cda0 c1bd 71cf a43c 1208 18bd 6c68 d33e
000003b0: 1014 a1be 4592 ccbe 38ac 0bbe c259 48be
000003c0: c4b9 0a3e 5db4 e43d 0dff 263d 6c20 8fbc
000003d0: 56e4 f43c 6356 e9be fc41 053e dcf1 a13e
000003e0: 1c8a ce3d f4b1 2cbd 3937 e039 2b44 ccbc
000003f0: c2eb 78be bab8 d83e c733 e5be 91f5 e03d
0.38590324 0.13874981 0.4269426 0.13377863 0.23083067 -0.13342611 0.023009202 -0.17250764
0.3501404 -0.032345068 -0.030217553 0.60900503 -0.840829 -0.10295607 -0.23823984 0.07923649
0.25918895 0.18332925 0.27362183 -0.23297285 -0.30307257 -0.22011237 0.16627786 0.1566535
0.10188128 -0.09351616 -0.082300544 -0.035174586 0.0467885 0.84215945 -0.26043242 0.06281231
-2.5082235 0.28739545 0.28828654 -2.089347 -0.6902567 -1.0173794 0.31446025 -0.19572145
-1.007042 0.061045833 0.6534845 -1.5881766 -0.9646497 -2.0102162 0.092201516 0.703156
-0.4044955 0.3021421 0.10178198 -0.037507225 0.16825058 0.5221005 0.08959067 0.1357361
-0.20152438 0.39029396 -0.46830353 0.32402575 0.5886559 -1.5107062 0.197893 0.30654225
-0.05089117 -0.08614891 -0.059482925 -0.21757245 0.16643913 0.14611457 0.06769042 0.15715107
0.22282681 0.36327592 0.48242915 -0.29154164 1.0831739 -0.0028464184 0.466275 0.14164554
0.070179425 -0.014161564 0.25102493 0.29549405 0.41139644 0.748119 -0.3243912 -0.038664833
-0.0010954698 0.46391818 0.4177386 0.26279458 0.067904785 -0.78806394 0.5704361 0.26054254
-0.83075625 0.03758162 -0.09302768 -0.074907005 -0.06373121 0.6100946 0.25307626 0.1451472
-0.7866861 0.062016644 0.37400293 -1.7665843 0.94444895 -0.06263171 0.4059698 0.32314116
-0.048190437 0.0486892 0.33042285 0.6406037 0.98095566 0.48707557 -0.27741155 0.15673023
-0.1995001 0.2603572 0.4125404 0.36111417 0.10998452 -1.4766595 0.34573203 -0.19598266
0.45663926 -0.134663 0.48168525 0.18367088 0.046508104 -0.10387439 -0.103768304 -0.26806682
0.37840423 0.061656203 -0.13654423 0.59028465 -0.9185632 -0.18995203 -0.3883023 -0.14125209
0.21628767 0.30296347 0.13448155 -0.30255044 -0.27513915 -0.26736858 0.4596038 -0.011671123
0.006181348 -0.028722556 -0.18884864 -0.0012602183 0.024022648 1.0139834 -0.045529604 0.03375648
0.19502549 0.32504967 -0.35582334 0.6163074 0.0015368569 0.3098614 0.03418244 0.74136347
0.32724795 -0.33063847 0.48608014 -0.08644711 0.55754274 0.5545031 0.4743319 -0.06959253
0.06477632 -0.11142443 -0.34845605 0.5813593 0.5050384 0.35703722 -0.063757055 -1.6673284
-1.0628493 -0.8619416 0.3671986 -0.26886827 -0.17744248 -0.5403142 0.0049723024 -0.11285962
0.38159662 0.19666173 0.4086746 0.20732076 -0.039370514 -0.1273544 0.26242155 -0.10609029
0.38012287 0.018646946 -0.07055921 0.66267335 -0.9761654 -0.08566343 -0.4113053 0.19073944
0.1430849 0.3135874 0.2561419 -0.3768053 -0.34042144 -0.2285244 0.4186564 -0.02753923
0.17843242 -0.07745893 -0.25833797 0.137605 -0.13472772 0.8374623 -0.36737782 0.18443108
0.33044088 -0.11930625 -0.0042845253 -0.15421693 0.1014574 -0.19957377 -0.08690408 -0.15793131
-0.094544984 0.020118447 -0.03711707 0.41290605 -0.3146062 -0.39955345 -0.13639915 -0.1956549
0.13547426 0.11167214 0.04077058 -0.017471515 0.029894035 -0.4557372 0.13013452 0.31629837
0.10084936 -0.042161897 0.00042765753 -0.024934849 -0.24308684 0.42328435 -0.44766065 0.10984338

layer2.bias f4 [32]
00000000: 1f3e 3c3e 818e 0a3f aeab 223d f886 b13e
00000010: 43a3 1b3e ffbb 64bd cb98 e93b a063 fdbd
00000020: a9cf 53be 62fb 963e 5973 c73e 0e13 6cbe
00000030: f2bf 9e3d fdaf 213e 8c8e 90bd 87a6 4dbe
00000040: 189e 2a3e 7ecc 933e 0918 073f e7e6 7e3e
00000050: 23a7 90ba 483a 7f3d 221d 13bf d5be 8cbd
00000060: a492 373d 0f71 ecbd 02e0 47bc acbf ff3c
00000070: c669 863e 89dd 753d a39a f93d 840f 1b3e
0.18383072 0.54123694 0.039714508 0.34673285 0.15198998 -0.05584335 0.00712881 -0.123725176
-0.20684685 0.29488665 0.3895519 -0.23054144 0.077514544 0.1578979 -0.07058439 -0.20083056
0.1666187 0.28866953 0.5277105 0.2489277 -0.0011036139 0.06231144 -0.5746633 -0.06872336
0.04481758 -0.11545002 -0.012199404 0.031219326 0.26252574 0.060025726 0.12187698 0.15142637

output.weight f4 [1, 32]
00000000: 5049 c33e 6495 5dbf f6a9 36bf aded a1bf
00000010: 629d ee3e 9840 18bf 8f60 093f 95a4 2c3f
00000020: e339 b3bf 3b39 86bf 3bab 85bf a342 803f
00000030: 8bd3 393d abf1 40bf 73de 74bf 4f88 7abf
00000040: cc13 49bf 7318 f4bf fdd5 30bf 3bc2 d93e
00000050: 4794 db3e ddab a0bf 4fbc 123f b18d f33e
00000060: cea1 b73e 81dc 47bf c1d2 a2bf 7017 50bf
00000070: 98c6 b63e 0853 a9bf fb44 cb3e 97fc bf3e
0.3814187 -0.86556077 -0.7135309 -1.2650658 0.4660445 -0.5947356 0.5366296 0.6743863
-1.4002041 -1.0486215 -1.044288 1.0020336 0.04536776 -0.75368756 -0.9565193 -0.9786424
-0.7854583 -1.9069961 -0.6907652 0.42531 0.42886564 -1.2552449 0.57318586 0.4756904
0.35865635 -0.7807084 -1.2720567 -0.8128576 0.3569839 -1.3228464 0.39701065 0.37497398
