Models/OU_network/tau_0.5theta_0.5/Q_network.pt (torch, 7207 bytes, 5 tensors)

layer1.weight f4 [32, 4]
00000000: 356e 20bf 6d22 abbf 0bcb 37be 81b6 8abd
00000010: e619 d33d 9b8c b43f 9b89 b93d 2092 afbd
00000020: 50c7 843f 8396 1e40 5e63 f73e 7ea8 a1bc
00000030: ef1e 9ebf 6559 1e40 0f83 123f ca2a 153d
00000040: 2412 9fbf 6cdb 4940 ed44 2a3f f40a 7d3e
00000050: dc8a b4be 1d67 813e 0a00 c6be f102 053f
00000060: f0d2 6dbe 711a 8fbf d5fe b6bc 7948 073d
00000070: 9adf bcbf ce08 e9be cf9b a33e 76a7 0d3d
00000080: 1c51 a3be 3ca9 873f 5ce0 6cbf 5688 55be
00000090: ba3a 02c0 d60f ab3f 3d7f 223f de45 f2bd
000000a0: adc7 9ebf 24ad f1bf 9fa0 ab3e 9eba 4d3c
000000b0: ff9d 05c0 63a0 143f 23bf d63e 09fb f73e
000000c0: 1afd a7be b4f5 913f d488 a13c b356 8fbe
000000d0: aa96 d9be eb0b bebf 3b3b bebc 44e7 28be
000000e0: 501f fb3f 9079 63bf 745c 7abc 6bae 7a3e
000000f0: d0fd 15c0 e181 a43e c9e1 e43e 7bb9 57bd
00000100: bff2 fcbf 5ddd abbf cba2 a93e 386e f43e
00000110: 4ecb bdbe a9d7 d1be cd4a 413f 6eca fb3e
00000120: 784e f9bf 6a2e 9e3f a6c6 80be 497f cebe
00000130: 70e7 08c0 8546 1440 d97e 0e3f 280a 673e
00000140: 1873 e4be 1f80 5cc0 1fa0 50bf 7455 7bbe
00000150: da4d 26c0 4cd7 0dc0 7975 45bf 6db4 7bbe
00000160: e63c 0840 3d40 583f c0bd c3ba 1d11 edbd
00000170: 8260 a0bf 6a28 4ac0 642b 41bf a2ac 34be
00000180: ff94 d83f 5326 d33f 4a55 523f a946 d63c
00000190: b1cb b9bf 0490 36c0 4561 29bf 558a 89be
000001a0: 83fc d6bf 6327 1ec0 b3e4 27bf 39cb 41be
000001b0: c7d8 1ec0 1d78 693f f942 243f d6ee de3c
000001c0: 85cb 0cc0 f23c 943f 9be4 e6be 7129 22be
000001d0: db28 32bf d6b5 4240 406a 183f 85cd 103e
000001e0: 1ef5 96bf 4fd4 b53c 3e90 27be a1e9 fcbd
000001f0: a961 92bf 4ae4 c3bf da2e bebe dcc8 0dbe
-0.6266816 -1.3369881 -0.17948548 -0.06773091 0.10307674 1.4105409 0.09059449 -0.08572793
1.0373325 2.4779365 0.48318 -0.019733664 -1.235319 2.4742062 0.5723123 0.03641776
-1.2427411 3.1540174 0.6651142 0.2471121 -0.3526219 0.25273982 -0.38671905 0.51957613
-0.23224998 -1.1179944 -0.02233831 0.0330281 -1.4755738 -0.4551453 0.3195481 0.03458353
-0.3189782 1.0598521 -0.92529845 -0.2085279 -2.0348344 1.3364208 0.634754 -0.11829732
-1.2404686 -1.8880963 0.33520982 0.0125567 -2.0877683 0.5805723 0.419427 0.48433712
-0.3281029 1.1403108 0.019718565 -0.27995834 -0.4249776 -1.4847387 -0.023221603 -0.16494471
1.9618931 -0.88857365 -0.015280832 0.24480598 -2.3436165 0.3213034 0.4470351 -0.052667122
-1.976158 -1.342693 0.33132014 0.4774034 -0.37069172 -0.40984848 0.7550476 0.4917788
-1.9477072 1.2357914 -0.25151557 -0.40331486 -2.1391258 2.3168042 0.55662304 0.22562468
-0.4461906 -3.44532 -0.81494325 -0.24544317 -2.5985017 -2.2162657 -0.77132374 -0.24580546
2.128717 0.8447302 -0.0014933869 -0.1157553 -1.2529452 -3.1587167 -0.75456834 -0.17643979
1.692047 1.6496071 0.8216139 0.02615674 -1.4515287 -2.85254 -0.66164047 -0.2686335
-1.679581 -2.471154 -0.6558334 -0.1892518 -2.481981 0.91198903 0.6416469 0.027213495
-2.1999218 1.1581099 -0.45096287 -0.15836121 -0.6959359 3.0423484 0.59537125 0.141409
-1.1793554 0.022195963 -0.16363618 -0.12349249 -1.1436054 -1.5304043 -0.3714512 -0.13846153

layer1.bias f4 [32]
00000000: c5e2 0d40 0b8e d53f 0bc3 413e 5ba6 ab3e
00000010: f72d 343e c994 c83f 85f8 a33f 6ce1 903f
00000020: 9832 603f 3723 843f 1aae 473f 99e5 ca3f
00000030: e263 f73f 498f ac3f 445b 743f e7f2 b93f
00000040: c866 943f 974d 8a3f d505 cd3f 6392 ba3f
00000050: 4d2c 11bf 9b18 e63f a194 643f f8b3 513e
00000060: ddc4 5cbe b0a0 133f fffc 543f 59c9 f73f
00000070: 8b4b 803f 2757 91be 5a1c b83f 060e fd3f
2.216966 1.6683973 0.18922059 0.33525357 0.17595659 1.5670406 1.2810217 1.1318793
0.875772 1.0323247 0.7800003 1.5851318 1.9327357 1.3481227 0.9545176 1.4527253
1.1593866 1.0804929 1.6017405 1.4575924 -0.5670822 1.7976259 0.8928929 0.20478809
-0.21559472 0.57667065 0.8319854 1.9358321 1.0023054 -0.28386804 1.4383652 1.9769905

layer2.weight f4 [32, 32]
00000000: e0a9 a2be 5b32 84be 23f7 ca3d c49c 6e3f
00000010: f0d5 cb3f 0906 333e 7798 90be 6435 203e
00000020: a339 90be 6c7b 513f 08b4 c63e e09b 5abe
00000030: 38f0 39bf d58c 49be cf59 103f ad7f 0ebf
00000040: 6850 af3e 39d4 03bf 3eb4 8e3f 0bef 9c3f
00000050: f7ae d13f 891a a53e 9f23 bb3e 77e7 a23f
00000060: d68c 113f 328a 553f 32c8 2f3f 8d27 7e3f
00000070: 7a2e 853f 145c fc3f 120e 12bf 9790 b3be
00000080: 00f4 69be 95dc 433e 484c 6a3f f66a 5c3f
00000090: 50f0 b13f f92b ec3e 6442 043e 982e f5bc
000000a0: 706d 283e b8ea 283f fdaf d23e b2e2 cbbd
000000b0: cc7b 243d c555 c3bd 997a 983f 0f29 bfbe
000000c0: 89a5 3f3e be31 c8be 5190 993f e4a2 663f
000000d0: ad51 bf3f 15a5 a03e 2778 cb3f 2d7b 8a3f
000000e0: 098c 553f 09b4 233f 1c87 2e3f 4f4f 4c3f
000000f0: 3d34 643f 10aa f93f a2da 8fbe d17d 2abe
00000100: 1ce3 2a3f e07b ac3e 31d1 7abf e9a4 933f
00000110: 96d3 1bbf e723 a93f 7fdb 253f 0015 f9bf
00000120: 4cbc b63f 2447 bd3d c3c4 31c0 3570 08bf
00000130: 6d4a 473f bce6 0f3e e531 e6bf c208 e0bf
00000140: 4372 dabe 1e9d d43e d719 5a3f fa4f 99be
00000150: d7af f13f 2412 d13f 2c51 3bc0 352f 6f3f
00000160: e664 9e3e b06e 753f 2bc9 d23e 0383 2bbe
00000170: 4972 8c3f c5c7 31bf 6893 f1bf a846 893f
00000180: d98b 51be 4393 b1bc 4541 373e 61e0 7f3f
00000190: 7702 d33f 0b6d bc3e 770d a5be dfd7 a73d
000001a0: 9142 29bd 623d 423f c1f0 c33e cb4c 81bd
000001b0: 465d 0bbf b426 0dbf 5c17 393f 2293 edbe
000001c0: c479 043f 4639 11bf 8813 913f 0ff6 893f
000001d0: 14ac ec3f e02e ef3e 3bbb db3e 57d4 a63f
000001e0: cb18 be3e 5fb6 323f 1103 103f b36f 3b3f
000001f0: 5618 813f be3d ea3f 67ea 96be c9ed e7be
00000200: 73df 0ebf 54c1 d5be 859d 653e 37df 533f
00000210: 7bc0 aa3f 9724 893e f8d9 96be 9e12 1f3d
00000220: c3cf a5be 9463 3d3f 38ae a83d d2f2 c9bd
00000230: a677 0fbf 8794 dfbe e162 f03e b328 cdbe
00000240: 4168 a63e ede4 47bf dd3c 723f cf88 833f
00000250: 62b1 c43f 8979 5d3e 6c04 c43e 12f5 a23f
00000260: 91c2 873e 5941 5c3f 52c8 133f 4491 1a3f
00000270: a267 5b3f cf01 f13f 202a d5be 3504 b9be
00000280: 75eb 4ac0 15be 983f bd8a 933f 4e40 943f
00000290: dfc9 d63f 9618 403e da92 38c0 c2f6 463f
000002a0: 5c1f 4b3f 65a0 ec3f d711 1c3f d119 fc3f
000002b0: 40d8 b13f 5cb0 2fc0 e9ea 1dc0 9028 d43f
000002c0: 8b87 a0bf fa1e 633f 3311 4c3f b002 e03f
000002d0: b37f a33f b07f 09c0 7f38 ebbe 3f9a 42be
000002e0: b866 3f3d 7177 673f ccf1 0ebf 102d f63f
000002f0: 9764 04bf 8b50 043f b1bb 8b3f c220 30c0
00000300: 0b8d 25be 1665 d73e 9a65 4c3f 950f 7a3f
00000310: f4f4 b93f c5fa d13e a5c7 51bd c593 013e
00000320: cebf 923c e57f 303f bc55 eb3e f84c f3bd
00000330: b697 5fbd ffae 97bd 9e31 a83f 14dc 07bf
00000340: d94d 5b3e aa68 09bf fd24 723f e9be 933f
00000350: 23b1 cf3f 4a29 733e e1ec c63f 2037 7e3f
00000360: ad41 5b3f be0b 143f 4641 0c3f 4394 3f3f
00000370: 4688 823f 6b1b e73f 365e cfbd e97c a3bd
00000380: eb9d 3abe 1030 9c3e fa13 843f cfc7 4b3f
00000390: 9140 d83f 848c fc3e fe5e a2bd 44fb 183e
000003a0: 55b5 fe3d 5a8b 3e3f d019 cb3e 12be 09be
000003b0: e355 c73d 13ec 8dbe 5b42 b93f 9700 a1be
000003c0: e54a 883e be98 05bf b4ed 9a3f 9563 773f
000003d0: b6bc ca3f dabd a93e 3d08 a93f 18a5 8a3f
000003e0: 1dfd 3a3f a8f8 5e3f bf5b 003f ea5b 683f
000003f0: 8f37 903f 923d 0440 a073 58be c06d bdbd
-0.3177023 -0.25819668 0.09910419 0.93207955 1.5924664 0.17482771 -0.2824132 0.15645367
-0.28168973 0.8182895 0.38809228 -0.21348524 -0.7263217 -0.1968263 0.5638704 -0.5566357
0.34241033 -0.514957 1.1148756 1.226045 1.638152 0.32246807 0.36550614 1.2726887
0.56855524 0.83413994 0.6866485 0.992791 1.0404809 1.97156 -0.5705272 -0.3507125
-0.22846985 0.19127114 0.91522646 0.8610071 1.3901463 0.46127298 0.12915951 -0.029929444
0.16447997 0.6598315 0.41149893 -0.09955348 0.040157124 -0.095378436 1.1912414 -0.37336013
0.1871549 -0.3910045 1.1997167 0.900923 1.49468 0.31375948 1.5896043 1.081884
0.834168 0.63946587 0.6817491 0.79808515 0.8914221 1.9505024 -0.2809649 -0.16649558
0.6675279 0.3368826 -0.9797545 1.1534702 -0.6086973 1.3214082 0.6478805 -1.9459534
1.4276214 0.092420846 -2.7776344 -0.53296214 0.7784794 0.14052862 -1.7983977 -1.7502673
-0.426653 0.4152612 0.8519568 -0.2994383 1.8881787 1.6333661 -2.9268293 0.9343141
0.30936354 0.9587202 0.41169104 -0.16749196 1.0972377 -0.6944545 -1.887311 1.0724688
-0.20463504 -0.021676665 0.17895992 0.9995175 1.6485127 0.36801943 -0.32236835 0.08195471
-0.04132325 0.7587491 0.38269618 -0.06313475 -0.544392 -0.5513718 0.7230127 -0.46401316
0.517483 -0.5672802 1.1334085 1.0778216 1.8490014 0.4671545 0.42916283 1.3033551
0.3712829 0.69809526 0.5625468 0.73217314 1.0085552 1.8300092 -0.2947571 -0.45298603
-0.55809706 -0.4174906 0.2242337 0.82762474 1.333999 0.26785728 -0.29463172 0.038836114
-0.32385072 0.7398007 0.082363546 -0.098607674 -0.56041944 -0.43668005 0.4695044 -0.40070114
0.32501414 -0.7808369 0.9462412 1.0276126 1.5366633 0.21628393 0.38284624 1.273104
0.2651563 0.8603721 0.5772754 0.6037791 0.85705006 1.8828677 -0.416337 -0.36136022
-3.1706212 1.1933008 1.1526715 1.1582124 1.6780356 0.18759379 -2.883963 0.7772027
0.79344726 1.8486449 0.6096472 1.9695379 1.3894119 -2.7451391 -2.4674628 1.6574879
-1.2541364 0.8871914 0.79713744 1.750082 1.2773346 -2.1484184 -0.4594154 -0.19004153
0.04672882 0.9041663 -0.558377 1.9232502 -0.5171599 0.516854 1.0916654 -2.7519994
-0.16167085 0.4206931 0.7984253 0.97680026 1.4527879 0.41011634 -0.051215786 0.12654026
0.017913725 0.6894515 0.45963848 -0.11879915 -0.054588042 -0.07406425 1.3140142 -0.5307019
0.21416415 -0.5367533 0.9458769 1.1542636 1.6225933 0.2374622 1.554104 0.99302864
0.8564709 0.5783042 0.547871 0.74835604 1.0197837 1.8055242 -0.10125391 -0.07982809
-0.18224303 0.3050542 1.0318596 0.7960176 1.6894704 0.49325955 -0.079282746 0.149396
0.1243693 0.74431384 0.3966813 -0.13451412 0.097331785 -0.27719173 1.4473375 -0.31445763
0.2661964 -0.5218619 1.2103791 0.96636325 1.583884 0.33152658 1.3205639 1.0831633
0.7304247 0.8709817 0.50139993 0.9076525 1.1266955 2.066258 -0.21137857 -0.09249449

layer2.bias f4 [32]
00000000: 9a32 23bc 78e2 873e 6cfe 2b3f 3c99 823d
00000010: 8ad7 1abe be0a d43d 294c 983e 40e4 743e
00000020: 6300 51be af21 db3e 9894 4c3e 3d3f f33e
00000030: d072 143f aba8 e53e a337 603e 523b 613c
00000040: 071a e03e 5f38 ad3e ae07 2dbe 0e23 70be
00000050: 809f 9fbe 88ab 9cbe bcfd 09be 7c5b 80be
00000060: d5a6 fa3b d5f2 69be 9ea9 063f caaf e0bd
00000070: 9309 a93d 7708 aa3d 4515 7c3e 0dbc d13e
-0.009960795 0.2653997 0.6718509 0.063768834 -0.15121284 0.103536114 0.29745606 0.23915195
-0.20410304 0.42799136 0.19978559 0.47509184 0.5798769 0.44855246 0.21896224 0.013747053
0.43769857 0.3383207 -0.16897461 -0.23450872 -0.31176376 -0.30599618 -0.13475698 -0.25069797
0.0076492825 -0.2284654 0.52602565 -0.10971029 0.08253779 0.08302396 0.24617489 0.40963784

output.weight f4 [1, 32]
00000000: cd55 73bf b04d 9fbf b31c 4c40 d0bf 7abf
00000010: 3370 70bf fbe9 8740 4fdb 9abf 927f 91bf
00000020: 4fb7 8ebf 34b0 6c40 9619 95bf 6db3 8340
00000030: c1d0 4a40 2ae7 99bf 2795 4740 e802 95bf
00000040: 7adc 96bf 97ad 6b40 e633 04be 1056 8fbf
00000050: e914 a33f f008 82bf 4fd6 f83f 321a 98bf
00000060: 923d 7fbf 6e03 91bf 17a7 89bf bb89 74bf
00000070: 2296 6ebf 5aa4 b93d 703e fa3f 8719 2440
-0.95052797 -1.2445583 3.1892517 -0.9794893 -0.939212 4.247312 -1.2098178 -1.1367056
-1.1149691 3.6982546 -1.1648433 4.1156526 3.1689913 -1.2023671 3.1184785 -1.1641512
-1.1786034 3.68247 -0.12910423 -1.1198139 1.2740756 -1.0158978 1.9440402 -1.1882994
-0.99703324 -1.1329172 -1.0754117 -0.9552266 -0.93197834 0.09064551 1.9550304 2.564058
