Models/OU_network/tau_0.5theta_0.5/target_Q_network.pt (torch, 7263 bytes, 5 tensors)

layer1.weight f4 [32, 4]
0	0xbf206ffc	-0.62670875
1	0xbfab2279	-1.3369895
2	0xbe37c102	-0.1794472
3	0xbd8ab4c6	-0.06772761
4	0x3dd3228d	0.103093244
5	0x3fb48e07	1.4105843
6	0x3db98082	0.09057714
7	0xbdaf920f	-0.0857278
8	0x3f84c8d6	1.037379
9	0x401e96e8	2.4779606
10	0x3ef75fd8	0.4831531
11	0xbca1c0a5	-0.01974518
12	0xbf9e212c	-1.2353873
13	0x401e58f4	2.4741793
14	0x3f12842a	0.57232916
15	0x3d153a04	0.03643228
16	0xbf9f12a8	-1.2427568
17	0x4049db12	3.153996
18	0x3f2a45ac	0.6651256
19	0x3e7d0f09	0.24712767
20	0xbeb49014	-0.35266173
21	0x3e81691a	0.252755
22	0xbec5fc7a	-0.38669187
23	0x3f050347	0.51958126
24	0xbe6dda62	-0.23227838
25	0xbf8f1a5e	-1.1179922
26	0xbcb6b324	-0.022302218
27	0x3d074f22	0.03303445
28	0xbfbcdf84	-1.4755712
29	0xbee90a9b	-0.45515904
30	0x3ea39758	0.31951404
31	0x3d0d925d	0.03456341
32	0xbea3543e	-0.3190021
33	0x3f87a9e7	1.0598725
34	0xbf6cde2e	-0.9252652
35	0xbe558cc4	-0.20854479
36	0xc0023b70	-2.0348778
37	0x3fab0f36	1.3364017
38	0x3f227d96	0.6347288
39	0xbdf250b4	-0.11831799
40	0xbf9ec755	-1.2404581
41	0xbff1afa6	-1.8881729
42	0x3eab9ca4	0.33517945
43	0x3c4da106	0.012550598
44	0xc0059dd2	-2.0877576
45	0x3f14a274	0.58060384
46	0x3ed6bc8a	0.4194072
47	0x3ef7f96e	0.48432487
48	0xbea7fd4f	-0.32810447
49	0x3f91f742	1.1403582
50	0x3ca19362	0.019723598
51	0xbe8f5755	-0.27996317
52	0xbed99ade	-0.42500967
53	0xbfbe0a93	-1.4846977
54	0xbcbdf16e	-0.023186412
55	0xbe28e0d2	-0.16492012
56	0x3ffb1f6c	1.9618964
57	0xbf637b65	-0.8886016
58	0xbc7af239	-0.015316539
59	0x3e7aaf76	0.24480996
60	0xc015fd92	-2.3436017
61	0x3ea48542	0.32132918
62	0x3ee4dff8	0.44702125
63	0xbd57c246	-0.052675508
64	0xbffcf336	-1.9761722
65	0xbfabded2	-1.3427374
66	0x3ea9a3e0	0.3313284
67	0x3ef47150	0.477427
68	0xbebdcba7	-0.37069437
69	0xbed1ced8	-0.40978122
70	0x3f414a58	0.75504065
71	0x3efbc848	0.4917624
72	0xbff94efc	-1.9477229
73	0x3f9e2d9c	1.2357669
74	0xbe80c818	-0.2515266
75	0xbece80bc	-0.40332592
76	0xc008e7fc	-2.1391592
77	0x40144686	2.3168044
78	0x3f0e7dce	0.5566071
79	0x3e67114e	0.22565195
80	0xbee472ce	-0.4461884
81	0xc05c8026	-3.4453216
82	0xbf50a24b	-0.8149764
83	0xbe7b508f	-0.2454245
84	0xc0264dff	-2.5985105
85	0xc00dd746	-2.2162642
86	0xbf4572e2	-0.7712842
87	0xbe7bae08	-0.24578106
88	0x40083dac	2.1287642
89	0x3f583f76	0.84471834
90	0xbac99859	-0.0015380486
91	0xbded0214	-0.11572662
92	0xbfa06054	-1.2529397
93	0xc04a288e	-3.1587253
94	0xbf412c9a	-0.7545868
95	0xbe34a9a4	-0.17642838
96	0x3fd89554	1.6920571
97	0x3fd3259c	1.6495852
98	0x3f5254f3	0.8216087
99	0x3cd61b44	0.026136048
100	0xbfb9cb8a	-1.451524
101	0xc036902a	-2.852549
102	0xbf2961e6	-0.66165006
103	0xbe8989dc	-0.2686299
104	0xbfd6fc62	-1.6795771
105	0xc01e276a	-2.4711556
106	0xbf27e538	-0.65584135
107	0xbe41cc81	-0.18925668
108	0xc01ed984	-2.482026
109	0x3f6976e3	0.9119703
110	0x3f244082	0.6416093
111	0x3cdeb3d6	0.027185362
112	0xc00ccb66	-2.1999145
113	0x3f943c2e	1.1580865
114	0xbee6e980	-0.4510002
115	0xbe2227af	-0.1583545
116	0xbf322a98	-0.6959624
117	0x4042b52a	3.0423074
118	0x3f186bf5	0.5953973
119	0x3e10d2a6	0.14142856
120	0xbf96f565	-1.1793638
121	0x3cb63f2f	0.022246925
122	0xbe279034	-0.16363603
123	0xbdfce5ce	-0.12348519
124	0xbf9262c8	-1.1436396
125	0xbfc3e3c8	-1.5303888
126	0xbebe285e	-0.37140173
127	0xbe0dc702	-0.13845447

layer1.bias f4 [32]
0	0x400de1fe	2.2169185
1	0x3fd58e21	1.6683999
2	0x3e41c598	0.18923032
3	0x3eaba722	0.3352595
4	0x3e342a1c	0.17594188
5	0x3fc89382	1.5670016
6	0x3fa3f6e8	1.2809725
7	0x3f90e247	1.1319054
8	0x3f602fb4	0.8757279
9	0x3f8424bc	1.032371
10	0x3f47b02f	0.7800321
11	0x3fcae5be	1.5851362
12	0x3ff76317	1.9327115
13	0x3fac8e06	1.3480842
14	0x3f745f83	0.9545824
15	0x3fb9f2a6	1.4527175
16	0x3f9466c5	1.1593863
17	0x3f8a4d1e	1.0804784
18	0x3fcd066e	1.6017587
19	0x3fba9354	1.4576211
20	0xbf1129be	-0.5670432
21	0x3fe61976	1.797652
22	0x3f6496be	0.89292514
23	0x3e51bb98	0.20481718
24	0xbe5cc1da	-0.21558324
25	0x3f13a1d0	0.5766878
26	0x3f54fcac	0.83198047
27	0x3ff7cace	1.9358766
28	0x3f804bae	1.0023096
29	0xbe9156f4	-0.28386652
30	0x3fb81b5d	1.4383351
31	0x3ffd0cb8	1.9769506

layer2.weight f4 [32, 32]
0	0xbea2a402	-0.31765753
1	0xbe84336e	-0.25820488
2	0x3dcadbd7	0.099052124
3	0x3f6e9c8e	0.93207633
4	0x3fcbd5cd	1.5924622
5	0x3e330e7a	0.17485991
6	0xbe90928c	-0.28236806
7	0x3e203b0a	0.15647522
8	0xbe9035f2	-0.28166157
9	0x3f517bf5	0.8182977
10	0x3ec6b871	0.38812593
11	0xbe5a9795	-0.21346886
12	0xbf39efe6	-0.7263168
13	0xbe498058	-0.19677866
14	0x3f105b0e	0.5638894
15	0xbf0e7e82	-0.55661786
16	0x3eaf542a	0.342439
17	0xbf03d35e	-0.51494396
18	0x3f8eb4e6	1.1148956
19	0x3f9cef44	1.2260518
20	0x3fd1b01a	1.6381867
21	0x3ea51ef6	0.32250184
22	0x3ebb220e	0.3654942
23	0x3fa2e8a8	1.2727251
24	0x3f118a77	0.56851906
25	0x3f558c87	0.8341755
26	0x3f2fca72	0.6866828
27	0x3f7e2882	0.9928056
28	0x3f852f20	1.0405006
29	0x3ffc5bce	1.9715517
30	0xbf120bfc	-0.57049537
31	0xbeb38a6c	-0.35066545
32	0xbe69e332	-0.22840574
33	0x3e43e064	0.19128567
34	0x3f6a49dc	0.9151895
35	0x3f5c6ac0	0.8610039
36	0x3fb1f02d	1.3901421
37	0x3eec31cc	0.46131742
38	0x3e0453e4	0.12922627
39	0xbcf50167	-0.029907895
40	0x3e287575	0.16451056
41	0x3f28eb41	0.6598397
42	0x3ed2b470	0.41153288
43	0xbdcbda1c	-0.099537104
44	0x3d2494b6	0.040180884
45	0xbdc33302	-0.09531213
46	0x3f987cca	1.1913083
47	0xbebf26b9	-0.3733423
48	0x3e3fad0c	0.18718356
49	0xbec82f30	-0.390985
50	0x3f9990f8	1.1997366
51	0x3f66a357	0.90092987
52	0x3fbf52d0	1.4947147
53	0x3ea0a97e	0.31379312
54	0x3fcb7950	1.5896397
55	0x3f8a7c5e	1.0819204
56	0x3f558b0a	0.8341528
57	0x3f23b65e	0.63950145
58	0x3f2e895b	0.6817834
59	0x3f4c5044	0.79809976
60	0x3f64358a	0.89144194
61	0x3ff9a9ca	1.950494
62	0xbe8fd5e8	-0.28092885
63	0xbe2a6e78	-0.16643703
64	0x3f2ae02d	0.66748315
65	0x3eac7918	0.33686137
66	0xbf7ad14e	-0.97975624
67	0x3f93a586	1.1534889
68	0xbf1bd29a	-0.6086823
69	0x3fa922b0	1.3213711
70	0x3f25d83b	0.64783067
71	0xbff91582	-1.9459689
72	0x3fb6bb63	1.4275936
73	0x3dbd4c36	0.09243052
74	0xc031c575	-2.7776768
75	0xbf0870d6	-0.53297174
76	0x3f4748ce	0.77845466
77	0x3e0fdaeb	0.14048354
78	0xbfe63402	-1.7984622
79	0xbfe00916	-1.7502773
80	0xbeda762a	-0.42668277
81	0x3ed49bf1	0.41525224
82	0x3f5a18c0	0.85194016
83	0xbe99501c	-0.2994393
84	0x3ff1aeb2	1.8881438
85	0x3fd11116	1.6333339
86	0xc03b51d6	-2.9268699
87	0x3f6f2cdc	0.93427825
88	0x3e9e649d	0.30936137
89	0x3f756c64	0.95868516
90	0x3ed2c4b0	0.41165686
91	0xbe2b847e	-0.1674976
92	0x3f8c71bf	1.0972213
93	0xbf31c701	-0.6944428
94	0xbff19455	-1.8873392
95	0x3f89455d	1.0724293
96	0xbe517b08	-0.20457089
97	0xbcb174c2	-0.02166212
98	0x3e373794	0.17892295
99	0x3f7fe02b	0.9995143
100	0x3fd30254	1.6485085
101	0x3ebc72df	0.3680639
102	0xbea504b6	-0.32230157
103	0x3da7e32e	0.08197628
104	0xbd292276	-0.04129263
105	0x3f423deb	0.7587573
106	0x3ec3f535	0.38273016
107	0xbd814434	-0.06311837
108	0xbf0b5bb7	-0.5443682
109	0xbf0d225b	-0.5513055
110	0x3f391bc0	0.7230797
111	0xbeed90cc	-0.46399534
112	0x3f047ba5	0.51751167
113	0xbf1137ff	-0.5672607
114	0x3f91142e	1.1334283
115	0x3f89f648	1.0778284
116	0x3fecad37	1.8490361
117	0x3eef334a	0.46718818
118	0x3edbbfdc	0.42919815
119	0x3fa6d588	1.3033915
120	0x3ebe16cd	0.3712677
121	0x3f32b8b4	0.69813085
122	0x3f100551	0.5625811
123	0x3f3b70a8	0.73218775
124	0x3f8118fc	1.008575
125	0x3fea3d78	1.8300009
126	0xbe96e5ac	-0.294721
127	0xbee7e61c	-0.45292747
128	0xbf0edc68	-0.55805063
129	0xbed5c071	-0.41748384
130	0x3e6597d2	0.22421196
131	0x3f53df06	0.8276218
132	0x3faac059	1.333995
133	0x3e892942	0.2678929
134	0xbe96d37f	-0.29458234
135	0x3d1f2956	0.03885778
136	0xbea5cc76	-0.32382554
137	0x3f3d6423	0.7398092
138	0x3da8c0f8	0.08239931
139	0xbdc9ea77	-0.09859174
140	0xbf0f76b0	-0.5604048
141	0xbedf8e42	-0.43663222
142	0x3ef069e5	0.4695579
143	0xbecd2662	-0.40068346
144	0x3ea66c05	0.32504287
145	0xbf47e3da	-0.7808205
146	0x3f723dca	0.9462553
147	0x3f83890a	1.0276196
148	0x3fc4b295	1.5366999
149	0x3e5d822c	0.21631688
150	0x3ec40602	0.38285834
151	0x3fa2f64d	1.2731415
152	0x3e87c21c	0.2651528
153	0x3f5c43b4	0.86040807
154	0x3f13ca9a	0.5773102
155	0x3f1a9238	0.6037936
156	0x3f5b68bf	0.85706705
157	0x3ff1018a	1.8828595
158	0xbed52647	-0.41630766
159	0xbeb8feaa	-0.36131793
160	0xc04aeb76	-3.1706214
161	0x3f98be9b	1.1933168
162	0x3f938b48	1.152688
163	0x3f944068	1.1582155
164	0x3fd6ca02	1.6780398
165	0x3e401b8c	0.18760508
166	0xc03892f6	-2.8839698
167	0x3f46f64f	0.7771959
168	0x3f4b2045	0.79346114
169	0x3feca04a	1.8486416
170	0x3f1c10fa	0.60963404
171	0x3ffc19b4	1.9695344
172	0x3fb1d8be	1.389427
173	0xc02fb07b	-2.7451465
174	0xc01deaf0	-2.4674644
175	0x3fd4286a	1.6574833
176	0xbfa087dc	-1.2541461
177	0x3f631e6b	0.8871829
178	0x3f4c1262	0.7971555
179	0x3fe002c2	1.7500842
180	0x3fa380a0	1.2773628
181	0xc0097f57	-2.1483972
182	0xbeeb35be	-0.4593944
183	0xbe429740	-0.1900301
184	0x3d3f69e2	0.046731837
185	0x3f6778d7	0.9041876
186	0xbf0ef021	-0.5583516
187	0x3ff62cf4	1.9232469
188	0xbf046392	-0.5171443
189	0x3f045112	0.51686203
190	0x3f8bbc00	1.0916748
191	0xc03020a5	-2.7519925
192	0xbe257c3e	-0.16160676
193	0x3ed766fe	0.42070764
194	0x3f4c632e	0.79838836
195	0x3f7a0f5f	0.97679704
196	0x3fb9f4d1	1.4527837
197	0x3ed20098	0.41016078
198	0xbd5181aa	-0.051149048
199	0x3e01996a	0.12656179
200	0x3c92fff3	0.017944312
201	0x3f30806e	0.6894597
202	0x3eeb5a2f	0.45967242
203	0xbdf34463	-0.11878278
204	0xbd5f7ece	-0.05456429
205	0xbd978c3d	-0.07399795
206	0x3fa833d0	1.3140812
207	0xbf07daea	-0.5306841
208	0x3e5b555a	0.21419278
209	0xbf096763	-0.5367338
210	0x3f72264a	0.94589674
211	0x3f93bf22	1.1542704
212	0x3fcfb246	1.622628
213	0x3e73321c	0.23749584
214	0x3fc6ee0a	1.5541394
215	0x3f7e3983	0.99306506
216	0x3f5b40ae	0.8564557
217	0x3f140e13	0.57833976
218	0x3f0c4385	0.54790527
219	0x3f3f9538	0.74837065
220	0x3f8288ec	1.0198035
221	0x3fe71b26	1.805516
222	0xbdcf4b50	-0.101217866
223	0xbda35e3a	-0.07976957
224	0xbe3a8d1e	-0.18217894
225	0x3e9c31f8	0.30506873
226	0x3f8412c4	1.0318227
227	0x3f4bc799	0.79601437
228	0x3fd8406e	1.6894662
229	0x3efc9257	0.49330398
230	0xbda23bfe	-0.07921599
231	0x3e1900ea	0.14941755
232	0x3dfec560	0.1243999
233	0x3f3e8be3	0.744322
234	0x3ecb1e44	0.39671528
235	0xbe09b9c7	-0.13449775
236	0x3dc76258	0.097355545
237	0xbe8de362	-0.27712542
238	0x3fb9448c	1.4474044
239	0xbea0fe41	-0.3144398
240	0x3e884ea6	0.26622504
241	0xbf059777	-0.5218424
242	0x3f9aee5a	1.2103989
243	0x3f776408	0.9663701
244	0x3fcabdd9	1.5839187
245	0x3ea9c243	0.33156022
246	0x3fa90966	1.3205993
247	0x3f8aa64a	1.0831997
248	0x3f3afc1e	0.7304095
249	0x3f5efafd	0.8710173
250	0x3f005dfe	0.5014342
251	0x3f685cdf	0.9076671
252	0x3f903836	1.1267154
253	0x40043d6f	2.0662496
254	0xbe586a2c	-0.21134251
255	0xbdbd4f10	-0.092435956

layer2.bias f4 [32]
0	0xbc22cdf7	-0.009936801
1	0x3e87e92c	0.26545084
2	0x3f2bfb7b	0.67180604
3	0x3d82b411	0.06382001
4	0xbe1ace2a	-0.15117708
5	0x3dd40e68	0.1035431
6	0x3e9852dc	0.29750717
7	0x3e74f1a8	0.2392031
8	0xbe50fa28	-0.20407927
9	0x3edb1d20	0.42795658
10	0x3e4ca200	0.19983673
11	0x3ef33b3c	0.4750613
12	0x3f1470ff	0.5798492
13	0x3ee5af5e	0.44860357
14	0x3e602d66	0.21892318
15	0x3c61ba83	0.013777378
16	0x3ee020bc	0.43774974
17	0x3ead3a6e	0.3383364
18	0xbe2d07ae	-0.16897461
19	0xbe7015a3	-0.23445754
20	0xbe9f9f80	-0.31176376
21	0xbe9ca864	-0.30597222
22	0xbe09fe76	-0.13475975
23	0xbe8057e8	-0.25067067
24	0x3bfb7676	0.0076740338
25	0xbe69ebe8	-0.22843897
26	0x3f06acf8	0.5260768
27	0xbde09c1a	-0.10967274
28	0x3da908e4	0.08253649
29	0x3daa0878	0.083023965
30	0x3e7c0990	0.24613023
31	0x3ed1b406	0.4095766

output.weight f4 [1, 32]
0	0xbf73573c	-0.95054984
1	0xbf9f4ea9	-1.244588
2	0x404c1c40	3.1892242
3	0xbf7ac163	-0.97951335
4	0xbf707198	-0.9392333
5	0x4087e9fd	4.247313
6	0xbf9adc46	-1.2098472
7	0xbf918084	-1.1367345
8	0xbf8eb806	-1.114991
9	0x406cafaf	3.6982229
10	0xbf951a88	-1.1648722
11	0x4083b34c	4.115637
12	0x404ad090	3.1689796
13	0xbf99e828	-1.2023973
14	0x4047947a	3.1184373
15	0xbf9503ae	-1.1641748
16	0xbf96dd68	-1.1786318
17	0x406bade4	3.6824884
18	0xbe0433e6	-0.12910423
19	0xbf8f56d2	-1.119837
20	0x3fa314ea	1.2740757
21	0xbf8208e0	-1.0158958
22	0x3ff8d594	1.9440179
23	0xbf981adc	-1.1883197
24	0xbf7f3f0b	-0.9970557
25	0xbf91040f	-1.1329364
26	0xbf89a809	-1.0754405
27	0xbf748a92	-0.9552394
28	0xbf6e8f2c	-0.9318721
29	0x3db9a45a	0.09064551
30	0x3ffa3d68	1.954999
31	0x4024188c	2.5639982
