Models/OU_network/tau_0.5theta_0.5/target_policy_network.pt (torch, 7175 bytes, 5 tensors)

layer1.weight f4 [32, 3]
0	0x3f1f6a14	0.6227124
1	0xbfa58767	-1.2931947
2	0xbed55f0a	-0.41674072
3	0xbf1832f6	-0.5945276
4	0xbf83b6c4	-1.0290151
5	0xbdfd9978	-0.123827875
6	0xbf88b132	-1.0679076
7	0x3ecd8484	0.40140164
8	0x3f49f452	0.7888843
9	0xbbd4ce9e	-0.0064943573
10	0x3e5ec876	0.21756157
11	0x3f1f90b2	0.6233016
12	0x3f697c08	0.9120488
13	0xbfa3d3ca	-1.2799008
14	0xbe97c996	-0.29645985
15	0x3f190e92	0.5978786
16	0x3d1249ea	0.03571502
17	0x3eca83d6	0.39553708
18	0xbe8db10e	-0.27674145
19	0x3fa30e2e	1.2738702
20	0x3f199a4e	0.60001075
21	0x3fa0b728	1.2555895
22	0xbfb36cdb	-1.4017595
23	0xbf0ee384	-0.5581591
24	0x3ee24e6e	0.44200462
25	0x3fa884fa	1.3165581
26	0x3df44844	0.11927846
27	0x3eb8f07c	0.36120975
28	0x3f2b9162	0.6701871
29	0x3e4df040	0.2011118
30	0x3ce2f162	0.02770299
31	0xbe29c0ea	-0.16577497
32	0x3f7c24ca	0.98493636
33	0xbf07bf6f	-0.5302648
34	0xbf9fca4d	-1.2483612
35	0xbf3a6b8e	-0.72820365
36	0x3f4ca73a	0.7994267
37	0x3f1224a0	0.57087135
38	0xbdd1656d	-0.102244236
39	0x3f6575ae	0.8963269
40	0x3eac5d06	0.3366472
41	0xbf4eb8b7	-0.807506
42	0x3ec80370	0.39065123
43	0xbf6a80f7	-0.91603035
44	0xbe91af10	-0.28453875
45	0xbec5e30c	-0.38649786
46	0xbfaeed36	-1.3666141
47	0xbc19f4f0	-0.009396777
48	0x3c28c24a	0.010300228
49	0xbdb642f6	-0.088994905
50	0xbf2ce114	-0.6753094
51	0x40193009	2.3935568
52	0xbf1ef102	-0.620865
53	0x3e5619fe	0.20908353
54	0xbd239b1e	-0.039942853
55	0x3efa5111	0.48889974
56	0x3f5baa5c	0.8580682
57	0xbf93607f	-1.1513823
58	0xbfe7c12a	-1.8105824
59	0xbf2c193e	-0.67226017
60	0x3ebb2e92	0.36558968
61	0x3f8f3b80	1.1190033
62	0xbe4bc2be	-0.19898507
63	0x3f4b1b1d	0.79338247
64	0x3f124426	0.57135236
65	0x3eac8e9c	0.33702552
66	0xbfcd7e24	-1.605412
67	0x3dc7c896	0.097550556
68	0x3f88da0a	1.069154
69	0x3e29dab6	0.16587338
70	0x3f38bb10	0.72160435
71	0x3e526629	0.20546784
72	0xbfd61be6	-1.6727264
73	0x3c56066e	0.013063056
74	0xbe592d40	-0.21208668
75	0xbf9095c6	-1.1295707
76	0x3f8059f2	1.0027449
77	0xbc3d7c3b	-0.011565263
78	0xbea6dec4	-0.32591832
79	0xbf936034	-1.1513734
80	0xbe07daec	-0.13267106
81	0xbedca3e9	-0.43093804
82	0x3fc19818	1.512454
83	0x3e92e14d	0.28687516
84	0xbe4b4f13	-0.19854383
85	0x3eac99e4	0.3371116
86	0xbf48a0f4	-0.78370595
87	0x3eda377d	0.4262046
88	0xbeb646a8	-0.3560078
89	0xbe4f5e04	-0.20250708
90	0xbfb8b768	-1.4430971
91	0x3d722d1d	0.059125055
92	0x3f31a876	0.69397676
93	0xbea49704	-0.32146466
94	0xbf8d541c	-1.1041293
95	0x3e3b337a	0.18281356

layer1.bias f4 [32]
0	0x3d44fca6	0.048092507
1	0x3ede8e26	0.43467826
2	0x3e701e87	0.23449145
3	0xbef5904c	-0.47961652
4	0x3eb619c4	0.35566533
5	0xbe67fcce	-0.22655031
6	0x3e5dedd9	0.21672763
7	0x3f14b3e9	0.5808702
8	0x3f4f00be	0.8086051
9	0x3d136ddb	0.03599344
10	0x3f1df236	0.6169771
11	0x3d9c8774	0.07643023
12	0x3f018b06	0.5060276
13	0x3e1fbbfa	0.15599051
14	0x3e270f23	0.16314368
15	0x3eddba5a	0.43306237
16	0x3edaf564	0.42765343
17	0x3f9cfeb3	1.2265228
18	0x3e21a9ec	0.15787476
19	0x3c59faf1	0.013304458
20	0x3e0ae83d	0.13565154
21	0xbed9617d	-0.4245719
22	0xbd514a10	-0.051096022
23	0x3ea4dacc	0.3219818
24	0x3f3f5956	0.7474569
25	0x3eaebe6f	0.34129664
26	0x3ebb8c42	0.36630446
27	0x3f150c29	0.5822168
28	0x3ec3bb20	0.38228703
29	0xbdcff0aa	-0.10153325
30	0x3beeb296	0.0072844727
31	0x3ef80918	0.48444438

layer2.weight f4 [32, 32]
0	0x3e9cc42b	0.30618414
1	0x3cd9d481	0.026590588
2	0x3e4d8104	0.20068747
3	0xbe4be5d2	-0.19911888
4	0xbe4abf7a	-0.19799605
5	0xbdd578bd	-0.104234196
6	0x3ec5d438	0.38638473
7	0xbd8fb2af	-0.07016503
8	0x3edd2900	0.43195343
9	0xbdb6b180	-0.08920574
10	0xbdc1ef34	-0.094694525
11	0xbd2d19d2	-0.042260952
12	0x3dd4329a	0.10361214
13	0x3d3b9bf2	0.045803018
14	0x3e21cafb	0.15800087
15	0x3daa7a87	0.083241515
16	0xbe064028	-0.13110411
17	0x3dddda33	0.10832634
18	0x3d96ce30	0.07363546
19	0x3da229d2	0.07918133
20	0x3ccdb842	0.025112275
21	0x3ab4a025	0.0013780637
22	0x3e30ec7c	0.17277712
23	0xbee7b882	-0.45257956
24	0x3d8d6f91	0.06906045
25	0x3e52573f	0.20541094
26	0x3ef1715b	0.47156796
27	0x3cbec164	0.023285575
28	0xbdae52ec	-0.0851191
29	0x3f22c765	0.635855
30	0x3e452cb4	0.19255334
31	0x3e29898f	0.1655638
32	0xbdcd7582	-0.100321785
33	0xbdf3d7c6	-0.1190639
34	0xbd892432	-0.06696357
35	0xbe1a0f39	-0.1504487
36	0xbcda8950	-0.026676804
37	0x3cddaae0	0.027059019
38	0xbdb66993	-0.089068554
39	0xbdf8e1bc	-0.121524304
40	0x3e15639d	0.1458878
41	0x3d77f6d4	0.060538128
42	0x3df474ae	0.119363174
43	0x3d20c71c	0.039252385
44	0xbdbbd96a	-0.09172328
45	0xbe073226	-0.13202724
46	0xbd3b33d0	-0.04570371
47	0x3d814fe6	0.063140675
48	0xbe31d8e6	-0.17367896
49	0x3d3337b0	0.04375428
50	0xbe1dc43e	-0.15406892
51	0x3dba3602	0.090923324
52	0xbdb1043e	-0.08643387
53	0xbe2f1944	-0.17099482
54	0x3dc90b4a	0.09816606
55	0x3d7e8418	0.062137693
56	0xbdff2b92	-0.12459482
57	0x3a984d00	0.0011619627
58	0xbe304aa3	-0.17215972
59	0xbe04c85d	-0.12967058
60	0xbd8055cb	-0.06266364
61	0x3e0b3d55	0.13597615
62	0xbd5da49c	-0.05411206
63	0xbd6519bc	-0.055932745
64	0xbdeb9046	-0.11502127
65	0x3e13c1a0	0.14429331
66	0xbf2afa88	-0.6678853
67	0xbfd1d0d4	-1.6391854
68	0xbdb20210	-0.086918
69	0xbedfd6d9	-0.43718603
70	0xbefcbb1c	-0.49361503
71	0x3db60664	0.08887938
72	0x3d59b97a	0.0531554
73	0x3e66d7b1	0.22543217
74	0x3e4aee38	0.19817436
75	0x3e39bc79	0.18138303
76	0xbed4b292	-0.41542488
77	0xbe6d4120	-0.23169374
78	0x3d5211d8	0.05128655
79	0x3d004759	0.031318042
80	0x3e860f0c	0.26183355
81	0xbe01341d	-0.12617536
82	0xbde2f5ea	-0.11082061
83	0x3dbfebe0	0.093711615
84	0xbd9b61a1	-0.075869806
85	0xbf53f6cb	-0.8279845
86	0xbf01d593	-0.50716513
87	0x3e807618	0.25090098
88	0x3ee67cac	0.45016992
89	0x3f0000e8	0.5000138
90	0xbd9bc71c	-0.076063365
91	0x3f47d7cd	0.7806366
92	0x3e6d14f7	0.23152529
93	0xbe30d8de	-0.17270228
94	0xbefb6f54	-0.49108374
95	0x3ea55582	0.322918
96	0xbd7a3088	-0.06108144
97	0xbd6c2f69	-0.0576624
98	0xbdfa86c9	-0.122327395
99	0xbf4c1042	-0.7971231
100	0x3e9a47ce	0.30132908
101	0xbe84f8d2	-0.25971085
102	0xbef19c1d	-0.47189417
103	0x3e23269c	0.15932697
104	0xbf5b0bc8	-0.8556485
105	0xbf16d5be	-0.58919895
106	0x3ea103c1	0.31448177
107	0x3e7ab250	0.24482083
108	0xbfb7aa14	-1.4348779
109	0xbf8adf82	-1.0849459
110	0x3dedba36	0.116077825
111	0x3d9468ef	0.07246577
112	0xbedbd6ca	-0.4293731
113	0x3e46abee	0.19401523
114	0xbe9b80d3	-0.30371723
115	0x3d8fd3b0	0.07022798
116	0xbee8a4ac	-0.45438135
117	0xbf5329ea	-0.8248583
118	0xbdf08eb8	-0.117459714
119	0xbe5642fc	-0.2092399
120	0xbe6c8b59	-0.23100032
121	0x3d4179d2	0.047235318
122	0x3ce4d995	0.027935782
123	0x3d862698	0.0655033
124	0xbea6fb05	-0.32613388
125	0xbeb69d8a	-0.35667068
126	0xbe6efcdd	-0.23338647
127	0x3e368478	0.1782397
128	0x3ea1d80d	0.31610146
129	0x3e0d388e	0.13791105
130	0x3e73d0d8	0.23810136
131	0xbbd4d712	-0.006495365
132	0xbe57f786	-0.21090516
133	0xbd99da4a	-0.075123385
134	0x3e0ae02e	0.1356208
135	0xbdcb2992	-0.09920038
136	0x3f0e0926	0.5548271
137	0xbe203b1a	-0.15647545
138	0x3e4830c9	0.1954986
139	0x3bcc4d7e	0.0062348237
140	0x3e707f97	0.23486172
141	0xbedeac30	-0.43490744
142	0x3e39c150	0.18140149
143	0x3e3fe687	0.18740283
144	0xbeffaaf0	-0.49935102
145	0x3e9ae626	0.30253714
146	0x3e5233b0	0.2052753
147	0x3d9b6954	0.07588449
148	0x3c86ef3c	0.016471498
149	0x3e8e9f90	0.27856112
150	0xbceaccb2	-0.02866206
151	0x3e33ac66	0.17546234
152	0x3f2dca61	0.6788693
153	0x3e81c144	0.25342762
154	0x3f265072	0.649665
155	0xbdea9480	-0.114541054
156	0xbecf27bc	-0.40460002
157	0x3ee13bd8	0.4399097
158	0x3e8a27ca	0.26983482
159	0x3ecd0000	0.40039062
160	0x3e007802	0.1254578
161	0xbcf7aee2	-0.030234758
162	0x3e9b01f8	0.3027494
163	0x3d7fbc3e	0.06243538
164	0x3e11bd20	0.14232302
165	0xbf075086	-0.52857244
166	0x3e52c42a	0.20582643
167	0x3df14f0e	0.117826566
168	0x3db44ef6	0.08804123
169	0xbe30e368	-0.17274249
170	0x3d868b7c	0.06569573
171	0xbe1cd986	-0.15317354
172	0x3e095012	0.1340945
173	0x3e91c965	0.28473964
174	0x3ec97342	0.39345747
175	0x3e8557ce	0.26043552
176	0xbe00bcf6	-0.12572083
177	0x3ea8d1fe	0.3297271
178	0x3e8d2fa4	0.2757541
179	0x3e0b3678	0.13594997
180	0xbeccce10	-0.40000963
181	0xbd23bc8c	-0.039974734
182	0x3ea78604	0.32719433
183	0xbf31c374	-0.6943886
184	0xbd582aba	-0.052775122
185	0xbe153709	-0.14571775
186	0x3f061602	0.5237733
187	0xbe2c6860	-0.16836691
188	0xbcdc4a1e	-0.02689081
189	0x3f372dec	0.71554446
190	0x3e07664f	0.13222621
191	0x3ebab278	0.36464286
192	0x3e23565e	0.15950915
193	0xbd9a153c	-0.075235814
194	0x3e71adc8	0.23601449
195	0x3df0c693	0.11756625
196	0x3be69704	0.0070370454
197	0xbecb9242	-0.39760023
198	0x3e80e376	0.2517354
199	0x3e8ff8fc	0.28119648
200	0x3cb80a08	0.02246572
201	0xbe91ab89	-0.28451183
202	0x3db36dd8	0.087611854
203	0xbe91e5f0	-0.2849574
204	0x3cc6a64c	0.024249218
205	0x3e00f3bb	0.12592976
206	0x3ee64a2e	0.4497847
207	0x3ea5fb70	0.32418394
208	0xbe5c14ef	-0.2149236
209	0x3ec14597	0.37748405
210	0x3e9d4647	0.3071768
211	0x3e9bf3d7	0.30459473
212	0xbea11048	-0.31457734
213	0x3dbf7cdd	0.09349988
214	0x3dd9d312	0.106359616
215	0xbed7a71a	-0.42119676
216	0x3d81104c	0.063019365
217	0xbe63216f	-0.22180723
218	0x3eb8eec6	0.3611967
219	0xbe29ca82	-0.16581157
220	0x3e3ecec0	0.18633556
221	0x3f2d6a18	0.6774001
222	0x3ebee7ee	0.37286323
223	0x3e1edf52	0.15514877
224	0x3eaa05a1	0.3320742
225	0x3d8d24e4	0.06891802
226	0x3e0fbce2	0.14036897
227	0xbd16efb0	-0.036849678
228	0x3eeae716	0.4587943
229	0x3d49d6bc	0.049277052
230	0x3e1a3dac	0.15062588
231	0x3eca16bc	0.3947047
232	0x3d33a044	0.043854013
233	0x3da77f78	0.081786096
234	0x3e0b054e	0.13576242
235	0xbdf434ad	-0.119241096
236	0xbe183b92	-0.14866474
237	0x3e1ecdfc	0.15508264
238	0x3dbcf2c8	0.09225994
239	0xbcb9ad00	-0.0226655
240	0xbe43e2f2	-0.19129542
241	0x3f0b6e42	0.54465115
242	0x3e31d596	0.17366633
243	0xbe41a6b9	-0.18911256
244	0xbd8e9260	-0.069615126
245	0xbda95335	-0.082678236
246	0xbd820186	-0.06347947
247	0x3effbbaa	0.49947864
248	0xbddaf9f7	-0.10692208
249	0x3c3d3b61	0.011549802
250	0xbec1c4a0	-0.37845325
251	0x3e65522a	0.22394624
252	0x3c01d575	0.007924427
253	0xbf07e5d2	-0.5308505
254	0x3e454bdc	0.1926722
255	0xbcfee372	-0.031114314

layer2.bias f4 [32]
0	0x3e0b4dd2	0.13603905
1	0xbdee44e0	-0.116342306
2	0x3e477344	0.19477564
3	0x3d84effe	0.064910874
4	0x3e34e262	0.17664483
5	0x3db627ae	0.08894287
6	0x3d0aed4f	0.03391772
7	0x3c250be2	0.010073634
8	0xbd4e2bad	-0.05033462
9	0x3d8a48ae	0.06752144
10	0x3d8b0b38	0.06789249
11	0x3e0a1ac8	0.13486779
12	0x3bc45335	0.0059913644
13	0x3d2feac4	0.0429485
14	0x3dadb72f	0.08482205
15	0x3de04118	0.10949916
16	0xbe6177a4	-0.22018296
17	0x3c989739	0.018626796
18	0x3e9868ee	0.29767555
19	0xbd6ac0b6	-0.05731269
20	0xbe19136e	-0.14948818
21	0x3e417bc4	0.18894869
22	0x3dcd5b51	0.10027183
23	0x3e52760c	0.20552844
24	0x3d59ff22	0.05322183
25	0x3e82a0e3	0.25513372
26	0x3d09a15d	0.033601154
27	0x3e323ff4	0.17407209
28	0xbce66db8	-0.02812849
29	0xbd52d092	-0.05146844
30	0xbc240566	-0.010011053
31	0xbe364658	-0.17800272

output.weight f4 [1, 32]
0	0x3ea6a445	0.32547203
1	0x3d94e642	0.07270481
2	0xbf6ddc64	-0.92914414
3	0xbfc6070e	-1.5470903
4	0x3f09ebd6	0.5387548
5	0x3f011634	0.50424504
6	0x3f050004	0.5195315
7	0xbf01de20	-0.5072956
8	0xbf8cda21	-1.1004068
9	0xbf7d88f6	-0.9903711
10	0x3ec8901c	0.39172447
11	0xbf4c726f	-0.7986211
12	0x401dca40	2.4654694
13	0x3eb1f430	0.34756613
14	0xbf3c7b70	-0.7362585
15	0x3ed0a427	0.40750238
16	0xbf6897fa	-0.908569
17	0x3ea26202	0.317154
18	0xbf2eae2c	-0.68234515
19	0xbf17da45	-0.5931743
20	0xbf8f6818	-1.1203642
21	0xbf7f0fce	-0.9963349
22	0x3f69fe13	0.9140331
23	0xbf02d2a5	-0.5110267
24	0xbf0f7cbd	-0.5604971
25	0xbf6aecdc	-0.9176767
26	0x3eb449ce	0.35212559
27	0x3f719894	0.9437344
28	0x3f0fa213	0.5610668
29	0xbef9857e	-0.4873466
30	0xbf353eb0	-0.7079878
31	0x3fc8fff8	1.5703115
